saved_model_icons/Paladin_/model.tflite (tflite, 476680 bytes, 10 tensors)

sequential_3/dense_6/BiasAdd/ReadVariableOp f4 [64]
000000 a2 d4 f9 bc 59 da e0 bb 3c c1 32 3d d7 66 ed 3c
       -0.030496899 -0.0068619666 0.043641314 0.028979702
000010 24 46 5e bb 27 fd 5f bd db b3 40 3d 18 de 18 bd
       -0.0033916319 -0.054684784 0.047046524 -0.03732118
000020 8e 10 1f 3e 48 05 fc bc 42 ff 59 3d af 52 2d 3c
       0.15533659 -0.030764237 0.05322195 0.010578795
000030 1d ae 82 bd bf 8d ed bc f2 f6 29 bd 31 4c 00 bc
       -0.06380866 -0.028998254 -0.04149527 -0.007830665
000040 d1 b9 2f bc 90 64 24 3d 86 8c 87 bd bd 12 5d bd
       -0.010725454 0.040134966 -0.066185996 -0.05397295
000050 84 9d 1f be db 2f 2b 3b b3 bf 04 3e 6c cb df 3a
       -0.15587431 0.0026121053 0.12963752 0.0017074174
000060 6b 3f c5 bb ac 1c 70 bc 48 d4 de 3c e4 fe 12 bd
       -0.006019523 -0.014655273 0.027200833 -0.035887614
000070 5c 0e 90 3c 3a b8 a6 bc ef d8 ac 3d 79 9f 8c 3d
       0.017584972 -0.020351518 0.08439814 0.068663545
000080 bb 01 79 3e 20 ec ae bd cf 06 01 bd 6c 93 34 3e
       0.24317066 -0.08541131 -0.031500634 0.17634362
000090 d0 37 48 3d 69 c2 9c bc db b6 29 be fd bd 99 bd
       0.048881352 -0.01913567 -0.1657366 -0.075069405
0000a0 11 e1 09 be 3d 7c d5 bb 8f 6d 82 3d 9f 87 82 3d
       -0.13464762 -0.0065150545 0.06368553 0.06373524
0000b0 3b e9 ff bd 8a 9e ea bc c7 23 c1 bc c7 9d ca 3d
       -0.12495657 -0.02864005 -0.02357663 0.09893375
0000c0 1c 01 e3 bc 29 3a ab bd c8 3e 22 bd b4 37 89 bb
       -0.02771049 -0.083607025 -0.039610654 -0.0041875485
0000d0 54 41 38 bc 65 25 50 bd 98 13 99 bd 93 5a bb bd
       -0.011246044 -0.050816912 -0.0747444 -0.09148135
0000e0 07 67 bf bb e5 bf 3a 3d 7b 10 25 bd 16 7b 6c 3d
       -0.0058411392 0.04559316 -0.04029892 0.05773457
0000f0 d3 12 6b 3d e7 23 92 3d cd 90 53 be ec 7c 9d 3b
       0.057391 0.07135754 -0.20660706 0.0048061516

sequential_3/dense_7/BiasAdd/ReadVariableOp f4 [28]
000000 4a 5a cc 3d 7d ef 27 3d 93 1b 0c 3d c7 18 0c 3e
       0.09978159 0.04099988 0.034205984 0.13681327
000010 97 8e 1e 3d 52 27 20 bc ad 77 04 bd 8e b3 51 be
       0.038710203 -0.009775 -0.032340694 -0.20478651
000020 f3 c4 7f bd a6 7f 24 bc e9 e6 83 3e c6 e4 99 3d
       -0.062443685 -0.010040199 0.25762108 0.07514338
000030 3a 87 f7 bd 8f b3 8b bd f3 24 ba bd e9 8b c1 bd
       -0.12086339 -0.068213575 -0.09089079 -0.09450514
000040 e7 d8 09 be 16 0e b7 bd bd 10 c6 bd ad 16 a9 3b
       -0.13461648 -0.089382336 -0.09671161 0.005160174
000050 8a 0b 92 3c 37 38 34 bd 33 17 c0 bc c1 2b 45 3c
       0.017827768 -0.043998923 -0.023448562 0.0120343575
000060 13 ac ec 3d 74 25 9b 3d 2b e6 a5 bd 40 50 c3 3d
       0.11556258 0.07575503 -0.08100542 0.09536791

sequential_3/conv2d_9/BiasAdd/ReadVariableOp f4 [32]
000000 e2 78 18 be be 43 e8 bb 78 7c 21 bc ab 1b a7 bd
       -0.14889863 -0.0070881536 -0.009856336 -0.08159574
000010 08 08 2a bd b4 94 b9 bc 20 03 1b be 40 bb 86 bd
       -0.041511565 -0.022653915 -0.15137911 -0.06578684
000020 b2 fb 9c bc 08 57 e4 bc f5 98 8f bd d9 1f 81 bb
       -0.019162986 -0.027873531 -0.07011596 -0.003940564
000030 75 bc 88 bc 99 e0 4d be 5f 01 af 39 b7 5c b7 bd
       -0.016691426 -0.20105208 0.00033379623 -0.08953231
000040 10 c1 ed bc df 52 ba bc 3d ea 69 bc e0 71 11 bd
       -0.029022723 -0.022744594 -0.014277038 -0.03550899
000050 b4 df 8b be 02 87 2c be 04 46 87 bb 29 66 b4 be
       -0.2731911 -0.16848376 -0.0041282196 -0.35234192
000060 c3 19 03 3d 4b 4c 9e bb bc 28 de bc fb eb 67 3d
       0.03200699 -0.004830872 -0.027119033 0.056621533
000070 d8 d2 69 be 7c 6d 2a be 5d a5 d3 bc 48 96 a5 bd
       -0.22834337 -0.16643327 -0.025835687 -0.080853045

sequential_3/conv2d_10/BiasAdd/ReadVariableOp f4 [64]
000000 18 5b 09 be 78 9f 38 be 36 aa ca bd 2f 2e db 3c
       -0.13413656 -0.18029583 -0.098957464 0.02675542
000010 d6 ff de bc 1b c6 be bd 3a da 65 bd 09 b0 55 bd
       -0.027221601 -0.09315129 -0.05611632 -0.052169833
000020 f3 aa ad bd 08 a1 fe bc 4b c6 f0 bd 2b 83 f6 3e
       -0.084798716 -0.031082645 -0.117565714 0.48146948
000030 09 9b 49 bc a5 20 d8 bd 5c 8e ba bd 82 7f 02 be
       -0.01230503 -0.105531015 -0.09109184 -0.12743953
000040 64 c8 cc bd 80 62 ad bc c9 c3 9b bd f3 da c4 bd
       -0.09999159 -0.021165133 -0.076057024 -0.09612074
000050 7d df d1 bd 32 9b 86 bd 86 af 09 bc 01 db 3d be
       -0.10247705 -0.0657257 -0.008403664 -0.18540575
000060 6d b4 2f be 52 e1 85 bd df 68 f6 bd 20 7f 3f be
       -0.1715867 -0.06537117 -0.12031721 -0.18700838
000070 e0 82 42 be 70 73 f7 bc 56 a5 c2 bd 02 80 6d 3e
       -0.18995237 -0.030206412 -0.095041916 0.23193362
000080 27 ea 22 be b1 a4 30 be 49 55 a9 bc c1 7f 0a be
       -0.15909635 -0.17250325 -0.02067055 -0.13525297
000090 67 9b e7 3c 0c 64 e9 3d 4c 61 3f 3d 6d 6b 26 bd
       0.028272344 0.113960356 0.04672365 -0.040629793
0000a0 1e 50 75 bd fc 9b a3 bd ee b5 d5 bd 0a 69 36 be
       -0.05989086 -0.07988736 -0.10435091 -0.17813507
0000b0 3d 31 23 be b5 2e 3a be 6f 11 80 be ac f9 17 ba
       -0.15936752 -0.1818188 -0.250133 -0.0005797397
0000c0 75 aa 5c bd 9c 4c 61 bd 0b 7f c1 bd e2 15 57 be
       -0.053873498 -0.0550047 -0.0944806 -0.21004441
0000d0 52 44 fb bc 57 c2 cd bd 30 51 01 be f9 0d c4 bd
       -0.030672226 -0.10046833 -0.12628627 -0.095729776
0000e0 c7 56 d2 bd a5 be 7c bd 49 1b dc bd 10 7c 5f bd
       -0.10270458 -0.06170525 -0.10747392 -0.054561675
0000f0 e6 70 73 be 38 de 73 be ef df 99 bd f3 55 23 be
       -0.23773536 -0.23815238 -0.07513415 -0.15950756

sequential_3/conv2d_11/BiasAdd/ReadVariableOp f4 [64]
000000 33 5e 9c 3d 75 89 39 bd f6 26 bf bd 64 06 13 bd
       0.076351546 -0.045297105 -0.09333603 -0.035894766
000010 6d bd 95 3e e7 61 b6 bd 5f b3 6e be 00 a2 32 be
       0.29246083 -0.08905392 -0.23310612 -0.1744461
000020 1e 33 39 be f3 1d a2 3d f2 81 e7 3c c9 ac 1d bd
       -0.18085906 0.079158686 0.028260205 -0.03849486
000030 68 77 c0 3c 3c af 5e be 17 26 1f 3d 09 87 65 bd
       0.023494437 -0.21746534 0.038854685 -0.056036983
000040 7c f9 01 be a2 a3 d5 3d 08 90 53 be 6f e2 90 3d
       -0.12692827 0.10431601 -0.20660412 0.07074439
000050 89 19 33 be 05 4d 24 be 94 56 fc bc eb 86 e8 bc
       -0.1749021 -0.16045006 -0.030803002 -0.028384646
000060 bc 05 45 bd a3 cc ef bd bb ca 8b bd 88 1f 36 bd
       -0.04810117 -0.11708953 -0.06825777 -0.044463664
000070 97 fa 20 be 0f 86 44 be 72 0f a3 3d e7 26 d4 bc
       -0.15720592 -0.19191764 0.0796193 -0.025897456
000080 fd 67 f2 3c a5 dd 0b be bf 4d 03 be 6e d9 de bd
       0.029590601 -0.1365877 -0.12822627 -0.10881315
000090 e5 9f a1 bc 7b 77 a6 bd e0 3e 76 bd b0 91 13 bc
       -0.019729564 -0.08128258 -0.060118556 -0.009006903
0000a0 5b c0 4a bd bb 5e 97 bd fa 6e a7 bc ac 87 3c 3d
       -0.04949985 -0.07391115 -0.02043866 0.046027824
0000b0 3b 03 0d be 83 8d 85 3e 27 f3 ca bd 63 79 18 bc
       -0.13770764 0.26084527 -0.09909659 -0.009306285
0000c0 50 46 0f 3d 25 04 0d bd b1 e2 96 3c 37 5c 2f bd
       0.034979165 -0.03442778 0.018418642 -0.042812552
0000d0 87 79 cf bd 22 c1 52 bd 49 b6 b8 bd b2 cd 81 3e
       -0.101306014 -0.051453717 -0.09019143 0.25352246
0000e0 20 85 77 3d f5 17 d9 bd da 2f 1f bd b6 aa 00 be
       0.060429692 -0.106002726 -0.038863994 -0.12565121
0000f0 5b de 5d 3e 74 e7 b3 bd 5b 09 25 bd ef d6 44 bd
       0.21666853 -0.087843806 -0.040292125 -0.04805654

sequential_3/conv2d_9/Conv2D f4 [32, 3, 3, 3]
000000 24 46 00 be fb ea f5 bd 22 40 70 3d 2f 1f e9 bd
       -0.12526757 -0.120077096 0.05865491 -0.11382901
000010 1c a5 a5 bd 36 bf 45 3b 82 cd 8c 3d ed 15 95 bd
       -0.08088133 0.0030173785 0.06875135 -0.07279573
000020 24 b3 f3 3d a2 64 47 3d 0e 9c d2 39 88 ce 53 bd
       0.11899403 0.048679955 0.0004017059 -0.051710635
000030 6a c0 62 bc 8a 97 7a bc 9a e5 d2 3c 2d ad 16 be
       -0.01383982 -0.015294919 0.025744248 -0.14714499
000040 8e f3 3c bd bd fd 94 bc 6a d8 47 bd cb b8 13 bd
       -0.04613071 -0.018187398 -0.048790373 -0.036064904
000050 7a 06 96 3d b6 e8 23 bd 86 05 e3 bc c9 03 0c 3d
       0.07325454 -0.040016852 -0.027712595 0.034183297
000060 c4 d4 a6 3d 4d 2a 97 bd cb 28 a1 3d 8f 1e 8e be
       0.081460506 -0.07381115 0.07869109 -0.2775769
000070 0a 6b a5 be ad 63 41 be 29 ef 86 be ce 3f 80 be
       -0.32308227 -0.1888568 -0.2635434 -0.2504868
000080 03 39 8d be 11 e1 72 be 5d 37 2f be e9 78 24 be
       -0.2758256 -0.23718669 -0.17110963 -0.16061749
000090 1f 49 c8 bc 0c 66 5f be 3d d4 c5 3d 4e 19 f3 bc
       -0.02444893 -0.21816272 0.09659622 -0.029675152
0000a0 27 73 04 be d7 b4 c4 bd 74 50 30 be 3d 20 98 be
       -0.12934552 -0.09604805 -0.1721819 -0.29712096
0000b0 97 86 1c bd 6f a7 fa bd 6d bf 23 be 3b 3c d2 3d
       -0.038214292 -0.12238967 -0.15990992 0.10265394
0000c0 b0 fb 4f 3c b8 25 6e bd 75 bc ff 3d 9e 38 db bd
       0.012694284 -0.05814144 0.12487117 -0.10704158
0000d0 70 99 65 be f4 e4 83 bd 09 7c 42 3d 80 00 0f be
       -0.22421813 -0.06440154 0.04748157 -0.13965034
0000e0 0e 4d 2d 3d da 18 41 3e 58 78 57 3c 75 80 0f 3e
       0.042309813 0.18857136 0.013151251 0.14013846
0000f0 bb ad 3a 3e a1 e3 fa 3d 62 78 91 3e 2a 69 8d bd
       0.18230335 0.12250448 0.28412157 -0.06904824
000100 19 d5 81 be c0 4e 3e be f5 10 dc 3d ac 1c 35 be
       -0.25357893 -0.18584728 0.10745422 -0.17686719
000110 ca 63 b2 3c ff 37 8f 3d 77 d0 ba 3d de 50 0c 3e
       0.021776099 0.06993102 0.09121793 0.13702723
000120 f4 a6 2f be 33 fb df bd e4 c8 42 be be 15 c2 bd
       -0.17153531 -0.10936584 -0.19021946 -0.09476803
000130 7a 37 32 be 6d 1b 0c bb 1f 52 2c be a9 3e 31 be
       -0.17403975 -0.0021378652 -0.16828202 -0.17309059
000140 25 b6 41 be 8e f7 79 3b da b9 1c 3e 68 64 7a be
       -0.18917139 0.003814194 0.15305272 -0.24452364
000150 75 c5 ba bc 62 1d 04 3e a8 e5 d9 bd 6e b9 a1 3d
       -0.022799233 0.12901834 -0.106395066 0.07896696
000160 0e c7 33 3e 85 15 31 be c7 74 5a bd e9 5b c2 3d
       0.17556402 -0.17293365 -0.053334024 0.09490187
000170 f4 eb 2c bd 02 e7 63 bc b0 5e 52 3e 17 d9 4d be
       -0.04221721 -0.013910057 0.20543933 -0.20102344
000180 f7 0c 48 3d 0d a2 46 bd 81 ab 4d be 92 50 ac bd
       0.04884049 -0.048494387 -0.20084955 -0.08413805
000190 75 52 49 3e 27 d9 26 3c 7d 7b 48 3c 97 82 61 3d
       0.19660361 0.010183609 0.012236473 0.05505618
0001a0 1d 92 35 be 79 45 e2 3d 2f 71 d5 3d 2a 36 83 be
       -0.17731519 0.11048407 0.10421979 -0.2562726
0001b0 59 c7 b9 bd 5a 9a 0b bd 2e 8e 30 be b1 57 2f be
       -0.09071226 -0.034082748 -0.17241737 -0.17123295
0001c0 7e 5c 3a be 3f ca 1e be e6 0b 01 be 22 ec 32 bd
       -0.18199345 -0.15506838 -0.12602195 -0.043682225
0001d0 9c b3 66 3d fa 99 5d bd 0d c0 23 3e 09 55 a7 bc
       0.056323633 -0.05410192 0.1599123 -0.02042629
0001e0 ae 34 0d be 47 69 d2 bd 6d a0 47 be 6f 92 c9 3d
       -0.13789627 -0.10273986 -0.19494791 0.09842383
0001f0 02 7d 6f 3d 3a 6c c1 bd 20 d4 4d 3e e2 2f 8f 3c
       0.058468826 -0.09444471 0.2010045 0.017478887
000200 b7 0a 37 3e 64 ed 2d 3e a8 e2 12 3d fc db 38 3e
       0.17875181 0.16985089 0.035860687 0.18052667
000210 fe cc c2 bc b9 53 ba bd 2b 7f 05 be 7c f1 0a 3e
       -0.023779389 -0.09098 -0.13036792 0.13568681
000220 92 8b a6 bc 85 8e 25 3e db 72 5f 3d 72 0a 6f be
       -0.020330224 0.16167648 0.054552894 -0.23343828
000230 5a a8 01 be 20 be 99 bd 68 35 83 bd a8 b5 2b 3d
       -0.12661877 -0.075069666 -0.06406671 0.041921288
000240 7f b8 aa bc 35 55 e1 3c da 9d 25 3e 3f dd da 3d
       -0.020839928 0.02750645 0.16173497 0.106867306
000250 fc e4 59 be 0d 28 21 be f7 5b 68 bc 7b 86 00 be
       -0.21278757 -0.15737934 -0.014182082 -0.125513
000260 d8 ff 95 3b d2 19 51 3e 41 2b c8 bd 4b e7 3c 3e
       0.004577618 0.20420006 -0.09773875 0.18447606
000270 44 d3 58 bd 70 41 18 be ba 4a d0 3d 96 86 10 be
       -0.052935854 -0.14868712 0.10170503 -0.1411384
000280 ac c1 56 be 67 5a 20 bd db 03 aa 3d ea a0 25 bd
       -0.20972317 -0.039148714 0.083015166 -0.040436663
000290 56 d8 73 bd 71 33 8e bc c1 99 46 be c7 86 2d be
       -0.059532486 -0.017358514 -0.1939459 -0.16945945
0002a0 00 15 9b bd 5e 43 04 bc 39 cf 16 be 7f 63 8b 3d
       -0.07572365 -0.008072702 -0.14727487 0.06806087
0002b0 31 f3 0e be e6 75 d3 bd 31 98 53 3d 5b f0 a6 3d
       -0.13959958 -0.10325222 0.051658813 0.08151313
0002c0 7f 18 8e 3d 51 a9 27 3d be df 1b bd 78 eb ab bd
       0.06938266 0.040932957 -0.038055174 -0.083945215
0002d0 77 9b 45 3c f2 85 a9 bd 8d 14 69 3d 94 10 7f 3c
       0.0120609915 -0.08277501 0.056904364 0.015567917
0002e0 51 b0 95 3d 6b f4 8a bd d2 24 ba bd 36 ab c8 bd
       0.0730902 -0.067849 -0.09089054 -0.09798281
0002f0 f0 d9 07 bc f2 5d 9c bc ec 36 9c bc 23 57 04 bd
       -0.008291706 -0.019087765 -0.019069158 -0.032309663
000300 f3 d0 b4 3c f9 92 03 be d7 9c fd 3c a7 ae 8a 3d
       0.022072291 -0.12849034 0.030958576 0.067715935
000310 b9 ce b1 bd f8 00 17 bd 76 f6 05 3d d8 37 08 3d
       -0.08682007 -0.03686616 0.032705747 0.03325638
000320 6f 47 87 ba 12 ad fe bd c6 9c cd bb c3 04 bd bd
       -0.0010320971 -0.12435354 -0.0062747924 -0.09229424
000330 49 99 d0 bd 1b f0 31 3d 30 eb e6 3d 3f 31 d9 bd
       -0.10185487 0.043441873 0.11275327 -0.10605096
000340 f5 1d b0 bd f2 68 4d bd 18 4c 54 be 99 cc e0 bd
       -0.08599464 -0.05014891 -0.20732152 -0.10976524
000350 f6 e2 f8 bd 8e 53 84 bd 49 47 02 be 4b 99 51 be
       -0.12152664 -0.06461249 -0.12722506 -0.20468633
000360 b3 97 14 3d db e7 68 3d 7c 8c 10 be a6 71 59 bb
       0.036277484 0.05686174 -0.1411609 -0.0033179312
000370 95 94 a7 3d eb 20 d7 bc bb 6e cc bc e5 0d 16 be
       0.08182637 -0.026260814 -0.024955144 -0.14653738
000380 a8 37 ca 3d 61 52 3b be a7 90 1b be 70 e4 84 3c
       0.09873897 -0.18293144 -0.15191899 0.016222209
000390 46 f0 31 bc cb d8 44 bd b3 56 cc bc 06 52 3e be
       -0.010860508 -0.048058312 -0.024943685 -0.18585977
0003a0 ca dd 6c 3d e2 2c fa 3d 14 dd 01 be 2b 68 b2 3d
       0.057828702 0.12215592 -0.12681991 0.08711275
0003b0 48 f8 82 3d 2b 25 15 be e3 ad 56 3d 9b fa 86 3d
       0.06395012 -0.1456496 0.052411925 0.06590768
0003c0 87 5a 53 3d e0 e2 39 3c 43 b8 da 3d bc ba 18 be
       0.051600005 0.011345595 0.106796764 -0.14914984
0003d0 49 50 b9 bd 68 34 52 be da 36 7c bd 9d 19 be bd
       -0.09048516 -0.20527804 -0.061575748 -0.09282229
0003e0 db 0d e4 3d 58 02 a9 3d 21 62 04 3d c8 c5 1f 3e
       0.11135455 0.082524 0.032320146 0.15602791
0003f0 09 61 89 bd 57 c8 cb 3c 40 48 9b 3d ed 5f be bd
       -0.06707961 0.024875803 0.0758214 -0.0929564

sequential_3/conv2d_10/Conv2D i1 [64, 3, 3, 32]
000000 e4 f0 de 9e cf 88 04 01 fb c2 17 bb 3d fb ee f7
       -28 -16 -34 -98 -49 -120 4 1 -5 -62 23 -69 61 -5 -18 -9
000010 c1 d0 f6 ba c8 97 37 cc 1a f2 ce d1 17 cb c4 dc
       -63 -48 -10 -70 -56 -105 55 -52 26 -14 -50 -47 23 -53 -60 -36
000020 e5 ca e1 f9 9d b7 d5 ac c1 ba e3 b9 fa ff 11 b8
       -27 -54 -31 -7 -99 -73 -43 -84 -63 -70 -29 -71 -6 -1 17 -72
000030 ef d8 c3 d1 dc d8 02 e7 ef 23 e9 ba fd f5 d1 c5
       -17 -40 -61 -47 -36 -40 2 -25 -17 35 -23 -70 -3 -11 -47 -59
000040 02 c0 ed d3 a2 fe d1 de fd dc 19 e5 0d cd c7 f3
       2 -64 -19 -45 -94 -2 -47 -34 -3 -36 25 -27 13 -51 -57 -13
000050 e9 c4 b2 e6 01 f1 15 0c 13 d9 18 99 26 1c cd da
       -23 -60 -78 -26 1 -15 21 12 19 -39 24 -103 38 28 -51 -38
000060 ca dc dd e2 de 89 26 f1 bd f3 f6 c3 1f e7 fc 09
       -54 -36 -35 -30 -34 -119 38 -15 -67 -13 -10 -61 31 -25 -4 9
000070 e2 cd 0b f1 b4 a4 11 ed 1d 27 cd a7 1a e4 0e ea
       -30 -51 11 -15 -76 -92 17 -19 29 39 -51 -89 26 -28 14 -22
000080 f6 07 ec e7 b0 bc 25 bb f2 e8 e9 b5 ee f2 d6 e3
       -10 7 -20 -25 -80 -68 37 -69 -14 -24 -23 -75 -18 -14 -42 -29
000090 03 dc ce ec ee c6 0b df 03 1e fa f5 1e 09 e1 fc
       3 -36 -50 -20 -18 -58 11 -33 3 30 -6 -11 30 9 -31 -4
0000a0 d3 20 dd b7 b8 b1 fa cd 14 cb 22 98 dd d1 db 10
       -45 32 -35 -73 -72 -79 -6 -51 20 -53 34 -104 -35 -47 -37 16
0000b0 f5 e7 ee d7 fa c9 27 ee 0a f2 ea a8 1f df 10 ed
       -11 -25 -18 -41 -6 -55 39 -18 10 -14 -22 -88 31 -33 16 -19
0000c0 f0 da 14 ae 8e b0 fe b0 f1 d0 f6 b5 db c9 03 15
       -16 -38 20 -82 -114 -80 -2 -80 -15 -48 -10 -75 -37 -55 3 21
0000d0 dc 17 01 cd be c3 2c ad ee 10 fb d5 ff d7 ec 13
       -36 23 1 -51 -66 -61 44 -83 -18 16 -5 -43 -1 -41 -20 19
0000e0 25 ff e8 be be 92 f9 c9 dd f9 32 81 09 e7 02 02
       37 -1 -24 -66 -66 -110 -7 -55 -35 -7 50 -127 9 -25 2 2
0000f0 ee ff e1 d0 0a f9 19 fa 0a 01 d5 fa ef f9 02 f4
       -18 -1 -31 -48 10 -7 25 -6 10 1 -43 -6 -17 -7 2 -12

sequential_3/conv2d_11/Conv2D i1 [64, 3, 3, 64]
000000 03 fc 1a 27 06 13 39 2e 03 09 12 3b 32 2b 33 df
       3 -4 26 39 6 19 57 46 3 9 18 59 50 43 51 -33
000010 22 d4 07 2f ec 23 76 1e 1b e7 f1 f9 27 14 43 3e
       34 -44 7 47 -20 35 118 30 27 -25 -15 -7 39 20 67 62
000020 05 ca f3 35 11 4c 37 19 22 1d d0 c6 0b 2e f8 17
       5 -54 -13 53 17 76 55 25 34 29 -48 -58 11 46 -8 23
000030 06 f7 16 db 12 24 39 4a 06 1f f6 0a 14 f2 1c 4e
       6 -9 22 -37 18 36 57 74 6 31 -10 10 20 -14 28 78
000040 f3 f4 01 e9 01 03 12 f8 ff 13 2f 3a 15 29 21 d8
       -13 -12 1 -23 1 3 18 -8 -1 19 47 58 21 41 33 -40
000050 28 cc 05 3a fa 52 3e 2c 0e e3 20 c9 43 fa 30 35
       40 -52 5 58 -6 82 62 44 14 -29 32 -55 67 -6 48 53
000060 07 e9 0f 3d 2c 5b 39 1e 17 26 c5 c0 16 f1 ee 0c
       7 -23 15 61 44 91 57 30 23 38 -59 -64 22 -15 -18 12
000070 1d 02 36 e0 07 3e 33 4e fc 43 df 25 fc 08 24 2b
       29 2 54 -32 7 62 51 78 -4 67 -33 37 -4 8 36 43
000080 e2 d1 eb ef f8 1d e5 f3 ee 30 fb 51 ef 0c fd e9
       -30 -47 -21 -17 -8 29 -27 -13 -18 48 -5 81 -17 12 -3 -23
000090 4c e9 ff 26 c7 29 35 12 03 14 fd a8 30 0d 0d 65
       76 -23 -1 38 -57 41 53 18 3 20 -3 -88 48 13 13 101
0000a0 1c b8 fe 30 fb 40 15 f2 19 19 ba a7 09 f9 ec fb
       28 -72 -2 48 -5 64 21 -14 25 25 -70 -89 9 -7 -20 -5
0000b0 f2 f6 0c e4 e6 37 eb 1a f9 29 fb 2b ee 1d 25 1e
       -14 -10 12 -28 -26 55 -21 26 -7 41 -5 43 -18 29 37 30
0000c0 f8 19 12 07 fa d9 17 1d f4 fb 0f 0a 11 1a 2d a2
       -8 25 18 7 -6 -39 23 29 -12 -5 15 10 17 26 45 -94
0000d0 02 bb 00 07 f8 41 5d 1d 1a f1 15 da 32 ea 1b 19
       2 -69 0 7 -8 65 93 29 26 -15 21 -38 50 -22 27 25
0000e0 03 ee db 2d 14 38 28 21 2d f4 ee b9 19 38 03 f7
       3 -18 -37 45 20 56 40 33 45 -12 -18 -71 25 56 3 -9
0000f0 f8 0b 42 e4 0b 11 39 25 11 47 ee f2 f3 ef 23 43
       -8 11 66 -28 11 17 57 37 17 71 -18 -14 -13 -17 35 67

sequential_3/dense_6/MatMul i1 [64, 6400] scale=0.0051606926 zero_point=0
000000 00 02 fb fc fa fd 03 fc fe 04 f6 00 06 ff fb ff
       0.0 0.010321385 -0.025803464 -0.02064277 -0.030964155 -0.015482077 0.015482077 -0.02064277 -0.010321385 0.02064277 -0.051606927 0.0 0.030964155 -0.0051606926 -0.025803464 -0.0051606926
000010 fb ff f4 ff f8 ff f4 03 03 fa fd 00 fd f6 02 fc
       -0.025803464 -0.0051606926 -0.06192831 -0.0051606926 -0.04128554 -0.0051606926 -0.06192831 0.015482077 0.015482077 -0.030964155 -0.015482077 0.0 -0.015482077 -0.051606927 0.010321385 -0.02064277
000020 04 ff f5 02 fd 04 fc 00 04 fb fc 02 fd fe ff f9
       0.02064277 -0.0051606926 -0.05676762 0.010321385 -0.015482077 0.02064277 -0.02064277 0.0 0.02064277 -0.025803464 -0.02064277 0.010321385 -0.015482077 -0.010321385 -0.0051606926 -0.036124848
000030 ff fa 09 f7 01 02 fa 01 00 f7 03 01 03 fe 06 f8
       -0.0051606926 -0.030964155 0.046446234 -0.046446234 0.0051606926 0.010321385 -0.030964155 0.0051606926 0.0 -0.046446234 0.015482077 0.0051606926 0.015482077 -0.010321385 0.030964155 -0.04128554
000040 ff fe f5 f9 02 fb 00 00 fa 06 fb 00 fa fb fa fa
       -0.0051606926 -0.010321385 -0.05676762 -0.036124848 0.010321385 -0.025803464 0.0 0.0 -0.030964155 0.030964155 -0.025803464 0.0 -0.030964155 -0.025803464 -0.030964155 -0.030964155
000050 f9 fb f9 fe f7 00 fe f9 fd fa fe 03 04 ff 04 00
       -0.036124848 -0.025803464 -0.036124848 -0.010321385 -0.046446234 0.0 -0.010321385 -0.036124848 -0.015482077 -0.030964155 -0.010321385 0.015482077 0.02064277 -0.0051606926 0.02064277 0.0
000060 00 fe fb fa 00 03 04 02 fc fb fb 03 02 02 fd 02
       0.0 -0.010321385 -0.025803464 -0.030964155 0.0 0.015482077 0.02064277 0.010321385 -0.02064277 -0.025803464 -0.025803464 0.015482077 0.010321385 0.010321385 -0.015482077 0.010321385
000070 02 02 fb fe fa fb fa fe 04 fe 00 02 03 05 fb fd
       0.010321385 0.010321385 -0.025803464 -0.010321385 -0.030964155 -0.025803464 -0.030964155 -0.010321385 0.02064277 -0.010321385 0.0 0.010321385 0.015482077 0.025803464 -0.025803464 -0.015482077
000080 fb 07 00 fc ff ff 04 00 fd 04 02 02 03 fb 05 fd
       -0.025803464 0.036124848 0.0 -0.02064277 -0.0051606926 -0.0051606926 0.02064277 0.0 -0.015482077 0.02064277 0.010321385 0.010321385 0.015482077 -0.025803464 0.025803464 -0.015482077
000090 01 03 fa 02 01 fb 01 fa 00 fa 03 fc ff fc 00 ff
       0.0051606926 0.015482077 -0.030964155 0.010321385 0.0051606926 -0.025803464 0.0051606926 -0.030964155 0.0 -0.030964155 0.015482077 -0.02064277 -0.0051606926 -0.02064277 0.0 -0.0051606926
0000a0 07 ff fe f8 03 00 01 03 06 03 fc fe 00 fd fe 07
       0.036124848 -0.0051606926 -0.010321385 -0.04128554 0.015482077 0.0 0.0051606926 0.015482077 0.030964155 0.015482077 -0.02064277 -0.010321385 0.0 -0.015482077 -0.010321385 0.036124848
0000b0 03 fd fc fd 01 fb f7 f9 07 00 04 fa 04 05 fc f7
       0.015482077 -0.015482077 -0.02064277 -0.015482077 0.0051606926 -0.025803464 -0.046446234 -0.036124848 0.036124848 0.0 0.02064277 -0.030964155 0.02064277 0.025803464 -0.02064277 -0.046446234
0000c0 fe 02 fd fd fd fa 02 05 fc 03 fd fc 04 fe 05 fd
       -0.010321385 0.010321385 -0.015482077 -0.015482077 -0.015482077 -0.030964155 0.010321385 0.025803464 -0.02064277 0.015482077 -0.015482077 -0.02064277 0.02064277 -0.010321385 0.025803464 -0.015482077
0000d0 04 fd fb 04 fa 01 f6 fc fa 02 fc 02 02 fb 03 fc
       0.02064277 -0.015482077 -0.025803464 0.02064277 -0.030964155 0.0051606926 -0.051606927 -0.02064277 -0.030964155 0.010321385 -0.02064277 0.010321385 0.010321385 -0.025803464 0.015482077 -0.02064277
0000e0 04 fa fb 00 00 06 ff fd 06 fd 04 06 fd 07 fd 07
       0.02064277 -0.030964155 -0.025803464 0.0 0.0 0.030964155 -0.0051606926 -0.015482077 0.030964155 -0.015482077 0.02064277 0.030964155 -0.015482077 0.036124848 -0.015482077 0.036124848
0000f0 03 03 f8 f9 fb ff fa 05 fd f5 00 00 fb 01 00 fd
       0.015482077 0.015482077 -0.04128554 -0.036124848 -0.025803464 -0.0051606926 -0.030964155 0.025803464 -0.015482077 -0.05676762 0.0 0.0 -0.025803464 0.0051606926 0.0 -0.015482077

sequential_3/dense_7/MatMul i1 [28, 64] scale=0.004184786 zero_point=0
000000 f5 32 8f 9b 1a 2d 1c cc 03 e4 40 27 e3 fc 33 09
       -0.04603265 0.2092393 -0.47288084 -0.42266342 0.10880444 0.18831538 0.117174014 -0.21760888 0.012554359 -0.117174014 0.26782632 0.16320667 -0.1213588 -0.016739145 0.2134241 0.037663076
000010 2c 23 ee 20 ed c6 56 1d 2f f6 47 bc 2e d4 c5 23
       0.1841306 0.14646752 -0.07532615 0.13391316 -0.07951094 -0.2427176 0.35989162 0.1213588 0.19668496 -0.041847862 0.29711983 -0.28456545 0.19250017 -0.1841306 -0.24690239 0.14646752
000020 1c 16 ba 30 c5 d5 d9 1b 1d 06 c0 be 0c 1a cf cf
       0.117174014 0.0920653 -0.29293504 0.20086974 -0.24690239 -0.17994581 -0.16320667 0.11298923 0.1213588 0.025108717 -0.26782632 -0.27619588 0.050217435 0.10880444 -0.20505452 -0.20505452
000030 ac 16 0b d0 17 4b 1c f2 d0 df b6 9c 9d f6 39 15
       -0.35152203 0.0920653 0.04603265 -0.20086974 0.09625009 0.31385896 0.117174014 -0.058587007 -0.20086974 -0.13809794 -0.30967417 -0.4184786 -0.41429383 -0.041847862 0.23853281 0.08788051
000040 e1 dc f5 dc ef cf ee 0f 27 0e 27 11 c3 ff 27 17
       -0.12972838 -0.1506523 -0.04603265 -0.1506523 -0.07114136 -0.20505452 -0.07532615 0.0627718 0.16320667 0.058587007 0.16320667 0.07114136 -0.25527197 -0.004184786 0.16320667 0.09625009
000050 ed 24 d0 36 d1 34 b6 ab d5 25 1b 09 2e 3d 46 ae
       -0.07951094 0.1506523 -0.20086974 0.22597846 -0.19668496 0.21760888 -0.30967417 -0.35570684 -0.17994581 0.15483709 0.11298923 0.037663076 0.19250017 0.25527197 0.29293504 -0.34315246
000060 35 45 de 2f cc b3 39 08 2a fc cc 52 18 f6 ce ec
       0.22179367 0.28875026 -0.14228272 0.19668496 -0.21760888 -0.32222855 0.23853281 0.03347829 0.17576101 -0.016739145 -0.21760888 0.34315246 0.10043487 -0.041847862 -0.2092393 -0.083695725
000070 dd 9c 34 15 f3 f7 0e e4 04 df e1 16 26 26 dc d7
       -0.14646752 -0.4184786 0.21760888 0.08788051 -0.05440222 -0.037663076 0.058587007 -0.117174014 0.016739145 -0.13809794 -0.12972838 0.0920653 0.15902188 0.15902188 -0.1506523 -0.17157623
000080 c7 1d 3e 2f c8 08 f7 23 29 da e9 fc c5 c2 ce f3
       -0.23853281 0.1213588 0.25945675 0.19668496 -0.23434803 0.03347829 -0.037663076 0.14646752 0.17157623 -0.15902188 -0.09625009 -0.016739145 -0.24690239 -0.25945675 -0.2092393 -0.05440222
000090 3a ee 36 05 2a 1e 48 de c4 12 a4 3f 1c c9 e7 d3
       0.2427176 -0.07532615 0.22597846 0.020923931 0.17576101 0.1255436 0.3013046 -0.14228272 -0.2510872 0.07532615 -0.38500035 0.26364154 0.117174014 -0.23016325 -0.10461965 -0.18831538
0000a0 b0 e7 d0 ef c4 22 a3 05 be 19 de 2e e3 f5 a2 0c
       -0.3347829 -0.10461965 -0.20086974 -0.07114136 -0.2510872 0.14228272 -0.38918513 0.020923931 -0.27619588 0.10461965 -0.14228272 0.19250017 -0.1213588 -0.04603265 -0.3933699 0.050217435
0000b0 db dd 08 04 fd 19 f8 43 f8 2c eb a3 09 0a 44 e2
       -0.15483709 -0.14646752 0.03347829 0.016739145 -0.012554359 0.10461965 -0.03347829 0.28038067 -0.03347829 0.1841306 -0.08788051 -0.38918513 0.037663076 0.041847862 0.28456545 -0.1255436
0000c0 2c f7 7f 37 fa ea b6 0e fe cb 3c f2 e4 1f 1a 24
       0.1841306 -0.037663076 0.53146785 0.23016325 -0.025108717 -0.0920653 -0.30967417 0.058587007 -0.008369572 -0.22179367 0.2510872 -0.058587007 -0.117174014 0.12972838 0.10880444 0.1506523
0000d0 cc c5 f9 f7 ff fd bd 09 d7 05 c0 e3 2d b6 27 ba
       -0.21760888 -0.24690239 -0.029293504 -0.037663076 -0.004184786 -0.012554359 -0.28038067 0.037663076 -0.17157623 0.020923931 -0.26782632 -0.1213588 0.18831538 -0.30967417 0.16320667 -0.29293504
0000e0 40 bf d7 11 2b e4 dd bf 0c 29 e4 57 ff 0b 02 fa
       0.26782632 -0.2720111 -0.17157623 0.07114136 0.17994581 -0.117174014 -0.14646752 -0.2720111 0.050217435 0.17157623 -0.117174014 0.3640764 -0.004184786 0.04603265 0.008369572 -0.025108717
0000f0 b2 d0 d6 fb da ed 46 11 15 ef f1 14 d3 fd f1 38
       -0.32641333 -0.20086974 -0.17576101 -0.020923931 -0.15902188 -0.07951094 0.29293504 0.07114136 0.08788051 -0.07114136 -0.0627718 0.083695725 -0.18831538 -0.012554359 -0.0627718 0.23434803
