saved_model_icons/Warrior_/model.tflite (tflite, 476576 bytes, 10 tensors)

sequential/dense_1/BiasAdd/ReadVariableOp f4 [28]
000000 ab e0 71 bc 56 31 63 3e 35 30 80 bd db 11 c0 bc
       -0.014763038 0.22186789 -0.06259195 -0.023446014
000010 a7 c7 ad bd 18 98 5a bc ee 5b 02 3d b6 fa 45 bd
       -0.08485346 -0.013341926 0.031825952 -0.0483348
000020 1e bd 3b bd f6 1c 3f be 40 dc 06 bc ec 43 32 3e
       -0.045834653 -0.18663391 -0.008231223 0.17408723
000030 6d 75 2c 3d 32 cc a6 bd 34 54 04 be 36 a9 a6 3d
       0.042104173 -0.08144416 -0.12922746 0.08137743
000040 b8 90 9a bd d8 20 92 3d ff ae ab 3c b3 49 cb bc
       -0.07547134 0.07135171 0.020957468 -0.024815416
000050 d1 c1 84 3d f5 c5 d9 3d 6b b6 19 ba e9 00 7d bd
       0.0648228 0.106334604 -0.0005863669 -0.061768446
000060 5f a1 eb bd b4 6b ea bc dd 47 11 3e 68 76 06 be
       -0.115053885 -0.02861581 0.1418757 -0.13131106

sequential/dense/BiasAdd/ReadVariableOp f4 [64]
000000 61 52 e3 bc 84 0f e7 bd 96 6a 17 3e ad 89 98 3c
       -0.027749242 -0.11282256 0.14786753 0.018620336
000010 76 47 71 bd c5 c4 c4 bb d3 e3 24 be b2 33 29 bc
       -0.05890604 -0.006004902 -0.16102533 -0.0103272665
000020 8e 85 0a 3e 99 14 64 bd 66 57 e2 bb 99 8a 22 bc
       0.1352751 -0.055683706 -0.0069073914 -0.00992074
000030 2b e9 40 3d 5b 5f b4 bb 4c d9 12 3e 7c 61 ae 3d
       0.047097366 -0.0055045313 0.14340705 0.085146874
000040 f3 a1 29 3d b6 e1 31 3b 22 76 88 bb 8b af 2c bc
       0.041414212 0.002714259 -0.004164473 -0.0105399
000050 f1 b9 63 bc 33 0a 56 be 73 c7 52 3e 0e 3d 38 be
       -0.013899312 -0.20902328 0.20583896 -0.1799204
000060 d2 c7 c4 bb 40 e0 9e bd 9c 11 40 3e f6 2f c6 bb
       -0.0060052657 -0.07757616 0.18756717 -0.006048198
000070 e1 d8 13 bd 12 93 d0 3d 2a a6 94 3c 3b fe 63 bd
       -0.036095504 0.101843014 0.01814564 -0.055662375
000080 d7 86 df bb 92 01 f5 bd ed 56 41 bd 84 cb 12 bd
       -0.006821494 -0.1196319 -0.04720204 -0.03583862
000090 00 fd 83 bd 3b f2 1c be 9f b9 b7 bb 31 9f dc 3d
       -0.0644474 -0.15326779 -0.0056068446 0.10772551
0000a0 42 e7 d8 bb 63 05 0e bd d0 23 0d bc b4 c7 c4 bb
       -0.006619365 -0.034673106 -0.008614495 -0.006005252
0000b0 f1 5e 09 bd 9c c6 c4 bb d6 9d be bd fc 5b 3d bc
       -0.03353781 -0.0060051214 -0.093074486 -0.011557575
0000c0 dd d9 b0 bd 41 80 a2 bc b1 02 4f bd bc 70 c1 bc
       -0.08635304 -0.019836547 -0.050539676 -0.023613326
0000d0 af c7 a5 bc 12 44 07 bd 24 c8 c4 bb 27 ee b7 bb
       -0.020236818 -0.0330239 -0.006005304 -0.005613107
0000e0 ba c5 28 3c a1 d9 7f 3b e6 e7 ed 3d d5 f9 c6 bb
       0.010301048 0.003903963 0.11616497 -0.006072263
0000f0 a4 ba c4 bb 5f 6a 5c 3c da 3f be bd a8 d8 17 39
       -0.0060036946 0.013453095 -0.092895225 0.00014481193

sequential/conv2d/BiasAdd/ReadVariableOp f4 [32]
000000 39 fd c7 bd 23 57 9a bc bd d9 be bd 8d c4 42 bd
       -0.09765095 -0.018840378 -0.09318874 -0.047550727
000010 83 1d 63 3d 97 aa e0 bc c9 47 3d bd 09 cf 96 bd
       0.055448066 -0.027425094 -0.046211038 -0.073637076
000020 4e bd b5 3c e0 c3 b8 bd 75 e6 c2 ba c3 82 14 bc
       0.022184994 -0.09021735 -0.0014869707 -0.009064379
000030 77 37 1e be 49 57 2d bd 99 d7 0b bd d1 3a b3 bd
       -0.15450846 -0.04231957 -0.034141157 -0.08751453
000040 e2 77 ed bc b2 a0 f0 bd f4 f5 3d 3d 0a 26 97 be
       -0.028987829 -0.117494 0.046377137 -0.2952121
000050 2f c7 87 bd 46 17 0c bd 24 66 f4 bd 87 b6 d7 3d
       -0.06629788 -0.034201883 -0.11933544 0.10532861
000060 b9 de 38 be 04 85 75 3d 2a c1 48 be d5 94 16 bd
       -0.18053712 0.059941307 -0.19604936 -0.03676303
000070 4e a9 6a 3b 14 87 59 bd 35 30 3b 3c 9b ea e4 bc
       0.003580648 -0.053107336 0.011425068 -0.0279439

sequential/conv2d_1/BiasAdd/ReadVariableOp f4 [64]
000000 51 7b e5 bd 77 35 f3 bd 51 41 1c be ba 67 c7 bc
       -0.11205161 -0.11875432 -0.15259291 -0.024341453
000010 1b 1f 41 be df 4f 08 be c7 75 b2 bd a7 cf e4 bd
       -0.18859522 -0.13311718 -0.087138705 -0.11172419
000020 93 20 e5 bd d8 91 86 3c 9e 6d 91 bd 52 36 14 be
       -0.11187854 0.016426966 -0.07100986 -0.14473847
000030 83 13 b6 bd a8 41 07 bd 4b 3e 07 be 57 53 4e bd
       -0.0889044 -0.0330216 -0.13207357 -0.050372448
000040 82 ba 0b be 8f b8 e4 bd 47 b1 49 3e 0b 98 4f bc
       -0.13645366 -0.11168014 0.19696532 -0.012670527
000050 55 b3 9b bd 32 40 4e 3e 49 1b 01 3d 94 c2 ab bd
       -0.07602564 0.20141676 0.03152016 -0.08386722
000060 81 0c bb bd ad dc 1a bd db b9 0d 3c a8 7e 32 be
       -0.09133244 -0.03780811 0.008650268 -0.17431128
000070 06 3e dc bd da 23 5d 3c 08 1c 00 bd 12 ca f4 bd
       -0.107540175 0.013497317 -0.031276733 -0.11952604
000080 d3 3b 03 be 59 7e 08 be cb 2a 4b 3e 6b 4e fd bb
       -0.1281579 -0.13329448 0.19840543 -0.0077302954
000090 5d 08 ab 3c 0f 08 f1 bd 14 78 1a be f2 18 2c bd
       0.020878011 -0.11769115 -0.15084869 -0.042015977
0000a0 a0 bf 4c be e9 05 fc bd f3 5d 9c bd bf 6d a6 bd
       -0.19994974 -0.12305815 -0.07635107 -0.08126401
0000b0 ed 8d ed bd 75 71 54 3e fd f4 aa 3d 2d 71 d1 bd
       -0.11599336 0.20746405 0.08347509 -0.10226665
0000c0 14 5e 95 bd 71 4a 01 be 34 82 45 bc 98 4c 2f be
       -0.072933346 -0.12626053 -0.012054969 -0.17119062
0000d0 5a 02 e4 bd a1 78 c6 bc 7a f0 1e bd fa 58 36 bd
       -0.11133261 -0.024227442 -0.038803555 -0.04451845
0000e0 97 f1 25 be bd 9a 12 be 53 43 b3 bd 06 9f af 3d
       -0.1620544 -0.1431684 -0.087530755 0.08575253
0000f0 0b ca 92 bd 4c ad 48 bd 4a a2 9f bd d9 06 cb bd
       -0.07167443 -0.048993394 -0.07794626 -0.099134155

sequential/conv2d_2/BiasAdd/ReadVariableOp f4 [64]
000000 32 4a 01 be 90 48 b4 bd aa fc 04 be 3c 8d a0 bd
       -0.1262596 -0.08802903 -0.12987009 -0.07839438
000010 d4 55 2b bd 48 13 9d ba 2a 54 05 be 51 cb af 3d
       -0.0418299 -0.0011983896 -0.13020387 0.085837014
000020 e4 10 79 bc f5 3c da bd 76 a5 48 bd dc 9a e3 bd
       -0.015201781 -0.10656158 -0.04898592 -0.111135215
000030 9c e8 82 bd 68 e7 b3 bd 4b 2d 39 3d f5 6c a0 bc
       -0.06392023 -0.087843716 0.04520921 -0.019583205
000040 93 5d ad bd 34 70 61 3e a0 52 09 be 68 0e cd bd
       -0.084651135 0.22015458 -0.13410425 -0.100125134
000050 0b be 06 3e 31 f7 70 bd 22 71 29 bb 97 32 2f bd
       0.13158433 -0.05882949 -0.0025854786 -0.042772856
000060 74 7f bd bc f3 92 d0 bd d0 5f b7 bd e4 6e e5 3d
       -0.023132063 -0.10184278 -0.08953822 0.11202791
000070 2b be 2f 3e 29 96 d2 bd 8c cc 40 be b6 5e 23 bd
       0.17162387 -0.10282547 -0.18828028 -0.039885245
000080 75 4d 38 be 3e 62 17 be cf 3e b7 bc 24 c7 24 bd
       -0.17998298 -0.1478357 -0.022368817 -0.040228978
000090 1e 38 d9 3d 17 2c 8d 3d b3 e9 a6 bd a6 17 81 bd
       0.10606407 0.06893175 -0.08150043 -0.06303339
0000a0 01 a4 1c be 99 c7 84 bd 6f 2e 26 3c 9b cd 78 bc
       -0.15296938 -0.06483383 0.010142907 -0.015185739
0000b0 99 4b 3e bc 3a 4e 66 bc 2a f4 eb bd 92 3d a9 bd
       -0.011614704 -0.014056737 -0.1152118 -0.08263697
0000c0 74 39 c9 3c a9 e1 ae bc 3b 96 a7 bd 81 06 60 3e
       0.024563529 -0.021347838 -0.08182951 0.21877481
0000d0 95 b4 b5 bd 83 15 84 3c 2f 0f 75 bd 41 55 ab bd
       -0.08872334 0.016123539 -0.059828933 -0.0836587
0000e0 e8 f0 03 be 12 a9 1f be d0 9f 40 bc b7 d7 3b be
       -0.12884867 -0.15591839 -0.011756852 -0.18344007
0000f0 75 d2 9e bd 04 ce 12 be 18 df 65 bd 83 77 21 be
       -0.07754985 -0.14336401 -0.056120962 -0.15768246

sequential/conv2d/Conv2D f4 [32, 3, 3, 3]
000000 55 56 78 bc 7c c0 b7 3d e2 54 3d be 6a b6 48 3d
       -0.015157302 0.0897226 -0.18489411 0.04900209
000010 0d 1f 0d bd db 38 bf bd 82 b9 c9 3d 04 b3 b9 bd
       -0.03445344 -0.09337016 0.09849836 -0.09067348
000020 00 38 60 3b a7 ce 92 3d 35 20 3f 3d d1 d2 ec bd
       0.0034213066 0.07168322 0.046661574 -0.115636475
000030 18 d1 ea 3d 33 95 5c bd 95 78 40 be 8a 48 14 3d
       0.11465663 -0.053853225 -0.18795998 0.03620199
000040 7c 02 6f 3b a3 e9 02 be fe ed b2 bc 47 1e 30 3d
       0.0036469987 -0.12784438 -0.021842 0.042997625
000050 be 0c 34 bc f5 dc 20 3e 89 52 97 bd 2b 4e 39 be
       -0.010989366 0.15709288 -0.07388789 -0.18096225
000060 ac 2e 2a 3e a2 bf 84 bd 69 4a b4 3c a1 a6 a8 bc
       0.16619366 -0.064818636 0.022008138 -0.020587267
000070 76 ac 45 be 83 70 59 be 3b 79 2f 3c 15 44 ef bd
       -0.1930407 -0.21234326 0.010710056 -0.116829075
000080 2d 4c 1b be 39 b9 3c 3a 32 69 87 be fd a6 d5 3d
       -0.15165778 0.0007199231 -0.26447445 0.10432241
000090 e6 fc 4e 3e f7 9b 42 3d 1c 45 5b 3d 45 83 f2 bc
       0.2021366 0.04751202 0.053532705 -0.02960361
0000a0 fa 53 1a be 70 63 59 be 2c 55 84 3d 84 c6 72 be
       -0.15071097 -0.21229339 0.06461558 -0.2370854
0000b0 fe 98 2e 3d fc d0 a9 3d 3a 76 1b be 1e 51 22 3e
       0.042626373 0.08291814 -0.15181819 0.15851256
0000c0 31 47 4f 3e e2 f8 24 be 6e 40 9c bd 5f 0c 47 3d
       0.20242001 -0.16110566 -0.076294765 0.048595782
0000d0 b3 b0 10 be 2b 3b da bc be c2 55 bc dc c7 2f be
       -0.14129905 -0.026639542 -0.013046918 -0.17166084
0000e0 7a 2d b2 bd 5f 10 94 3c 35 8d 38 3c f8 a7 0e be
       -0.0870008 0.018074213 0.011264135 -0.13931262
0000f0 ff 7f c0 3d 7e 93 07 3d c0 6d 1c be b3 17 fe bd
       0.09399413 0.033099644 -0.15276241 -0.12406864
000100 a3 58 e0 bd 5e 9d fd bd 39 4e d7 3d 01 44 12 be
       -0.10954406 -0.12383531 0.10512967 -0.14283754
000110 78 8a cf bd 09 85 54 bd 64 3e bc bc b0 48 9a bd
       -0.10133833 -0.051884685 -0.022978969 -0.07533395
000120 44 78 32 3d 27 67 f3 bd 57 30 b0 bc cf 6c 23 bd
       0.043571725 -0.11884909 -0.021507425 -0.03989869
000130 37 62 5d bd 77 08 87 bd 4a 22 c5 3d 6d 13 d6 bc
       -0.054048743 -0.065934114 0.09625681 -0.02613231
000140 ce 98 44 3d d5 5e 0e be 6e b2 bd 3c 90 40 d9 3d
       0.04799729 -0.13903363 0.023156371 0.106080174
000150 7c 1c ad 3d f9 c3 dc bd da 43 db 3d 9d 37 33 bd
       0.084526986 -0.10779566 0.10706301 -0.04375421
000160 ad 99 8d 3c 7b f2 20 3d f2 67 3f be 38 8e 40 be
       0.017285192 0.039293747 -0.18691996 -0.18804252
000170 f0 8f c0 bd 49 80 b1 bd 16 ae f6 3b 0b c0 ea 3d
       -0.09402454 -0.086670466 0.007528077 0.114624105
000180 b6 cd 0d 3e 93 ee 1e 3e 38 a9 20 3e 0b 21 cb bd
       0.13848004 0.15520696 0.15689552 -0.09918412
000190 f1 3b 1c bd dc 58 0b be e6 bc b4 bd 30 19 30 be
       -0.038143102 -0.13608116 -0.08825092 -0.17197108
0001a0 37 59 c3 bc 11 28 f2 bd 2d de fe bd ae fc 9b bd
       -0.023846252 -0.11824048 -0.124447204 -0.07616554
0001b0 8f 28 a1 bd cf 1d 2b be d1 8f 97 39 4f 46 c3 3d
       -0.07869064 -0.1671059 0.00028908116 0.09534895
0001c0 a9 0e 59 bd df ae 0f be 6d 82 79 bc 55 2b 7e be
       -0.052992497 -0.14031552 -0.01522885 -0.24821217
0001d0 44 ec 5d 3c 8b 3b bd 3d af 7b b8 bd 11 b8 04 3d
       0.0135451 0.092398725 -0.09007966 0.032402102
0001e0 c9 e7 26 3e f5 6b 54 be 6d 8f 8a ba 1f 41 88 bc
       0.16299357 -0.20744307 -0.0010571309 -0.016632615
0001f0 22 7c 49 be cf 11 d2 bd 75 5c 46 bd 26 3d 13 be
       -0.19676259 -0.10257303 -0.048428018 -0.14378795
000200 84 77 0e be 08 1d 7d 3d 51 68 09 be 48 eb 1e bd
       -0.13912779 0.061795264 -0.134187 -0.0387986
000210 6e 52 4b bd 79 11 be 3c 86 4b df bd 24 7d 29 be
       -0.049639158 0.023201691 -0.10903077 -0.16551644
000220 16 f4 86 bd f4 1b 01 be 65 0e d8 bc 41 7c 1d bd
       -0.065895244 -0.1260832 -0.026374051 -0.038448576
000230 a3 52 87 3d 92 a3 d6 bd b1 27 ca bd 87 c8 91 3c
       0.066075586 -0.10480417 -0.09870852 0.017795814
000240 40 39 14 3c 9c 4b 03 bd 96 76 ef bc 41 be 39 3e
       0.009046853 -0.03205453 -0.02923135 0.18138982
000250 63 72 45 3e f0 77 52 3e 54 d4 87 bd 7b 69 ed bd
       0.19281916 0.20553565 -0.06632295 -0.115923844
000260 5c e7 1b be 90 bc 13 bd c5 a4 43 bd 55 13 b9 3d
       -0.15224975 -0.0360685 -0.04776456 0.090368904
000270 2b 19 21 be d3 c5 66 be 8e 42 c7 be 0c 75 2e bd
       -0.15732257 -0.22536401 -0.38917965 -0.042592093
000280 a5 56 05 be 5e 0d f5 bd 3a ac 13 3e bc 50 79 3d
       -0.13021334 -0.1196544 0.14421168 0.06086801
000290 c0 4c 4a be 83 08 22 bd 67 6c 1c be 7a 57 87 be
       -0.1975584 -0.0395589 -0.15275727 -0.26433927
0002a0 93 67 4c bc 1b 06 79 be 87 85 36 bc 92 80 7c bd
       -0.012475866 -0.24318735 -0.011140234 -0.06164605
0002b0 10 e6 e3 3b 35 c3 8a be cc da be bb ff d6 2c be
       0.006954916 -0.27102056 -0.0058244225 -0.1687889
0002c0 6b 7e f8 bd 52 ea df 3d 5e 66 2b 3d b9 fd 69 3d
       -0.12133487 0.10933365 0.04184567 0.057126734
0002d0 7e 60 1a 3e b2 c2 23 be 48 16 f7 bd fe 6d 79 bd
       0.15075871 -0.15992239 -0.12064797 -0.060895912
0002e0 f9 d7 01 be 60 70 2a be a3 80 f1 3d 89 6f 0b be
       -0.12680043 -0.1664443 0.11792114 -0.13616766
0002f0 a7 e8 92 bd 91 f9 73 3d 56 4e 4c be 23 b8 51 be
       -0.07173281 0.059564177 -0.19951758 -0.20480399
000300 af 1c 11 be e8 9a 46 be e8 8b fa 3c 66 69 ac 3c
       -0.14171098 -0.1939503 0.03058429 0.021046352
000310 d4 47 5f be 94 65 3c be 09 8c 95 3d 0f 01 df bd
       -0.21804744 -0.18398124 0.073021 -0.10888874
000320 2c 97 2a bd 61 63 c6 bb 60 5e c9 3c 45 4f fa bc
       -0.041648075 -0.0060543274 0.024581134 -0.030555377
000330 96 af 9f bd bb 42 69 3c 31 ec a3 3d 09 60 9b bb
       -0.07797162 0.014237101 0.08004034 -0.004741673
000340 ca d7 42 be d3 3e 6d be 74 de cf bd f7 d1 da bd
       -0.1902763 -0.23168497 -0.101498514 -0.10684579
000350 58 3f e9 bc fe 80 79 3d 59 30 1a bd 2f c5 13 be
       -0.028472587 0.060914032 -0.037643764 -0.14430688
000360 18 be 74 be 39 db 3f bc 98 0b 77 bd b6 ce 24 be
       -0.2390064 -0.011709982 -0.06031379 -0.16094479
000370 b5 86 cc bd e1 dc 3d 3e 75 8c 60 be 58 9f 04 bd
       -0.09986631 0.1854129 -0.2192858 -0.032378525
000380 ce ab 42 3e ea 18 cb bd 26 7e a1 3c cf b4 ae 3d
       0.19010851 -0.09916861 0.019713473 0.0853058
000390 64 37 80 be 92 16 c7 bc f7 62 35 3e 0d 8f f7 3c
       -0.2504226 -0.024302755 0.17713533 0.03021958
0003a0 64 ad 8c bd 79 92 2c 3e ef 2e e6 bc bc 09 be bd
       -0.06869009 0.1685275 -0.028098552 -0.092792004
0003b0 ce 9a 8e bd 50 24 a7 bd e4 04 d1 3c eb 5b 2a 3e
       -0.069631204 -0.08161223 0.025515027 0.16636626
0003c0 92 f2 3b be c4 b7 03 3e 2e 9a f0 3d 1e 39 34 bd
       -0.18354252 0.1286307 0.117481574 -0.043999784
0003d0 82 2c 54 3d 7a ef 69 3c c5 0d ff 3d 61 10 42 3e
       0.05180026 0.014278287 0.12453798 0.1895156
0003e0 56 05 1e 3d 11 67 ab bd 75 81 14 be b5 a1 89 bd
       0.038579307 -0.08369268 -0.14502509 -0.06720296
0003f0 99 4e 1d be b5 3f 07 be 7a 93 52 be 78 00 42 3c
       -0.15362014 -0.13207896 -0.2056407 0.011840932

sequential/conv2d_1/Conv2D i1 [64, 3, 3, 32]
000000 ff ca 04 f3 a4 f7 d9 fa cb d8 ce ba 17 cb 20 14
       -1 -54 4 -13 -92 -9 -39 -6 -53 -40 -50 -70 23 -53 32 20
000010 bc e0 e9 d6 c5 98 ed c9 e7 ea 23 cb cb f9 a4 de
       -68 -32 -23 -42 -59 -104 -19 -55 -25 -22 35 -53 -53 -7 -92 -34
000020 fd da 33 f1 b9 b1 d4 03 b6 df d7 e7 21 ce fa e6
       -3 -38 51 -15 -71 -79 -44 3 -74 -33 -41 -25 33 -50 -6 -26
000030 dd c9 c0 1c ce 8f 24 a2 18 8c 07 cc f1 db 8e d0
       -35 -55 -64 28 -50 -113 36 -94 24 -116 7 -52 -15 -37 -114 -48
000040 e7 ed 1c b1 b6 e3 da 0b b3 e2 a4 fc 20 d4 f4 d9
       -25 -19 28 -79 -74 -29 -38 11 -77 -30 -92 -4 32 -44 -12 -39
000050 ec dc 0c f3 d2 cc e5 ac 00 b5 df e2 02 cd 95 0d
       -20 -36 12 -13 -46 -52 -27 -84 0 -75 -33 -30 2 -51 -107 13
000060 e0 aa 14 bb f3 f7 e5 0e ee f8 ae a4 f1 f4 0a 19
       -32 -86 20 -69 -13 -9 -27 14 -18 -8 -82 -92 -15 -12 10 25
000070 d1 fd 17 e6 fe a6 0a d1 f3 d9 e6 cf ae 0a c6 e3
       -47 -3 23 -26 -2 -90 10 -47 -13 -39 -26 -49 -82 10 -58 -29
000080 ef d4 fd dc b3 c9 ce 18 b1 fb c6 bd 12 01 0c de
       -17 -44 -3 -36 -77 -55 -50 24 -79 -5 -58 -67 18 1 12 -34
000090 01 d1 f9 fd dc 8c df a5 d4 e3 09 fc ed f2 d2 c7
       1 -47 -7 -3 -36 -116 -33 -91 -44 -29 9 -4 -19 -14 -46 -57
0000a0 25 e0 fb c7 05 36 bc d8 a7 dd d3 cc f0 06 f9 f1
       37 -32 -5 -57 5 54 -68 -40 -89 -35 -45 -52 -16 6 -7 -15
0000b0 99 d6 c6 16 eb d5 15 c0 d5 ad db bd ee d9 8d e1
       -103 -42 -58 22 -21 -43 21 -64 -43 -83 -37 -67 -18 -39 -115 -31
0000c0 e1 b0 e7 e2 df e0 ba d8 b0 df a1 f6 f9 f6 16 f7
       -31 -80 -25 -30 -33 -32 -70 -40 -80 -33 -95 -10 -7 -10 22 -9
0000d0 b9 0d 05 f3 f8 c4 25 94 28 c9 09 e9 ca d3 ad ed
       -71 13 5 -13 -8 -60 37 -108 40 -55 9 -23 -54 -45 -83 -19
0000e0 0e d2 f7 a6 df f5 d1 0e f4 f2 c5 c5 27 06 0b d4
       14 -46 -9 -90 -33 -11 -47 14 -12 -14 -59 -59 39 6 11 -44
0000f0 d7 0c e4 f6 0b c9 10 d5 fc c6 f0 d1 c4 d5 8b fe
       -41 12 -28 -10 11 -55 16 -43 -4 -58 -16 -47 -60 -43 -117 -2

sequential/conv2d_2/Conv2D i1 [64, 3, 3, 64]
000000 df d1 f1 d9 c3 cf e0 e9 17 e8 07 ee dd fa cf e5
       -33 -47 -15 -39 -61 -49 -32 -23 23 -24 7 -18 -35 -6 -49 -27
000010 dc e9 19 01 bd 01 ff d6 eb 24 d8 bd d4 d7 ed ee
       -36 -23 25 1 -67 1 -1 -42 -21 36 -40 -67 -44 -41 -19 -18
000020 e9 de 03 da 1b 0e e3 d7 ab 17 01 e8 01 aa 19 be
       -23 -34 3 -38 27 14 -29 -41 -85 23 1 -24 1 -86 25 -66
000030 d4 f1 d3 ff eb dd f6 fb f2 e1 d9 f8 f8 cc e8 f6
       -44 -15 -45 -1 -21 -35 -10 -5 -14 -31 -39 -8 -8 -52 -24 -10
000040 e9 ef fd 10 f9 f6 0d db 21 dd 13 12 a2 12 cd 2f
       -23 -17 -3 16 -7 -10 13 -37 33 -35 19 18 -94 18 -51 47
000050 e1 f0 2f 15 96 d9 16 e1 23 1d f5 cd c6 e8 ce d4
       -31 -16 47 21 -106 -39 22 -31 35 29 -11 -51 -58 -24 -50 -44
000060 e2 d5 17 c1 f0 c9 ce d1 af 15 ea d3 d4 e4 2d b4
       -30 -43 23 -63 -16 -55 -50 -47 -81 21 -22 -45 -44 -28 45 -76
000070 d6 f5 e4 b6 e8 b3 0f 15 03 e1 f4 23 f2 cd 12 dd
       -42 -11 -28 -74 -24 -77 15 21 3 -31 -12 35 -14 -51 18 -35
000080 0d f1 1c 0f ea f3 24 d8 05 a8 41 04 81 f8 d1 34
       13 -15 28 15 -22 -13 36 -40 5 -88 65 4 -127 -8 -47 52
000090 f6 f1 25 25 ac ed 1f ed 2a 19 03 cf bf c9 ce dd
       -10 -15 37 37 -84 -19 31 -19 42 25 3 -49 -65 -55 -50 -35
0000a0 b4 18 1a b7 fd a8 ce dd 91 03 e3 e1 06 ce 1a db
       -76 24 26 -73 -3 -88 -50 -35 -111 3 -29 -31 6 -50 26 -37
0000b0 0d ee e5 d9 fe a9 f7 2d 1b fe 0e 16 e6 e2 4d 10
       13 -18 -27 -39 -2 -87 -9 45 27 -2 14 22 -26 -30 77 16
0000c0 0b fc f2 0a 01 dc 31 e9 fb cc 16 14 01 12 fc 08
       11 -4 -14 10 1 -36 49 -23 -5 -52 22 20 1 18 -4 8
0000d0 df e2 df 0d a4 ee 0d b8 23 00 0d 0c b4 08 06 f9
       -33 -30 -33 13 -92 -18 13 -72 35 0 13 12 -76 8 6 -7
0000e0 1c d8 f9 b5 eb ff be c7 bb e3 ea e0 d3 c8 07 09
       28 -40 -7 -75 -21 -1 -66 -57 -69 -29 -22 -32 -45 -56 7 9
0000f0 ee e9 f4 dc e7 ea ee 17 f1 e8 16 1b d6 eb 1c f4
       -18 -23 -12 -36 -25 -22 -18 23 -15 -24 22 27 -42 -21 28 -12

sequential/dense/MatMul i1 [64, 6400] scale=0.0033313239 zero_point=0
000000 ed ea dc e9 0e 1a ef cf f7 f7 f1 fb d1 f1 19 fe
       -0.063295156 -0.073289126 -0.11992766 -0.07662045 0.046638533 0.08661442 -0.056632504 -0.16323487 -0.029981915 -0.029981915 -0.04996986 -0.016656619 -0.15657222 -0.04996986 0.0832831 -0.0066626477
000010 de 18 f5 cc 30 c7 0b 06 03 c6 ed 00 2b fc d7 f7
       -0.11326501 0.07995177 -0.036644563 -0.17322885 0.15990354 -0.18988545 0.036644563 0.019987943 0.009993971 -0.19321679 -0.063295156 0.0 0.14324692 -0.013325295 -0.13658428 -0.029981915
000020 ed dc f5 ec 17 b1 01 0b 04 f6 e7 03 d6 ff eb f2
       -0.063295156 -0.11992766 -0.036644563 -0.066626474 0.07662045 -0.2631746 0.0033313239 0.036644563 0.013325295 -0.033313237 -0.0832831 0.009993971 -0.1399156 -0.0033313239 -0.0699578 -0.046638533
000030 e5 e3 f3 27 f3 e3 d5 15 06 0e f4 e9 f8 f9 e4 02
       -0.08994574 -0.09660839 -0.04330721 0.12992163 -0.04330721 -0.09660839 -0.14324692 0.0699578 0.019987943 0.046638533 -0.039975885 -0.07662045 -0.02665059 -0.023319267 -0.09327707 0.0066626477
000040 ef de e6 f9 f9 11 fd da f7 06 e6 ef f8 f1 13 03
       -0.056632504 -0.11326501 -0.08661442 -0.023319267 -0.023319267 0.056632504 -0.009993971 -0.12659031 -0.029981915 0.019987943 -0.08661442 -0.056632504 -0.02665059 -0.04996986 0.063295156 0.009993971
000050 df 1f f6 ec 2c d4 0a 0f fa e8 e7 ec 28 07 eb fa
       -0.10993369 0.10327104 -0.033313237 -0.066626474 0.14657825 -0.14657825 0.033313237 0.04996986 -0.019987943 -0.07995177 -0.0832831 -0.066626474 0.13325295 0.023319267 -0.0699578 -0.019987943
000060 01 e6 e9 ec 1a cb ff 02 09 f4 e2 fe f7 07 eb e4
       0.0033313239 -0.08661442 -0.07662045 -0.066626474 0.08661442 -0.17656016 -0.0033313239 0.0066626477 0.029981915 -0.039975885 -0.09993972 -0.0066626477 -0.029981915 0.023319267 -0.0699578 -0.09327707
000070 e2 f0 f4 17 f2 eb d9 ff fb dc fd da ef fe e3 f1
       -0.09993972 -0.05330118 -0.039975885 0.07662045 -0.046638533 -0.0699578 -0.12992163 -0.0033313239 -0.016656619 -0.11992766 -0.009993971 -0.12659031 -0.056632504 -0.0066626477 -0.09660839 -0.04996986
000080 f2 ec f0 e8 14 11 06 e8 02 fc e5 f6 07 f7 15 06
       -0.046638533 -0.066626474 -0.05330118 -0.07995177 0.066626474 0.056632504 0.019987943 -0.07995177 0.0066626477 -0.013325295 -0.08994574 -0.033313237 0.023319267 -0.029981915 0.0699578 0.019987943
000090 ea 07 f0 fa 1a d8 05 18 06 fd f9 f8 11 f7 e6 fe
       -0.073289126 0.023319267 -0.05330118 -0.019987943 0.08661442 -0.13325295 0.016656619 0.07995177 0.019987943 -0.009993971 -0.023319267 -0.02665059 0.056632504 -0.029981915 -0.08661442 -0.0066626477
0000a0 ff eb ff 0d 19 ce 16 27 07 08 ef 02 f7 06 ef e2
       -0.0033313239 -0.0699578 -0.0033313239 0.04330721 0.0832831 -0.1665662 0.073289126 0.12992163 0.023319267 0.02665059 -0.056632504 0.0066626477 -0.029981915 0.019987943 -0.056632504 -0.09993972
0000b0 f1 e8 f2 12 04 f3 f1 0d fb ed fc f3 11 ff e9 04
       -0.04996986 -0.07995177 -0.046638533 0.05996383 0.013325295 -0.04330721 -0.04996986 0.04330721 -0.016656619 -0.063295156 -0.013325295 -0.04330721 0.056632504 -0.0033313239 -0.07662045 0.013325295
0000c0 f5 ed e6 f7 14 f9 f7 ee f8 f7 f5 f8 02 f2 2a ff
       -0.036644563 -0.063295156 -0.08661442 -0.029981915 0.066626474 -0.023319267 -0.029981915 -0.05996383 -0.02665059 -0.029981915 -0.036644563 -0.02665059 0.0066626477 -0.046638533 0.1399156 -0.0033313239
0000d0 d9 05 eb 06 16 ce f5 19 04 f2 18 02 1b f4 04 f9
       -0.12992163 0.016656619 -0.0699578 0.019987943 0.073289126 -0.1665662 -0.036644563 0.0832831 0.013325295 -0.046638533 0.07995177 0.0066626477 0.08994574 -0.039975885 0.013325295 -0.023319267
0000e0 01 f0 f5 17 24 d0 00 1b eb 07 e4 ff fb 02 e6 f9
       0.0033313239 -0.05330118 -0.036644563 0.07662045 0.11992766 -0.15990354 0.0 0.08994574 -0.0699578 0.023319267 -0.09327707 -0.0033313239 -0.016656619 0.0066626477 -0.08661442 -0.023319267
0000f0 d8 05 f5 17 e4 d6 fe 23 fd f6 07 f0 f9 08 ed 00
       -0.13325295 0.016656619 -0.036644563 0.07662045 -0.09327707 -0.1399156 -0.0066626477 0.11659633 -0.009993971 -0.033313237 0.023319267 -0.05330118 -0.023319267 0.02665059 -0.063295156 0.0

sequential/dense_1/MatMul i1 [28, 64] scale=0.0047134864 zero_point=0
000000 e0 fb 09 d4 f1 e1 19 12 37 f2 33 ed 18 0e ea 03
       -0.15083157 -0.023567433 0.04242138 -0.20739341 -0.0707023 -0.14611807 0.11783716 0.08484276 0.25924176 -0.06598881 0.24038781 -0.08955624 0.11312367 0.06598881 -0.103696704 0.014140459
000010 c8 de 02 02 f0 21 f2 2e fc e7 a9 01 d5 d9 cb 2e
       -0.26395524 -0.16025853 0.009426973 0.009426973 -0.07541578 0.15554506 -0.06598881 0.21682037 -0.018853946 -0.11783716 -0.4100733 0.0047134864 -0.20267992 -0.18382597 -0.24981478 0.21682037
000020 e6 c9 e3 17 07 f6 0d c7 2c 14 28 e1 06 fe 07 f3
       -0.122550644 -0.25924176 -0.13669111 0.10841019 0.032994404 -0.047134865 0.061275322 -0.2686687 0.20739341 0.09426973 0.18853946 -0.14611807 0.028280918 -0.009426973 0.032994404 -0.061275322
000030 de e5 21 e9 3a 1d d9 02 ea c3 ce 0c 03 e3 1d d7
       -0.16025853 -0.12726413 0.15554506 -0.10841019 0.27338222 0.13669111 -0.18382597 0.009426973 -0.103696704 -0.28752267 -0.23567432 0.056561835 0.014140459 -0.13669111 0.13669111 -0.19325294
000040 0d a7 29 35 ef ef e9 09 30 21 f5 2f 28 de bc 24
       0.061275322 -0.4195003 0.19325294 0.24981478 -0.080129266 -0.080129266 -0.10841019 0.04242138 0.22624734 0.15554506 -0.051848352 0.22153386 0.18853946 -0.16025853 -0.32051706 0.16968551
000050 ba 32 db d6 f1 01 14 ea fd d6 1c 11 0c 12 eb 0a
       -0.32994404 0.23567432 -0.174399 -0.19796643 -0.0707023 0.0047134864 0.09426973 -0.103696704 -0.014140459 -0.19796643 0.13197762 0.080129266 0.056561835 0.08484276 -0.09898321 0.047134865
000060 cd 24 f6 dd e1 d3 35 37 e2 0b e0 05 fd 0b 1f e2
       -0.24038781 0.16968551 -0.047134865 -0.16497202 -0.14611807 -0.21210688 0.24981478 0.25924176 -0.1414046 0.051848352 -0.15083157 0.023567433 -0.014140459 0.051848352 0.14611807 -0.1414046
000070 f4 31 00 08 d0 03 d9 f7 c1 d2 08 de d8 f5 23 00
       -0.056561835 0.23096083 0.0 0.03770789 -0.22624734 0.014140459 -0.18382597 -0.04242138 -0.29694965 -0.21682037 0.03770789 -0.16025853 -0.18853946 -0.051848352 0.16497202 0.0
000080 0b f7 2e bc dd fa c6 fe d1 a0 22 fc e0 2a 2c 28
       0.051848352 -0.04242138 0.21682037 -0.32051706 -0.16497202 -0.028280918 -0.27338222 -0.009426973 -0.22153386 -0.45249468 0.16025853 -0.018853946 -0.15083157 0.19796643 0.20739341 0.18853946
000090 11 d6 e7 ed 08 ee 18 ff ef d4 b1 e0 04 21 df 9e
       0.080129266 -0.19796643 -0.11783716 -0.08955624 0.03770789 -0.08484276 0.11312367 -0.0047134864 -0.080129266 -0.20739341 -0.37236542 -0.15083157 0.018853946 0.15554506 -0.15554506 -0.46192166
0000a0 e8 15 e3 08 03 d0 ea 3e d8 df 0a d8 2c ef 01 0d
       -0.11312367 0.09898321 -0.13669111 0.03770789 0.014140459 -0.22624734 -0.103696704 0.29223615 -0.18853946 -0.15554506 0.047134865 -0.18853946 0.20739341 -0.080129266 0.0047134864 0.061275322
0000b0 1a f6 07 1f 1c da 18 dd 0b 49 08 f4 04 d3 45 21
       0.122550644 -0.047134865 0.032994404 0.14611807 0.13197762 -0.17911248 0.11312367 -0.16497202 0.051848352 0.3440845 0.03770789 -0.056561835 0.018853946 -0.21210688 0.32523057 0.15554506
0000c0 07 ea 32 05 14 d9 ee d3 fd eb d2 f0 05 16 e2 ea
       0.032994404 -0.103696704 0.23567432 0.023567433 0.09426973 -0.18382597 -0.08484276 -0.21210688 -0.014140459 -0.09898321 -0.21682037 -0.07541578 0.023567433 0.103696704 -0.1414046 -0.103696704
0000d0 1e cf cf e7 02 25 c4 f5 22 fe b0 1c f7 c7 20 48
       0.1414046 -0.23096083 -0.23096083 -0.11783716 0.009426973 0.174399 -0.2828092 -0.051848352 0.16025853 -0.009426973 -0.37707892 0.13197762 -0.04242138 -0.2686687 0.15083157 0.33937103
0000e0 bc 51 cc cd 0d 2f 35 ef 15 f7 0b d9 e2 de 0a 13
       -0.32051706 0.3817924 -0.24510129 -0.24038781 0.061275322 0.22153386 0.24981478 -0.080129266 0.09898321 -0.04242138 0.051848352 -0.18382597 -0.1414046 -0.16025853 0.047134865 0.08955624
0000f0 09 17 b8 0b cf e1 f1 e1 bc f7 e3 e9 fd d3 0e 2f
       0.04242138 0.10841019 -0.33937103 0.051848352 -0.23096083 -0.14611807 -0.0707023 -0.14611807 -0.32051706 -0.04242138 -0.13669111 -0.10841019 -0.014140459 -0.21210688 0.06598881 0.22153386
