saved_model_icons/Warrior/model.tflite (tflite, 477256 bytes, 10 tensors)

sequential/dense_1/BiasAdd/ReadVariableOp f4 [38]
000000 e7 a4 1f be a7 17 38 3e 0f 6d 51 bd 14 87 cc 3d
       -0.15590249 0.17977773 -0.051129397 0.099867016
000010 b0 e5 cb bd 92 39 89 bd a8 ec 88 bd a4 63 59 bd
       -0.09955919 -0.06700434 -0.066857636 -0.05307354
000020 52 fe 3f 3d 05 35 3d bd d0 55 63 3d d9 61 30 bd
       0.046873398 -0.04619314 0.05550176 -0.043062065
000030 f4 a9 df bd 46 3d 1c 3d b9 5e 19 3e a7 1c 29 be
       -0.10921088 0.038144372 0.1497754 -0.16514836
000040 cd 6e cb bb 69 36 bc bb ac 43 d8 bd 3f 6e 89 bd
       -0.006208277 -0.005743791 -0.105597824 -0.06710481
000050 c8 fb e2 3d cb 84 15 be 43 d9 4c 3c ca 9e f7 3d
       0.1108318 -0.14601438 0.012502971 0.120908335
000060 e8 5b 21 bd c4 88 3e 3d 4d 5c 8a 3d 4c 58 cd 3d
       -0.03939429 0.04651715 0.06755886 0.10026607
000070 b9 f0 36 3d 46 d9 b4 3d e4 7a be 3d e3 19 39 bd
       0.044663165 0.08830504 0.09300783 -0.045190703
000080 36 5c d5 bd a7 18 93 bd 9f d2 93 3d 4b e3 e0 3d
       -0.104179785 -0.071824364 0.07217907 0.10980853
000090 25 7d fe 3b 0f 39 bd bd
       0.0077663832 -0.09239399

sequential/dense/BiasAdd/ReadVariableOp f4 [64]
000000 05 6d 58 be 9d 0a 19 3d 66 0b 4b bd b1 2c 1e 3d
       -0.21135338 0.037363637 -0.049571417 0.03861684
000010 74 73 32 bc da 74 16 be 04 53 25 bc 6c 5e 86 3d
       -0.010891784 -0.14693013 -0.010090593 0.06560978
000020 e6 78 ca 3c 7b 6c e5 bc 65 fd a0 3d c0 71 1c bd
       0.024715852 -0.02800583 0.07860831 -0.038194418
000030 3b 1b 25 3e 39 32 11 be 17 8f ba bd 8f 0e 6a 3d
       0.16123669 -0.14179315 -0.091093235 0.05714279
000040 9b 98 bf bd c5 da 49 be 66 06 3b bd a5 22 c6 bb
       -0.09355279 -0.1971236 -0.0456604 -0.0060466104
000050 fb ae 6c bc 01 9a cb bb 99 34 87 3d 5b e2 aa 3c
       -0.0144460155 -0.006213427 0.06601829 0.020859888
000060 ea 95 da 3d f7 8a b2 bd 13 46 1e bd 44 8d e5 bb
       0.10673125 -0.08717912 -0.038641047 -0.0070053656
000070 90 f6 d6 bb d8 6d b1 bc f4 51 f1 3d e0 22 53 bc
       -0.0065601543 -0.021658823 0.117832094 -0.012886733
000080 03 e6 e5 3d ce b2 f3 bb 51 1d 84 3d 23 97 11 be
       0.11225512 -0.0074370867 0.06450904 -0.1421781
000090 39 b5 89 3d 9c 5c 4e be 3f 05 13 3d f0 d5 3a 3d
       0.067240186 -0.20152515 0.035893675 0.045614183
0000a0 5c d9 9d bd 1b 4e 43 3c df 86 4f 3d 12 40 a4 3d
       -0.07707474 0.011920477 0.050665732 0.08020033
0000b0 af 60 31 3e 97 bc d4 3d 6f 0d 29 3d e1 e8 eb 3d
       0.17322038 0.10387533 0.041272577 0.115190275
0000c0 40 52 cb bb 1d b1 38 be 38 9e c6 bd 4a 6d 75 3d
       -0.0062048733 -0.18036313 -0.096981466 0.05991868
0000d0 0e 44 89 bd 51 b8 c5 bb 37 f6 ca bd e3 da cb bb
       -0.067024335 -0.006033935 -0.09910243 -0.0062211617
0000e0 17 11 33 3d 6d 8c 1b bd 87 bd c5 bb 82 58 94 bd
       0.04371747 -0.037975717 -0.0060345563 -0.07243444
0000f0 17 1e 50 bd 95 b1 4a bd 16 ec 91 3c 66 86 31 be
       -0.050809946 -0.04948576 0.01781277 -0.17336425

sequential/conv2d/BiasAdd/ReadVariableOp f4 [32]
000000 e8 53 bf bc d2 fc 8a 3c 12 8f 9a bb b3 dd 87 bd
       -0.02335544 0.016966257 -0.0047167623 -0.06634083
000010 5f ee 87 be b1 a8 cb bd 3f 3d c7 bc 7e bc ab bd
       -0.2654905 -0.09944285 -0.024321197 -0.083855614
000020 67 27 bc bc 1a ef f0 bc 7b 36 24 bd 19 f3 c2 bb
       -0.022968007 -0.029410888 -0.04009102 -0.0059493897
000030 d3 36 22 be 78 12 6f bd b5 c4 a1 3c 07 57 83 bd
       -0.15841226 -0.058367223 0.019747118 -0.064130835
000040 d2 a2 cc bd b5 0a 8b bc 4f 8e 3a bd 1c 7d 47 bd
       -0.09991993 -0.016972879 -0.045545872 -0.048703298
000050 7a e4 95 bd 4c 87 a9 be f7 45 34 bd 75 57 3b be
       -0.07318969 -0.33111036 -0.044012036 -0.18295081
000060 1d f1 99 be c5 a3 84 bd 6d 50 aa bd 06 69 1b 3c
       -0.30066767 -0.06476549 -0.08316121 0.009485489
000070 de eb ea bd 43 d3 02 bd 4a 88 a9 3b fe 19 a6 bd
       -0.11470769 -0.031939756 0.0051737176 -0.08110426

sequential/conv2d_1/BiasAdd/ReadVariableOp f4 [64]
000000 26 84 45 be 8a d6 ac bd 65 f5 bb bd ae e4 2b be
       -0.19288692 -0.084393576 -0.09177665 -0.16786453
000010 b0 fd f0 bd 07 b6 22 be 60 9b 74 be 70 3a 44 be
       -0.11767137 -0.1588975 -0.23887396 -0.19162917
000020 68 83 2a bd 57 11 4c be a1 e5 85 bd 9a 8d 12 be
       -0.041629225 -0.1992849 -0.06537939 -0.14311829
000030 11 15 a7 bd 6a 67 09 be c3 8d 29 3d 34 60 80 bc
       -0.08158315 -0.13418356 0.04139496 -0.015670873
000040 ef aa 3d bd 2e a6 4f be a2 06 04 be 78 a8 d6 bc
       -0.046305593 -0.20278236 -0.12893155 -0.026203379
000050 3e 23 98 bd 87 2e 7b 3e 40 cf a8 bd 12 2e 5b be
       -0.07428597 0.24529468 -0.08242655 -0.21404293
000060 ef 63 7c bc 46 37 6f bd 9a e1 d8 bd f1 bb 15 be
       -0.015404685 -0.058402322 -0.10589905 -0.14622475
000070 fb 00 bb bd ab 16 18 be 73 e5 03 be 50 b0 20 be
       -0.091310464 -0.14852397 -0.12880497 -0.15692258
000080 05 4e 23 be 27 95 b4 bd 8e 44 28 3e 02 4b 86 bd
       -0.15947731 -0.08817511 0.16432402 -0.06557275
000090 44 82 81 be 36 d3 9d 3e 2a 2b d3 bd d4 de e8 bd
       -0.25294697 0.30825204 -0.10310967 -0.11370626
0000a0 99 87 05 be 58 9b 02 be 9e 70 16 be ad 59 c0 bd
       -0.13040008 -0.12754571 -0.14691398 -0.09392104
0000b0 be 79 99 bd f6 b8 d1 bd 1e 07 24 3d 11 9b de bd
       -0.074939236 -0.102403566 0.04004585 -0.1086942
0000c0 dd 53 37 3e b5 02 30 bd 32 57 37 be ea 1b 0a be
       0.17903085 -0.04297133 -0.17904356 -0.13487211
0000d0 0f 1b de 3c 5c 74 11 be bb f6 0d be 71 b4 b4 bd
       0.027112512 -0.14204544 -0.13863651 -0.08823479
0000e0 7d 64 d3 bd 18 73 2f be 2e 0b 10 be 1c bb 8c 3e
       -0.10321901 -0.17133749 -0.14066765 0.27486503
0000f0 58 76 fb bd ab 61 49 3d 71 4f 3f be 65 b0 51 bd
       -0.12278432 0.04916541 -0.18682648 -0.051193614

sequential/conv2d_2/BiasAdd/ReadVariableOp f4 [64]
000000 5f 48 15 3e 56 eb a8 bd e5 a9 a2 bd 74 a5 de bd
       0.14578389 -0.08248012 -0.07942561 -0.108714014
000010 49 84 f5 bc 50 c7 23 be d6 19 f7 bd 79 e3 ed bd
       -0.029970305 -0.15994 -0.12065475 -0.116156526
000020 c1 59 4e 3e ea 7c 26 be 56 14 07 be 5f df 45 bd
       0.20151426 -0.16258588 -0.13191351 -0.048308726
000030 68 12 f2 bb 6f 7d fd 3d 71 6a ce bd d0 a6 07 be
       -0.007387448 0.1237744 -0.10078896 -0.13247228
000040 31 95 02 bd 95 7c ff bd 3b 80 65 be e9 5a ef bd
       -0.03188056 -0.12474934 -0.22412197 -0.116872616
000050 c9 dc 95 3e 03 93 f1 bc b3 60 2c bd 25 30 d5 bd
       0.29270008 -0.029489046 -0.042084407 -0.104095735
000060 b3 50 db bc 1a 79 3e be c7 eb 3f be 15 72 37 be
       -0.026771879 -0.18600884 -0.18742286 -0.17914613
000070 a8 88 03 be cb 5e f1 bd 36 55 02 3d 54 0c 90 3e
       -0.12845099 -0.117856584 0.031819545 0.28134406
000080 08 63 31 be 6c de c6 bc cd 67 21 be fe bc d4 3d
       -0.17322934 -0.02427598 -0.15762253 0.1038761
000090 be eb 8c bd e3 6a f1 bd 2c 86 96 bd 4c 09 9d bd
       -0.06880902 -0.11787965 -0.0734981 -0.07667789
0000a0 b3 7f 83 bd 4e d8 e4 bd a4 73 9f be 7e 60 ab bc
       -0.06420841 -0.11174069 -0.31142914 -0.020920034
0000b0 e3 cc dd bc 5c 4a bb 3d 1d ec 9a bd 67 de 64 bc
       -0.027075237 0.09145042 -0.07564566 -0.0139690405
0000c0 b2 1b 50 be 90 eb 2a be 9b 3b 0c be 66 ba 03 bd
       -0.20323065 -0.16691422 -0.13694613 -0.032160185
0000d0 51 2d 0e be 01 14 9f 3b ff d8 28 be 3d c2 64 3d
       -0.13884474 0.0048546796 -0.16489027 0.055849303
0000e0 f5 c5 3a be d2 45 4d be b1 28 97 bc 52 2f 60 3e
       -0.18239577 -0.20046166 -0.01845202 0.21893051
0000f0 2e 46 f9 bd fe 8d 33 3d 3d 3a 99 bd 55 06 82 bd
       -0.12171589 0.043836586 -0.07481811 -0.06348864

sequential/conv2d/Conv2D f4 [32, 3, 3, 3]
000000 7b 5d 3c 3d e1 ea 7c be 18 d3 25 be ee 4b 56 3e
       0.045987587 -0.24698974 -0.16193807 0.20927402
000010 16 25 5f be bb cd a3 3d e2 59 53 3e 4a d7 7e 3d
       -0.21791491 0.07998224 0.20639756 0.062217034
000020 2b 97 d3 bd c1 1c 17 3e 3d 35 98 be 9e ef 3d be
       -0.103315674 0.14757062 -0.29728118 -0.18548438
000030 34 47 bf bb 5e a3 68 be 34 08 1a be 7d ef 65 3e
       -0.0058373455 -0.2271857 -0.15042192 0.22454639
000040 47 3f 12 be bb 56 2c bd 30 53 b8 3d da 2e 30 be
       -0.14281951 -0.0420749 0.09000242 -0.17205372
000050 64 6b 8d 3b b9 8f 58 3d 40 9f 27 be b3 cc 4d be
       0.0043157805 0.05287144 -0.16369343 -0.20097618
000060 67 c2 4e 3e 6d 94 72 be 5c 52 57 be e6 49 10 be
       0.20191346 -0.23689432 -0.21027511 -0.1409069
000070 07 a4 e9 bd d0 cf d6 3d 96 63 0b be bb 8b 8a 3d
       -0.11408239 0.10488856 -0.13612208 0.06764933
000080 fb fd d7 3c 20 86 33 be ab a7 b9 3d 62 80 23 3d
       0.026366225 -0.17531633 0.09065183 0.039917357
000090 73 4b 69 be 64 8c a2 bd 28 0a ae 3d eb e0 7e be
       -0.22782688 -0.07936934 0.08498031 -0.24890487
0000a0 a5 cb 90 3d 69 02 a0 3d 0b f7 7a be 66 cb 2d 3e
       0.07070092 0.0781296 -0.24508302 0.16972122
0000b0 48 c0 39 3e f0 ca 43 be 2d d4 f3 3c cb a8 13 3e
       0.18139756 -0.19120383 0.02976426 0.14419858
0000c0 35 89 2a be b5 07 12 3d 28 9a 93 bc 37 80 83 be
       -0.16653903 0.03565188 -0.018017843 -0.25683758
0000d0 ba 7a 5b bd 69 65 82 3d 3e 9b b6 bd 06 f7 6f 3e
       -0.053583838 0.06366999 -0.08916329 0.23434076
0000e0 1b b6 0a 3b a0 e2 d1 3c 81 4a 11 3e 0f 9f 5f be
       0.0021165672 0.025620759 0.14188577 -0.2183802
0000f0 d3 d2 5b be d3 39 44 3c 39 8f d1 be fe 4d 63 3d
       -0.21467142 0.011976677 -0.40929583 0.0554943
000100 2f 5c a0 bc e2 ce d7 bd 41 3a 0f bc f2 d1 68 3d
       -0.019575207 -0.10537507 -0.008741916 0.056840844
000110 53 2f 8d be 46 e2 40 3c 61 91 a7 3d 1c 7f 77 be
       -0.27575168 0.011772698 0.08182026 -0.24169582
000120 c0 d4 fe 3a 72 91 2e 3e 52 34 1e 3c 02 62 9e 3d
       0.0019442067 0.1704767 0.009656029 0.07733537
000130 36 39 96 3d a6 2d 3e be 6c 02 3a be 37 61 05 3e
       0.07335131 -0.18572101 -0.18164986 0.13025366
000140 a5 25 97 be 10 06 1c 3e b0 99 ca 3d ea 3c 5c 3e
       -0.29520908 0.15236688 0.09892595 0.21507612
000150 d2 a0 01 3e a6 ce 97 bc 99 4b 5f 3e a4 ad 88 3d
       0.12659004 -0.018531155 0.21806182 0.06673744
000160 fd d7 01 bd 91 59 86 3d 60 fc 04 be cc c0 ea be
       -0.031700123 0.06560052 -0.12986898 -0.45850217
000170 ad d0 99 be aa 56 36 3e 7a 9c ec bb 26 0d 26 3e
       -0.3004202 0.17806497 -0.007220802 0.16215953
000180 3e 09 1c bd 13 e5 24 3e 58 70 94 3c 72 fe b0 bd
       -0.03809475 0.1610301 0.018119976 -0.086422816
000190 32 db 95 be 60 3d 97 be fa 0b e8 bd 6f ee be be
       -0.29268795 -0.29539013 -0.11330409 -0.37291285
0001a0 3f b1 e5 bd 2b 12 14 3e 97 f9 ba bd 72 c4 87 3d
       -0.11215448 0.14460056 -0.09129637 0.06629266
0001b0 16 9a 57 3b de 53 e4 3d 91 41 b9 bd f2 75 20 3e
       0.003289824 0.11148809 -0.09045709 0.15669993
0001c0 bf 73 89 3b df 07 60 be f0 b8 0c 3e b0 63 18 3e
       0.004194706 -0.21878003 0.13742423 0.14881778
0001d0 8b d9 01 be d2 16 df bc 2d c3 c4 3d ae 08 33 be
       -0.12680642 -0.027232561 0.09607539 -0.1748378
0001e0 03 96 70 3d d0 7f 58 3c 66 64 3c be 21 30 ae 3d
       0.058736812 0.013214067 -0.18397674 0.085052736
0001f0 19 9c 34 3e 9d cf 02 bd 81 13 f5 3d ba d9 cc 3d
       0.17637672 -0.031936277 0.11966611 0.100024655
000200 85 89 c7 bd 22 7a 19 3e 17 2c 60 3c 57 38 47 3d
       -0.09743027 0.14987996 0.013682387 0.048637714
000210 2f a9 1e 3d 0d e4 4d 3e 8c 55 20 3c d0 21 f8 bd
       0.038735565 0.20106526 0.009786021 -0.12115824
000220 e3 69 7d 3d 8c 6c 2d 3e a2 37 db 3c 62 76 d4 3d
       0.06186856 0.16935939 0.026759926 0.10374142
000230 fe 42 26 3e 35 4e 76 3d 5b 4d 07 3e 81 60 3c bd
       0.16236493 0.060133178 0.13213103 -0.04599047
000240 d8 47 7d bd 6e d4 ae 3d c4 d9 6a 3b ff 60 3c be
       -0.061836094 0.085366115 0.0035835365 -0.18396376
000250 2e 24 1e 3c 00 eb 79 3d e3 08 38 be 7b 7a 05 3a
       0.009652181 0.06101513 -0.1797214 0.00050917984
000260 88 79 1d be 00 d0 29 be ef cb 15 3e 76 53 3e bd
       -0.15378392 -0.16583252 0.14628576 -0.046466313
000270 11 56 44 be 95 de 89 3d 88 4d f9 bd 41 8f 8a be
       -0.19173457 0.06731907 -0.12172991 -0.2706242
000280 d6 10 b8 bc bd 23 1b 3d dc 67 e6 bb 76 1b 27 be
       -0.022468966 0.03787588 -0.007031424 -0.1631907
000290 4e 63 8b be 57 bc 87 be 48 0e b4 bd fe f5 05 be
       -0.272242 -0.2651088 -0.087917864 -0.1308212
0002a0 22 fa 96 bd 60 7c ad bc f2 c4 20 be 7f 16 4e be
       -0.07371928 -0.02117747 -0.15700129 -0.20125769
0002b0 46 4a c8 bc d1 ce fa bc 70 a5 59 be c8 eb 1a bd
       -0.024449479 -0.030616196 -0.21254516 -0.037822515
0002c0 cd a7 b7 bd 9f 22 92 3d a6 70 83 3e c3 65 32 3d
       -0.08967552 0.0713551 0.2567188 0.04355408
0002d0 e9 90 20 be 7c a2 a7 3d 93 e8 0d be 17 cd a6 bc
       -0.15680279 0.08185288 -0.13858251 -0.020361466
0002e0 e3 d7 0d 3e 82 61 f3 bb 26 d4 4a 3d 8c 50 7e 3e
       0.13851885 -0.0074273953 0.049518727 0.24835414
0002f0 ac f2 75 3e 6d 30 be bd 71 2c 0a be bd 31 3b 3d
       0.24018353 -0.0928658 -0.13493516 0.04570173
000300 f7 0b 11 3d d9 4e 3b be 8a b0 18 be 17 83 63 bd
       0.0354118 -0.18291797 -0.14911094 -0.05554494
000310 a8 04 c4 bd ca d5 eb 3c 49 80 34 be 10 67 d7 bd
       -0.095712006 0.028788466 -0.17627062 -0.105177045
000320 d3 69 fb bc 51 62 3c bd b1 bb 00 be 05 8b 9b bd
       -0.03069011 -0.0459922 -0.12571599 -0.07594875
000330 b7 88 0b bd 73 7c 5c bc 64 bc f2 3d a4 e8 d9 bd
       -0.03406593 -0.013457405 0.11852339 -0.10640076
000340 c0 6e 7f be 14 72 f0 3c 41 22 50 bd 43 98 b2 bd
       -0.24944592 0.029351272 -0.050813917 -0.08720448
000350 c8 06 07 3c bf a1 b1 3d 21 61 fa 3d a0 91 3d 3e
       0.008241363 0.08673429 0.12225557 0.18512583
000360 ba d5 33 3e 05 5f a0 3e 35 ed af bd a9 e5 b0 3d
       0.17561999 0.31322494 -0.085901655 0.08637554
000370 37 97 39 3e c5 f8 30 be ee 11 43 be ff 66 ba 3d
       0.1812409 -0.17282398 -0.19049808 0.09101676
000380 d7 aa 1a be 48 1e e0 bd 0d fc 47 3e 25 9e 0d be
       -0.15104233 -0.10943276 0.19529743 -0.13829859
000390 fd db d2 3d 2f c2 60 3e ce 1e 49 be 22 cd 0e be
       0.10295866 0.21949075 -0.19640657 -0.1394544
0003a0 28 18 11 bd c1 e4 f9 be 33 54 41 bd f9 81 92 3d
       -0.035423428 -0.48807338 -0.04719944 0.071536966
0003b0 68 bf 1a be 07 b0 a4 3d 36 fb c4 3d f9 5a 5b be
       -0.15112078 0.08041387 0.09618227 -0.21421422
0003c0 c1 46 0e 3b 96 57 da 3d cf f2 7a be 42 5b 23 be
       0.0021709653 0.10661237 -0.24506687 -0.15952781
0003d0 65 47 0a be bb 90 14 be 0e 78 bd bd 56 e4 26 3e
       -0.13503797 -0.14508335 -0.09251414 0.16298041
0003e0 89 15 e1 bd f3 5e 12 3e 4f ee 2c 3d 00 e4 13 3e
       -0.10990436 0.14294033 0.042219456 0.14442444
0003f0 f1 c5 54 bd b0 6a 94 bd ca 93 bd bc fd c8 0e be
       -0.051946584 -0.072469115 -0.02314176 -0.13943858

sequential/conv2d_1/Conv2D i1 [64, 3, 3, 32]
000000 f4 d4 26 23 f1 f4 de c1 11 f5 28 29 fd f4 03 27
       -12 -44 38 35 -15 -12 -34 -63 17 -11 40 41 -3 -12 3 39
000010 19 05 23 b6 0d e0 04 f8 04 fb d2 f6 0b 08 c7 e1
       25 5 35 -74 13 -32 4 -8 4 -5 -46 -10 11 8 -57 -31
000020 db fa eb 01 1e e5 32 26 e7 e4 34 fb ff f4 1c 08
       -37 -6 -21 1 30 -27 50 38 -25 -28 52 -5 -1 -12 28 8
000030 13 d7 00 dc 1d 01 fd e9 0c e8 1a 10 2a d5 06 aa
       19 -41 0 -36 29 1 -3 -23 12 -24 26 16 42 -43 6 -86
000040 9e 27 16 14 00 ed 27 ec 12 f8 08 36 10 e9 5f 25
       -98 39 22 20 0 -19 39 -20 18 -8 8 54 16 -23 95 37
000050 92 07 12 0a da 13 31 f3 15 fb 03 fc 06 ef 11 c3
       -110 7 18 10 -38 19 49 -13 21 -5 3 -4 6 -17 17 -61
000060 e2 ec fd e8 d0 01 f4 c5 28 f6 95 1b 07 db ef 7f
       -30 -20 -3 -24 -48 1 -12 -59 40 -10 -107 27 7 -37 -17 127
000070 21 e6 25 a3 0f c7 14 f9 e7 1c eb f0 35 15 f2 02
       33 -26 37 -93 15 -57 20 -7 -25 28 -21 -16 53 21 -14 2
000080 15 07 d1 60 f4 17 18 07 01 0e ba 23 eb 2a 1a 75
       21 7 -47 96 -12 23 24 7 1 14 -70 35 -21 42 26 117
000090 24 b8 fd e7 0f f5 ff 1d fb 07 ec a9 2b e1 e8 e4
       36 -72 -3 -25 15 -11 -1 29 -5 7 -20 -87 43 -31 -24 -28
0000a0 c4 02 35 04 0d fc ea fe 1a fd 07 35 e8 cd 09 70
       -60 2 53 4 13 -4 -22 -2 26 -3 7 53 -24 -51 9 112
0000b0 21 28 28 c7 e7 e2 13 e4 0d b0 ec f1 32 02 09 eb
       33 40 40 -57 -25 -30 19 -28 13 -80 -20 -15 50 2 9 -21
0000c0 d6 c7 28 df de ea 10 da 00 0e f4 e9 ed d4 30 19
       -42 -57 40 -33 -34 -22 16 -38 0 14 -12 -23 -19 -44 48 25
0000d0 d3 10 e7 c7 1b e1 10 04 bd 07 f5 27 d9 19 1d 86
       -45 16 -25 -57 27 -31 16 4 -67 7 -11 39 -39 25 29 -122
0000e0 ff c1 1d 09 0c 04 35 e2 26 46 1d 3e 02 ee 1c 75
       -1 -63 29 9 12 4 53 -30 38 70 29 62 2 -18 28 117
0000f0 2f 01 f6 03 1d b5 e0 f9 ea 1d e8 ec 36 12 1b d1
       47 1 -10 3 29 -75 -32 -7 -22 29 -24 -20 54 18 27 -47

sequential/conv2d_2/Conv2D i1 [64, 3, 3, 64]
000000 fb 0a df 16 de 02 c3 1d fd e9 e3 14 f9 f9 32 41
       -5 10 -33 22 -34 2 -61 29 -3 -23 -29 20 -7 -7 50 65
000010 fe bd bc ec fc ff e2 f2 fe fc b2 f2 db 0c 16 e3
       -2 -67 -68 -20 -4 -1 -30 -14 -2 -4 -78 -14 -37 12 22 -29
000020 05 eb ed fa c1 03 f3 0f ed bc 04 00 cc 35 bb e9
       5 -21 -19 -6 -63 3 -13 15 -19 -68 4 0 -52 53 -69 -23
000030 db 1f f3 23 c0 06 e0 e8 25 09 03 0f e5 12 d0 01
       -37 31 -13 35 -64 6 -32 -24 37 9 3 15 -27 18 -48 1
000040 d7 fb e2 06 c2 1f dd 14 1c 07 f1 08 f4 03 17 12
       -41 -5 -30 6 -62 31 -35 20 28 7 -15 8 -12 3 23 18
000050 02 b2 e1 02 f6 03 bf dd fd 04 c3 da d3 e9 0b 05
       2 -78 -31 2 -10 3 -65 -35 -3 4 -61 -38 -45 -23 11 5
000060 1e 24 1a 21 d0 15 fe fa f1 b7 0d f2 d3 32 bf f9
       30 36 26 33 -48 21 -2 -6 -15 -73 13 -14 -45 50 -65 -7
000070 dd 23 1e 19 cc f0 d9 d4 18 01 0c 1e db 14 f5 29
       -35 35 30 25 -52 -16 -39 -44 24 1 12 30 -37 20 -11 41
000080 c8 ef e1 fd ce 10 c6 17 47 44 c0 1c e2 fa 15 09
       -56 -17 -31 -3 -50 16 -58 23 71 68 -64 28 -30 -6 21 9
000090 ef a6 b9 13 08 f8 c6 e5 f2 39 d5 f3 e3 d9 0b 25
       -17 -90 -71 19 8 -8 -58 -27 -14 57 -43 -13 -29 -39 11 37
0000a0 34 49 2a 46 0d 17 f0 db df d6 ff e3 b8 19 b3 05
       52 73 42 70 13 23 -16 -37 -33 -42 -1 -29 -72 25 -77 5
0000b0 ed f4 1d 09 ec f6 f1 b1 f4 fc 0e 32 09 11 c6 2e
       -19 -12 29 9 -20 -10 -15 -79 -12 -4 14 50 9 17 -58 46
0000c0 db ec f5 f6 eb 01 b3 0b f5 d6 c5 0c f6 fb 04 16
       -37 -20 -11 -10 -21 1 -77 11 -11 -42 -59 12 -10 -5 4 22
0000d0 ed d9 db dd e7 12 cd e2 d4 f8 b1 da 0c f7 f3 ea
       -19 -39 -37 -35 -25 18 -51 -30 -44 -8 -79 -38 12 -9 -13 -22
0000e0 f2 eb 0b f6 aa 04 fa e2 d5 ab e8 09 c8 0c cc f7
       -14 -21 11 -10 -86 4 -6 -30 -43 -85 -24 9 -56 12 -52 -9
0000f0 ca 17 ed 07 a8 0f e2 d5 11 ee f9 12 08 f9 cb 05
       -54 23 -19 7 -88 15 -30 -43 17 -18 -7 18 8 -7 -53 5

sequential/dense/MatMul i1 [64, 6400] scale=0.005999057 zero_point=0
000000 da 02 fc ed 06 f6 ff 0a f3 01 02 e9 ff f8 f2 f7
       -0.22796416 0.011998114 -0.023996228 -0.11398208 0.035994343 -0.05999057 -0.005999057 0.05999057 -0.077987745 0.005999057 0.011998114 -0.13797832 -0.005999057 -0.047992457 -0.0839868 -0.053991515
000010 26 ec f1 ed 0d db e0 f0 f2 f6 eb f5 f7 fd f0 0b
       0.22796416 -0.11998114 -0.089985855 -0.11398208 0.077987745 -0.22196512 -0.19196983 -0.09598491 -0.0839868 -0.05999057 -0.1259802 -0.06598963 -0.053991515 -0.017997172 -0.09598491 0.06598963
000020 dd 0e eb 0a 00 f1 de 17 02 f0 f1 f5 fd d6 04 fb
       -0.209967 0.0839868 -0.1259802 0.05999057 0.0 -0.089985855 -0.20396794 0.13797832 0.011998114 -0.09598491 -0.089985855 -0.06598963 -0.017997172 -0.2519604 0.023996228 -0.029995285
000030 00 dd ef db f6 03 e5 f7 e7 f5 00 1b 1b 04 e9 f1
       0.0 -0.209967 -0.10198397 -0.22196512 -0.05999057 0.017997172 -0.16197453 -0.053991515 -0.14997643 -0.06598963 0.0 0.16197453 0.16197453 0.023996228 -0.13797832 -0.089985855
000040 df fb f8 fa fd e8 e9 f9 d6 01 fb ff 04 fb f1 f9
       -0.19796889 -0.029995285 -0.047992457 -0.035994343 -0.017997172 -0.14397737 -0.13797832 -0.0419934 -0.2519604 0.005999057 -0.029995285 -0.005999057 0.023996228 -0.029995285 -0.089985855 -0.0419934
000050 1a fb f4 fb ff d4 d1 ed fd f2 ec 02 ef fc f6 0c
       0.15597549 -0.029995285 -0.07198869 -0.029995285 -0.005999057 -0.2639585 -0.2819557 -0.11398208 -0.017997172 -0.0839868 -0.11998114 0.011998114 -0.10198397 -0.023996228 -0.05999057 0.07198869
000060 da 0e ee f6 01 f9 ef 05 04 fb e2 0a fb d1 fb fd
       -0.22796416 0.0839868 -0.10798303 -0.05999057 0.005999057 -0.0419934 -0.10198397 0.029995285 0.023996228 -0.029995285 -0.17997171 0.05999057 -0.029995285 -0.2819557 -0.029995285 -0.017997172
000070 eb de e8 01 f8 fc ef fe ed f8 f1 08 12 0d e0 ee
       -0.1259802 -0.20396794 -0.14397737 0.005999057 -0.047992457 -0.023996228 -0.10198397 -0.011998114 -0.11398208 -0.047992457 -0.089985855 0.047992457 0.10798303 0.077987745 -0.19196983 -0.10798303
000080 e3 03 ed e6 03 f0 f7 03 e1 fc 02 ff ff f2 06 e9
       -0.17397265 0.017997172 -0.11398208 -0.15597549 0.017997172 -0.09598491 -0.053991515 0.017997172 -0.18597077 -0.023996228 0.011998114 -0.005999057 -0.005999057 -0.0839868 0.035994343 -0.13797832
000090 0b 01 f7 f5 e3 d3 e1 ea 05 eb f8 fe f1 00 f3 02
       0.06598963 0.005999057 -0.053991515 -0.06598963 -0.17397265 -0.26995757 -0.18597077 -0.13197926 0.029995285 -0.1259802 -0.047992457 -0.011998114 -0.089985855 0.0 -0.077987745 0.011998114
0000a0 eb 0a f0 ee 03 fe d6 fe 03 02 fd 03 f3 f1 02 fc
       -0.1259802 0.05999057 -0.09598491 -0.10798303 0.017997172 -0.011998114 -0.2519604 -0.011998114 0.017997172 0.011998114 -0.017997172 0.017997172 -0.077987745 -0.089985855 0.011998114 -0.023996228
0000b0 e9 e5 06 0c f4 04 ee ff e4 fc fc f9 08 12 e2 ed
       -0.13797832 -0.16197453 0.035994343 0.07198869 -0.07198869 0.023996228 -0.10798303 -0.005999057 -0.1679736 -0.023996228 -0.023996228 -0.0419934 0.047992457 0.10798303 -0.17997171 -0.11398208
0000c0 e3 ff f1 ee 06 fb f9 fb f1 fc fb 05 04 fa 04 02
       -0.17397265 -0.005999057 -0.089985855 -0.10798303 0.035994343 -0.029995285 -0.0419934 -0.029995285 -0.089985855 -0.023996228 -0.029995285 0.029995285 0.023996228 -0.035994343 0.023996228 0.011998114
0000d0 0b 03 f5 f2 eb d7 e8 f8 f1 f4 00 05 fe fb f2 fb
       0.06598963 0.017997172 -0.06598963 -0.0839868 -0.1259802 -0.24596134 -0.14397737 -0.047992457 -0.089985855 -0.07198869 0.0 0.029995285 -0.011998114 -0.029995285 -0.0839868 -0.029995285
0000e0 e4 0b f0 f2 f6 0b d4 f6 ff fd f2 f7 f6 f3 fb fd
       -0.1679736 0.06598963 -0.09598491 -0.0839868 -0.05999057 0.06598963 -0.2639585 -0.05999057 -0.005999057 -0.017997172 -0.0839868 -0.053991515 -0.05999057 -0.077987745 -0.029995285 -0.017997172
0000f0 f3 d6 0a fe f4 05 f2 ee f3 eb f7 f2 0b 0f e1 ef
       -0.077987745 -0.2519604 0.05999057 -0.011998114 -0.07198869 0.029995285 -0.0839868 -0.10798303 -0.077987745 -0.1259802 -0.053991515 -0.0839868 0.06598963 0.089985855 -0.18597077 -0.10198397

sequential/dense_1/MatMul i1 [38, 64] scale=0.0049837762 zero_point=0
000000 eb f2 f2 d5 10 2c 2a 0d fe 08 31 fe e1 05 f6 d6
       -0.104659304 -0.06977287 -0.06977287 -0.21430238 0.07974042 0.21928616 0.20931861 0.064789094 -0.0099675525 0.03987021 0.24420504 -0.0099675525 -0.15449706 0.02491888 -0.04983776 -0.20931861
000010 f0 2b ce 2d 04 0e 16 31 fc 32 0f 0d 26 eb d9 d2
       -0.07974042 0.21430238 -0.24918881 0.22426993 0.019935105 0.06977287 0.10964308 0.24420504 -0.019935105 0.24918881 0.074756645 0.064789094 0.18938349 -0.104659304 -0.19436727 -0.22925371
000020 1f ec cc de c2 f0 05 ef 29 e6 12 d6 d0 da 01 bf
       0.15449706 -0.09967552 -0.25915638 -0.16944839 -0.3089941 -0.07974042 0.02491888 -0.084724195 0.20433483 -0.12957819 0.08970797 -0.20931861 -0.23922126 -0.18938349 0.0049837762 -0.32394546
000030 1d fe de 2c f8 f7 d0 dd 2c 04 e4 2c 12 d7 05 e2
       0.1445295 -0.0099675525 -0.16944839 0.21928616 -0.03987021 -0.044853985 -0.23922126 -0.17443217 0.21928616 0.019935105 -0.13954574 0.21928616 0.08970797 -0.20433483 0.02491888 -0.14951329
000040 de eb 18 3d 1e 16 0b cd ed fd 1c e5 d0 e7 cf c4
       -0.16944839 -0.104659304 0.11961063 0.30401036 0.14951329 0.10964308 0.05482154 -0.2541726 -0.094691746 -0.014951329 0.13954574 -0.13456196 -0.23922126 -0.124594405 -0.24420504 -0.29902658
000050 cd 0b e1 f0 e9 e5 10 cf 2d 13 e7 05 06 ee 1c 12
       -0.2541726 0.05482154 -0.15449706 -0.07974042 -0.114626855 -0.13456196 0.07974042 -0.24420504 0.22426993 0.094691746 -0.124594405 0.02491888 0.029902657 -0.08970797 0.13954574 0.08970797
000060 09 19 ef d7 17 e8 31 0c e2 07 da cc 35 09 09 0d
       0.044853985 0.124594405 -0.084724195 -0.20433483 0.114626855 -0.11961063 0.24420504 0.059805315 -0.14951329 0.034886435 -0.18938349 -0.25915638 0.26414013 0.044853985 0.044853985 0.064789094
000070 f1 f4 b3 18 e7 00 a6 0a 2c 2e 03 ef 2b f7 ff df
       -0.074756645 -0.059805315 -0.38375077 0.11961063 -0.124594405 0.0 -0.44853985 0.04983776 0.21928616 0.22925371 0.014951329 -0.084724195 0.21430238 -0.044853985 -0.0049837762 -0.16446462
000080 eb 33 b1 e3 43 b8 fd c1 df df 11 ea f3 d4 f0 ba
       -0.104659304 0.2541726 -0.39371833 -0.1445295 0.333913 -0.35883188 -0.014951329 -0.3139779 -0.16446462 -0.16446462 0.084724195 -0.10964308 -0.064789094 -0.21928616 -0.07974042 -0.34886435
000090 dc e6 e7 d8 ea d6 de e4 11 cb ca f7 17 dc db 06
       -0.17941594 -0.12957819 -0.124594405 -0.19935104 -0.10964308 -0.20931861 -0.16944839 -0.13954574 0.084724195 -0.26414013 -0.2691239 -0.044853985 0.114626855 -0.17941594 -0.18439972 0.029902657
0000a0 de f0 08 f3 e5 32 0a fa e7 ed 16 c7 2a d4 db d6
       -0.16944839 -0.07974042 0.03987021 -0.064789094 -0.13456196 0.24918881 0.04983776 -0.029902657 -0.124594405 -0.094691746 0.10964308 -0.28407526 0.20931861 -0.21928616 -0.18439972 -0.20931861
0000b0 ec d2 2b 19 f8 1f 1e dd f9 07 e4 21 de db 1d 55
       -0.09967552 -0.22925371 0.21430238 0.124594405 -0.03987021 0.15449706 0.14951329 -0.17443217 -0.034886435 0.034886435 -0.13954574 0.16446462 -0.16944839 -0.18439972 0.1445295 0.42362097
0000c0 c1 02 f8 24 43 e9 fd 54 20 df 31 c4 35 f0 ee 02
       -0.3139779 0.0099675525 -0.03987021 0.17941594 0.333913 -0.114626855 -0.014951329 0.41863722 0.15948084 -0.16446462 0.24420504 -0.29902658 0.26414013 -0.07974042 -0.08970797 0.0099675525
0000d0 a8 06 1d 15 ec fb d9 08 d4 ef eb dd e0 1e 0a 2f
       -0.43857232 0.029902657 0.1445295 0.104659304 -0.09967552 -0.02491888 -0.19436727 0.03987021 -0.21928616 -0.084724195 -0.104659304 -0.17443217 -0.15948084 0.14951329 0.04983776 0.23423748
0000e0 1d 0b 13 1c 0e ea c7 ef df 01 ef 0f f6 28 ec e3
       0.1445295 0.05482154 0.094691746 0.13954574 0.06977287 -0.10964308 -0.28407526 -0.084724195 -0.16446462 0.0049837762 -0.084724195 0.074756645 -0.04983776 0.19935104 -0.09967552 -0.1445295
0000f0 fb 05 d3 c4 05 11 08 f7 32 05 f0 f3 ff d3 f5 e5
       -0.02491888 0.02491888 -0.22426993 -0.29902658 0.02491888 0.084724195 0.03987021 -0.044853985 0.24918881 0.02491888 -0.07974042 -0.064789094 -0.0049837762 -0.22426993 -0.05482154 -0.13456196
