saved_model_icons/Warrior/model.tflite (tflite, 476192 bytes, 10 tensors)

sequential_1/dense_2/BiasAdd/ReadVariableOp f4 [64]
-0.009385337 0.037747927 -0.022479828 -0.0690494 0.0132576125 -0.03796633 0.06896391 0.031164877
0.10591879 -0.006001396 0.032833938 -0.03162236 -0.006969879 -0.0052871145 0.0002712958 -0.0518625
0.03154259 -0.011112645 -0.06358934 -0.042285405 -0.019621091 -0.06785666 0.013930301 -0.0048047695
-0.0060046986 -0.015560907 -0.025350774 -0.006406538 -0.024789533 0.03333983 -0.039019197 0.024635876
-0.062304568 -0.032442205 -0.0066100094 -0.017420731 -0.054599077 0.0017571901 -0.009412883 -0.0068961354
-0.006884718 0.04288819 -0.0076578334 0.06039944 -0.06931033 -0.00042055428 -0.0212426 -0.033055417
0.09038468 0.009614017 0.036747117 -0.057554856 -0.030517032 -0.04185829 -0.046159834 -0.027278388
0.038107652 -0.044987947 0.109849855 -0.0049632415 0.013989328 0.021476235 -0.09366444 -0.037692618
00000000: f5c4 19bc 929d 1a3d 9e27 b8bc c669 8dbd
00000010: 7536 593c 9582 1bbd f33c 8d3d 7c4d ff3c
00000020: f3eb d83d 5ca7 c4bb e17c 063d 7386 01bd
00000030: 9563 e4bb 883f adbb b53c 8e39 c66d 54bd
00000040: ce32 013d d011 36bc 213b 82bd 7633 2dbd
00000050: 69bc a0bc 6ff8 8abd eb3b 643c 5471 9dbb
00000060: 10c3 c4bb 2df3 7ebc 6dac cfbc f0ed d1bb
00000070: 6b13 cbbc 588f 083d 98d2 1fbd 2dd1 c93c
00000080: 1333 7fbd 1ee2 04bd c798 d8bb ecb5 8ebc
00000090: 48a3 5fbd 8451 e63a 7e38 1abc faf8 e1bb
000000a0: 3399 e1bb 87ab 2f3d 90ee fabb 6765 773d
000000b0: 93f2 8dbd d77d dcb9 f604 aebc 1e65 07bd
000000c0: 9a1b b93d 1c84 1d3c 2584 163d a4be 6bbd
000000d0: dbfe f9bc 9973 2bbd 1812 3dbd ed76 dfbc
000000e0: c516 1c3d 4845 38bd f6f8 e03d b0a2 a2bb
000000f0: 7f33 653c eeee af3c 24d3 bfbd 9363 1abd

sequential_1/dense_3/BiasAdd/ReadVariableOp f4 [21]
-0.030344233 0.11560636 -0.008618585 0.0057665096 -0.0038141578 0.021690859 -0.08545336 -0.020048033
0.042572927 0.05391238 -0.11429123 0.048966665 0.011629932 0.032669693 -0.041887984 -0.0022078985
0.06860742 0.0034279295 -0.0109014185 0.04105164 -0.11144053
00000000: 7894 f8bc 07c3 ec3d f734 0dbc fdf4 bc3b
00000010: f3f6 79bb 07b1 b13c 2c02 afbd c63b a4bc
00000020: f360 2e3d 3ad3 5c3d 8511 eabd 4591 483d
00000030: 788b 3e3c a8d0 053d bc92 2bbd 64b2 10bb
00000040: 0c82 8c3d 1da7 603b dd9b 32bc c425 283d
00000050: ef3a e4bd

sequential_1/conv2d_3/BiasAdd/ReadVariableOp f4 [32]
-0.017152838 -0.0096001355 -0.05159008 -0.07205352 -0.01800035 -0.14273728 0.009428012 -0.066778496
-0.112870745 -0.08457551 0.103049316 0.08470459 0.050470356 -0.18938573 0.039702218 -0.18888994
-0.0245222 -0.08270763 0.100576244 -0.21865256 -0.12851982 -0.09248586 -0.018926749 -0.10595942
-0.015953982 -0.048325103 -0.003886084 -0.14430752 -0.047962397 -0.02875239 0.049008954 -0.02894207
00000000: 1c84 8cbc e349 1dbc 1f50 53bd cc90 93bd
00000010: 7875 93bc b929 12be f377 1a3c 2ac3 88bd
00000020: c728 e7bd ed35 adbd 850b d33d 9a79 ad3d
00000030: 01ba 4e3d 55ee 41be cb9e 223d 5d6c 41be
00000040: c8e2 c8bc 9e62 a9bd ebfa cd3d 75e6 5fbe
00000050: b39a 03be 3a69 bdbd 450c 9bbc 4101 d9bd
00000060: edb1 82bc 8bf0 45bd acad 7ebb 5ac5 13be
00000070: 3874 44bd 228a ebbc 9dbd 483d ec17 edbc

sequential_1/conv2d_4/BiasAdd/ReadVariableOp f4 [64]
-0.035744626 0.0138348425 0.12864044 0.028828947 -0.1285756 0.0361951 0.024103874 -0.14407332
-0.03961697 -0.022048723 -0.087720945 -0.05439361 0.09096023 -0.018445944 0.02993149 -0.016043056
-0.024410939 -0.07376388 -0.011056167 -0.028536987 -0.024487339 0.0006504928 0.18852249 -0.0046250396
-0.0559384 -0.08209902 0.07191966 -0.0507067 -0.16117106 -0.07271091 -0.023113118 -0.05106014
-0.04755708 -0.025237098 -0.033454604 -0.10407375 0.03332749 -0.099963374 -0.11709089 -0.12987038
0.0072170827 -0.05887049 0.048943385 -0.12925507 -0.06256866 -0.09821877 -0.005610626 -0.14050296
0.07975801 0.0064846994 -0.022172565 -0.027411722 -0.13974787 -0.085590445 -0.03592343 -0.11945362
-0.032224227 -0.026174225 -0.0035348672 -0.048098605 -0.07027189 -0.07395985 0.03095291 -0.109866284
00000000: f568 12bd 89ab 623c 52ba 033e af2a ec3c
00000010: 52a9 03be 5041 143d 7d75 c53c f587 13be
00000020: 6745 22bd 869f b4bc 0aa7 b3bd d6cb 5ebd
00000030: 5b49 ba3d f31b 97bc e232 f53c ba6c 83bc
00000040: 73f9 c7bc 8411 97bd ed24 35bc 66c6 e9bc
00000050: ac99 c8bc d585 2a3a 0a0c 413e a58d 97bb
00000060: aa1f 65bd 8823 a8bd 9d4a 933d d4b1 4fbd
00000070: 070a 25be 75e9 94bd b957 bdbc 7024 51bd
00000080: 36cb 42bd 08be cebc b207 09bd 9e24 d5bd
00000090: 6882 083d 99b9 ccbd 59cd efbd befc 04be
000000a0: 477d ec3b 2f22 71bd dc78 483d 715b 04be
000000b0: ff23 80bd ec26 c9bd 58d9 b7bb 02e0 0fbe
000000c0: 2b58 a33d 9a7d d43b 3da3 b5bc 8c8e e0bc
000000d0: 111a 0fbe 0b4a afbd 7224 13bd 19a4 f4bd
000000e0: 8dfd 03bd 546b d6bc 3ba9 67bb 0b03 45bd
000000f0: b5ea 8fbd 4378 97bd f590 fd3c 9301 e1bd

sequential_1/conv2d_5/BiasAdd/ReadVariableOp f4 [64]
-0.08543699 -0.03718824 -0.06012806 0.032255687 -0.005713169 -0.08136576 -0.10619557 -0.121945105
-0.010535599 0.05282387 -0.08411692 0.026720569 0.009918672 -0.012220715 -0.077512845 -0.046840552
-0.11656379 -0.0067861564 0.024281196 0.041992452 0.034440767 -0.13319543 -0.027935632 -0.08067867
-0.032518554 -0.08995736 -0.041140392 -0.03790147 -0.08155676 0.095143154 -0.059130326 0.016455762
-0.06157841 -0.042261846 0.0048017423 -0.035019267 -0.010318122 -0.037763722 -0.05891299 -0.09816674
-0.031541295 0.12348527 -0.030712763 -0.053952295 -0.10549945 -0.08274168 0.034935795 -0.06041882
-0.006504771 -0.071587674 -0.05289449 -0.09821561 -0.044184133 0.20992984 -0.039836373 -0.008945627
0.013163045 -0.0063788504 -0.014972798 0.070441514 -0.02261498 -0.14361712 -0.041223947 0.14685546
00000000: 97f9 aebd b252 18bd d748 76bd 8a1e 043d
00000010: 8935 bbbb 17a3 a6bd 107d d9bd 5bbe f9bd
00000020: 819d 2cbc d85d 583d 7e45 acbd 18e5 da3c
00000030: ed81 223c 6539 48bc 0ebf 9ebd e1db 3fbd
00000040: ffb8 eebd 685e debb 5ce9 c63c 4700 2c3d
00000050: c311 0d3d 6264 08be 44d9 e4bc dc3a a5bd
00000060: 2d32 05bd 903b b8bd d482 28bd 923e 1bbd
00000070: 3b07 a7bd 6ada c23d a432 72bd 3cce 863c
00000080: a539 7cbd c21a 2dbd ef57 9d3b 5d70 0fbd
00000090: 570d 29bc 22ae 1abd bf4e 71bd a50b c9bd
000000a0: 7231 01bd d8e5 fc3d 5599 fbbc 15fd 5cbd
000000b0: 1810 d8bd 7874 a9bd d618 0f3d b979 77bd
000000c0: f925 d5bb 8f9c 92bd e5a7 58bd 4425 c9bd
000000d0: 6cfa 34bd d9f7 563e 772b 23bd ae90 12bc
000000e0: d0a9 573c ad05 d1bb 7750 75bc a443 903d
000000f0: 0d43 b9bc 5e10 13be 71da 28bd 4761 163e

sequential_1/conv2d_3/Conv2D f4 [32, 3, 3, 3]
-0.0052459575 0.09630258 -0.08600332 0.113241486 0.0027061033 0.0009369707 0.1257766 0.08781027
-0.029425517 -0.000726691 0.085916616 -0.10444364 -0.16478173 0.025435554 -0.261434 -0.05826557
0.082881354 -0.06991231 -0.10754724 -0.03647701 -0.078690305 -0.081440456 0.038158853 -0.17313154
-0.003700818 -0.007387582 -0.18318525 0.011084125 -0.14624988 -0.10649948 0.0017171409 0.09842736
-0.067462094 -0.16137332 -0.013879948 -0.1624891 -0.109816805 0.020333948 0.0426508 0.10061558
-0.08194014 0.019707318 -0.01992585 -0.02564889 0.043304786 -0.2073785 -0.118994385 -0.2227839
0.14514905 0.121502556 0.06619997 0.038484108 0.0445343 0.007967944 -0.22354941 -0.16125083
-0.1900221 0.036081832 -0.0018062288 0.07602533 -0.040464744 0.09072884 0.06786542 0.053545874
0.085134245 -0.01456589 -0.123756036 -0.03524546 0.01676812 -0.20312944 0.11630172 -0.18648411
-0.10324975 0.053542145 -0.20039557 -0.16217227 -0.031109622 -0.17989242 0.048818283 0.07499666
0.035106927 0.11419538 0.028678365 -0.12890972 0.008141889 -0.070407294 -0.027283655 0.0153576
-0.07462982 -0.21821019 -0.07068433 0.11737093 -0.08072077 0.0010175597 0.0828904 -0.056696493
0.09364859 -0.08784876 -0.23544785 0.1558549 0.055959817 -0.099367164 0.091869965 0.14612462
-0.15943798 0.092573404 0.0648925 -0.09597138 -0.092771836 -0.08912341 -0.19347559 0.032593485
0.10386226 -0.09902555 0.106275916 0.13116501 0.16125275 -0.116819866 -0.15642174 -0.20062722
0.048639238 0.10603376 -0.16319075 -0.112897806 0.119876586 0.0495435 -0.06233318 -0.011802902
0.046853166 -0.041235458 0.068845294 -0.050417222 -0.1508301 -0.07935394 -0.031344727 0.014615957
-0.0041503785 -0.10762239 0.09410902 0.031481985 -0.010159644 0.11224139 -0.035775967 0.11366476
-0.105059035 0.12432981 0.08228585 0.08647989 0.010706667 -0.07087419 0.12857497 -0.0698846
-0.04310149 -0.06599725 0.0727489 -0.059888236 -0.060185477 0.032764886 0.029811412 -0.11729356
0.08482348 0.045316204 -0.041396376 -0.080624 -0.016360326 -0.20353104 -0.0595651 -0.21094371
-0.18312404 -0.08550902 -0.10297898 -0.10524712 -0.08439434 -0.002861653 -0.014406844 0.13078882
-0.02524882 0.11615628 0.20067334 0.016516786 -0.030077541 0.18275665 0.17192648 0.12996417
0.13242492 -0.03485884 -0.078207485 -0.05107682 0.06836826 -0.16253066 -0.09771521 0.17084615
0.01633692 0.07361613 0.13957961 -0.028256603 -0.034024663 -0.075688116 -0.13204664 0.11968399
0.13703622 0.050906744 0.1006042 0.13801552 0.0110357525 0.05628204 0.060196802 -0.07751389
-0.020612571 0.033752017 -0.062787764 0.09861626 0.16800065 -0.082687795 0.04102472 0.035500553
-0.10076673 -0.16553581 -0.03753284 -0.011044498 0.054643307 0.056641452 0.007825708 0.003960854
0.03489511 -0.1628813 -0.12711987 0.057856858 -0.0449542 0.106029734 0.16002396 -0.16473341
0.039790906 -0.07564178 0.030634139 0.024492078 0.03418778 -0.06827862 0.10767614 0.11284405
0.09542661 -0.07795119 0.09390657 -0.022575237 -0.1245321 -0.22602989 -0.06234163 0.11251431
-0.20735773 -0.09569626 0.10698892 -0.051402498 0.12625152 -0.047930945 -0.14638145 0.090833925
00000000: 48e6 abbb 493a c53d 8222 b0bd 27eb e73d
00000010: e158 313b 0a9f 753a 95cb 003e dfd5 b33d
00000020: c80d f1bc 687f 3eba 0df5 af3d 8ce6 d5bd
00000030: 8bbc 28be 395e d03c adda 85be e1a7 6ebd
00000040: b3bd a93d 2f2e 8fbd ba41 dcbd eb68 15bd
00000050: 6228 a1bd 41ca a6bd 754c 1c3d 6549 31be
00000060: 6c89 72bb 8813 f2bb ea94 3bbe 319a 353c
00000070: 87c2 15be 661c dabd b011 e13a 4994 c93d
00000080: 9129 8abd 0c3f 25be b968 63bc 8b63 26be
00000090: a2e7 e0bd 6193 a63c 9bb2 2e3d 8b0f ce3d
000000a0: 3bd0 a7bd 3e71 a13c 893b a3bc 9f1d d2bc
000000b0: 5c60 313d 085b 54be 54b3 f3bd 7621 64be
000000c0: f4a1 143e 55d6 f83d da93 873d 83a1 1d3d
000000d0: 9969 363d fb8b 023c 23ea 64be f01e 25be
000000e0: 2795 42be 8bca 133d fbbe ecba 2bb3 9b3d
000000f0: 5cbe 25bd 0bd0 b93d 06fd 8a3d eb52 5b3d
00000100: dd5a ae3d c5a5 6ebc ce73 fdbd 8b5d 10bd
00000110: 4c5d 893c 2a01 50be 992f ee3d b1f5 3ebe
00000120: 9b74 d3bd 024f 5b3d 7f34 4dbe 7d10 26be
00000130: 9bd9 febc b835 38be aef5 473d d997 993d
00000140: 48cc 0f3d 44df e93d e4ee ea3c e900 04be
00000150: 8f65 053c b331 90bd f981 dfbc 719e 7b3c
00000160: 85d7 98bd 7e72 5fbe f2c2 90bd 2c60 f03d
00000170: ee50 a5bd a35f 853a 71c2 a93d 953a 68bd
00000180: d5ca bf3d 0dea b3bd 3e19 71be 6d98 1f3e
00000190: 1f36 653d 0381 cbbd 5226 bc3d b1a1 153e
000001a0: b643 23be 2097 bd3d 5ce6 843d a58c c4bd
000001b0: 29ff bdbd 5686 b6bd 771e 46be bf80 053d
000001c0: bdb5 d43d e8cd cabd 30a7 d93d 1f50 063e
000001d0: 711f 253e 413f efbd 052d 20be 3971 4dbe
000001e0: f039 473d 3a28 d93d 7a1b 27be f736 e7bd
000001f0: db81 f53d 20ee 4a3d 1451 7fbd f660 41bc
00000200: 1be9 3f3d 83e6 28bd c3fe 8c3d 4a82 4ebd
00000210: 3573 1abe 5284 a2bd 5463 00bd c477 6f3c
00000220: e6ff 87bb 2169 dcbd 3bbc c03d 41f3 003d
00000230: a374 26bc d0de e53d d289 12bd 12c9 e83d
00000240: 3129 d7bd a1a0 fe3d 7c85 a83d 5e1c b13d
00000250: 046b 2f3c 7d26 91bd 28a9 033e a81f 8fbd
00000260: 308b 30bd 9129 87bd 60fd 943d 5e4d 75bd
00000270: 0c85 76bd 7934 063d 1037 f43c 9b37 f0bd
00000280: efb7 ad3d 7c9d 393d 3f8f 29bd 321e a5bd
00000290: 1706 86bc 716a 50be 89fa 73bd a101 58be
000002a0: de84 3bbe 5a1f afbd a5e6 d2bd cd8b d7bd
000002b0: f1d6 acbd 928a 3bbb af0a 6cbc 81ed 053e
000002c0: 9dd6 cebc 58e3 ed3d 507d 4d3e 364e 873c
000002d0: 2d65 f6bc 8f24 3b3e 7f0d 303e 5415 053e
000002e0: 669a 073e 25c8 0ebd 3f2b a0bd ed35 51bd
000002f0: a904 8c3d 706e 26be e91e c8bd 4bf2 2e3e
00000300: 01d5 853c 0ec4 963d f5ed 0e3e 647a e7bc
00000310: 725d 0bbd 5f02 9bbd 3c37 07be e11c f53d
00000320: 3953 0c3e 9783 503d 9309 ce3d f153 0d3e
00000330: 4dcf 343c ff87 663d ec90 763d 9abf 9ebd
00000340: b2db a8bc 8e3f 0a3d df96 80bd 52f7 c93d
00000350: 5d08 2c3e 3858 a9bd 8909 283d 0769 113d
00000360: ca5e cebd 3882 29be 09bc 19bd fbf3 34bc
00000370: a9d1 5f3d de00 683d 6637 003c 0dca 813b
00000380: 2dee 0e3d 5bca 26be b62b 02be 50fb 6c3d
00000390: e521 38bd 1e26 d93d 52dd 233e e0af 28be
000003a0: cafb 223d 14ea 9abd 72f4 fa3c 9ca3 c83c
000003b0: 7c08 0c3d a9d5 8bbd 4f85 dc3d c81a e73d
000003c0: 076f c33d e0a4 9fbd 1652 c03d b4ef b8bc
000003d0: b00a ffbd 6174 67be f059 7fbd e76d e63d
000003e0: 9655 54be 67fc c3bd 021d db3d 6d8b 52bd
000003f0: 1448 013e 3d53 44bd 05e5 15be 2307 ba3d

sequential_1/conv2d_4/Conv2D i1 [64, 3, 3, 32]
46 100 -52 73 -39 51 -69 -62
27 -21 -80 44 -48 45 6 34
5 39 -56 42 30 62 -86 24
-31 43 -127 85 -10 29 -32 -18
-48 28 24 48 4 0 3 33
-49 6 -40 -99 26 4 30 61
3 -43 -79 74 -14 63 -94 27
17 -31 -67 90 32 33 -83 -80
31 -61 19 9 -58 -11 -87 -15
6 22 -114 -83 -5 13 -24 -14
-44 32 -69 27 34 43 -34 -66
-15 72 -72 12 -39 -27 -43 -12
13 93 0 70 -10 33 -87 -20
-28 -4 -52 -71 16 69 -25 58
-62 57 -43 59 -35 12 -102 -22
-26 -45 -61 93 -36 49 -50 29
19 -17 -18 -15 -45 -26 -43 22
-65 31 -47 -83 10 -59 41 -17
-13 -28 -71 -32 -11 45 -14 -6
-71 42 -90 -7 -43 39 -44 -6
-8 -53 -29 16 -16 -21 -104 14
-11 -28 5 -71 38 -40 -20 73
8 54 -40 44 29 60 -91 -10
-10 31 -65 50 54 49 -49 -53
-10 99 -21 -25 28 0 -100 20
39 -5 10 16 -49 -12 -21 -4
32 -7 -1 50 -50 40 -54 -69
37 -24 -34 1 51 -58 -65 -41
44 34 -66 -29 -70 -9 -127 -84
11 11 -12 43 -50 -10 -11 27
30 -11 -35 19 -53 47 -74 -48
14 -16 -30 11 -36 39 7 -81
00000000: 2e64 cc49 d933 bbc2 1beb b02c d02d 0622
00000010: 0527 c82a 1e3e aa18 e12b 8155 f61d e0ee
00000020: d01c 1830 0400 0321 cf06 d89d 1a04 1e3d
00000030: 03d5 b14a f23f a21b 11e1 bd5a 2021 adb0
00000040: 1fc3 1309 c6f5 a9f1 0616 8ead fb0d e8f2
00000050: d420 bb1b 222b debe f148 b80c d9e5 d5f4
00000060: 0d5d 0046 f621 a9ec e4fc ccb9 1045 e73a
00000070: c239 d53b dd0c 9aea e6d3 c35d dc31 ce1d
00000080: 13ef eef1 d3e6 d516 bf1f d1ad 0ac5 29ef
00000090: f3e4 b9e0 f52d f2fa b92a a6f9 d527 d4fa
000000a0: f8cb e310 f0eb 980e f5e4 05b9 26d8 ec49
000000b0: 0836 d82c 1d3c a5f6 f61f bf32 3631 cfcb
000000c0: f663 ebe7 1c00 9c14 27fb 0a10 cff4 ebfc
000000d0: 20f9 ff32 ce28 cabb 25e8 de01 33c6 bfd7
000000e0: 2c22 bee3 baf7 81ac 0b0b f42b cef6 f51b
000000f0: 1ef5 dd13 cb2f b6d0 0ef0 e20b dc27 07af

sequential_1/conv2d_5/Conv2D i1 [64, 3, 3, 64]
5 1 -60 -22 -6 29 64 33
-47 67 3 -55 -84 -8 10 -44
6 15 -44 -38 20 -14 -118 38
4 65 8 24 -31 28 -10 -48
8 -88 -28 25 -53 69 -3 -68
-77 -42 -3 29 -26 19 53 69
-45 61 -2 25 29 44 -43 32
37 28 42 2 -4 9 -15 -4
-20 23 -95 -34 -15 60 42 54
-42 81 48 13 -73 11 -29 31
-58 2 -77 14 35 -11 -48 0
0 -28 10 61 -6 7 4 -27
-22 -10 -37 -55 -31 3 41 -64
15 -5 -15 -36 18 0 69 -15
-70 26 69 -27 -38 -19 -54 2
32 -40 -7 -18 -51 -12 -11 -8
-62 -28 -28 -37 -12 -14 -87 -16
-12 -45 -7 -63 -11 -14 -75 -38
1 -16 -64 -5 -30 20 -28 -41
10 -52 -5 28 -17 14 -26 -49
-36 -12 3 -68 -49 -32 -71 -3
-34 0 6 -15 -54 -84 18 -9
-52 -2 0 -8 -65 -46 -71 -44
-51 -28 -35 -67 -6 -34 -81 -41
28 32 -92 6 53 -30 71 26
-48 11 7 -19 -79 -17 -31 -29
8 46 -65 8 -7 11 -73 7
-1 56 7 18 -9 -4 -24 4
68 -14 22 32 -36 44 66 20
-69 -40 24 55 15 31 -17 69
-71 -3 -65 66 -20 7 -32 70
80 -15 54 12 -1 -16 -5 24
00000000: 0501 c4ea fa1d 4021 d143 03c9 acf8 0ad4
00000010: 060f d4da 14f2 8a26 0441 0818 e11c f6d0
00000020: 08a8 e419 cb45 fdbc b3d6 fd1d e613 3545
00000030: d33d fe19 1d2c d520 251c 2a02 fc09 f1fc
00000040: ec17 a1de f13c 2a36 d651 300d b70b e31f
00000050: c602 b30e 23f5 d000 00e4 0a3d fa07 04e5
00000060: eaf6 dbc9 e103 29c0 0ffb f1dc 1200 45f1
00000070: ba1a 45e5 daed ca02 20d8 f9ee cdf4 f5f8
00000080: c2e4 e4db f4f2 a9f0 f4d3 f9c1 f5f2 b5da
00000090: 01f0 c0fb e214 e4d7 0acc fb1c ef0e e6cf
000000a0: dcf4 03bc cfe0 b9fd de00 06f1 caac 12f7
000000b0: ccfe 00f8 bfd2 b9d4 cde4 ddbd fade afd7
000000c0: 1c20 a406 35e2 471a d00b 07ed b1ef e1e3
000000d0: 082e bf08 f90b b707 ff38 0712 f7fc e804
000000e0: 44f2 1620 dc2c 4214 bbd8 1837 0f1f ef45
000000f0: b9fd bf42 ec07 e046 50f1 360c fff0 fb18

sequential_1/dense_2/MatMul i1 [64, 6400] scale=0.00310094 zero_point=0
-0.05271598 0.0 -0.021706581 0.07132162 0.00930282 0.0 -0.06511974 -0.06822068
-0.01860564 -0.04961504 0.11783572 0.00310094 -0.0775235 -0.043413162 0.00310094 0.01860564
0.0 0.021706581 0.01860564 0.00310094 -0.02790846 -0.021706581 0.043413162 -0.021706581
-0.05271598 -0.13644136 -0.0620188 -0.03721128 -0.00930282 -0.0775235 0.0465141 0.0155047
0.1085329 0.03721128 -0.04031222 0.04961504 -0.01860564 -0.05271598 -0.05271598 -0.0155047
0.03411034 -0.06822068 0.02790846 0.01240376 -0.01240376 0.00620188 -0.01860564 -0.00620188
0.0310094 0.06511974 -0.043413162 -0.0155047 0.0155047 -0.04031222 0.0155047 -0.0620188
-0.0310094 -0.02790846 0.0 -0.09923008 -0.01860564 -0.01240376 -0.04031222 -0.13334042
-0.05581692 0.03411034 0.01240376 0.13334042 -0.0310094 0.00620188 -0.05581692 -0.03721128
-0.02790846 -0.043413162 0.09612914 0.00930282 -0.08062444 -0.00310094 -0.0155047 0.043413162
0.0 0.0 -0.021706581 -0.01240376 -0.05891786 -0.00310094 0.0310094 -0.00620188
0.00620188 -0.10543196 -0.06511974 -0.09612914 0.00930282 -0.07442256 0.08372538 0.11163384
0.021706581 0.00310094 -0.0310094 0.0930282 0.0155047 -0.06822068 -0.11783572 -0.0155047
-0.0155047 -0.0310094 -0.00620188 -0.00310094 0.0310094 0.07132162 -0.0465141 -0.00310094
0.0465141 0.02480752 0.00310094 -0.00620188 0.03721128 -0.0155047 -0.00930282 -0.05891786
-0.06822068 -0.021706581 0.02480752 -0.08372538 0.00620188 0.02480752 -0.01860564 -0.1395423
-0.043413162 0.0 0.02790846 0.0 -0.05271598 0.021706581 -0.04961504 0.01860564
0.0155047 -0.05581692 0.086826324 -0.0155047 -0.08992726 0.0 0.0155047 -0.00620188
0.043413162 -0.021706581 -0.05271598 -0.0465141 -0.08062444 0.0 0.00620188 0.0310094
0.043413162 -0.0775235 -0.0620188 -0.12093666 -0.0155047 0.03411034 0.0930282 0.05581692
-0.06511974 -0.01240376 -0.01240376 0.07132162 0.00930282 -0.06822068 -0.06822068 0.04031222
-0.00310094 -0.06822068 -0.02790846 -0.00930282 0.01860564 0.0620188 -0.00310094 0.01860564
0.021706581 0.01240376 0.00310094 0.0465141 0.00620188 -0.06822068 0.00620188 -0.0775235
-0.03721128 -0.00930282 -0.00620188 -0.05891786 -0.0310094 0.0310094 0.0 -0.1240376
0.00620188 0.01240376 0.0465141 -0.06822068 -0.06822068 0.0155047 0.00310094 0.02480752
-0.0155047 -0.11163384 0.06511974 -0.01860564 -0.08992726 -0.021706581 -0.01240376 -0.01240376
0.00620188 0.01240376 -0.10233102 -0.08992726 -0.1395423 0.0155047 -0.03721128 -0.01240376
0.01240376 -0.06822068 -0.0775235 -0.114734784 -0.00620188 0.0 0.0 -0.07132162
-0.043413162 -0.10233102 -0.03721128 0.05271598 0.01240376 -0.02790846 -0.08062444 0.00620188
0.01860564 -0.02790846 -0.07132162 -0.0310094 0.01860564 0.043413162 -0.04031222 -0.00620188
0.07442256 0.00930282 0.03411034 0.06511974 0.021706581 -0.03411034 -0.0155047 -0.0620188
-0.08992726 -0.0465141 -0.00620188 -0.01860564 0.00310094 -0.00310094 0.01240376 -0.12093666
00000000: ef00 f917 0300 ebea faf0 2601 e7f2 0106
00000010: 0007 0601 f7f9 0ef9 efd4 ecf4 fde7 0f05
00000020: 230c f310 faef effb 0bea 0904 fc02 fafe
00000030: 0a15 f2fb 05f3 05ec f6f7 00e0 fafc f3d5
00000040: ee0b 042b f602 eef4 f7f2 1f03 e6ff fb0e
00000050: 0000 f9fc edff 0afe 02de ebe1 03e8 1b24
00000060: 0701 f61e 05ea dafb fbf6 feff 0a17 f1ff
00000070: 0f08 01fe 0cfb fded eaf9 08e5 0208 fad3
00000080: f200 0900 ef07 f006 05ee 1cfb e300 05fe
00000090: 0ef9 eff1 e600 020a 0ee7 ecd9 fb0b 1e12
000000a0: ebfc fc17 03ea ea0d ffea f7fd 0614 ff06
000000b0: 0704 010f 02ea 02e7 f4fd feed f60a 00d8
000000c0: 0204 0fea ea05 0108 fbdc 15fa e3f9 fcfc
000000d0: 0204 dfe3 d305 f4fc 04ea e7db fe00 00e9
000000e0: f2df f411 04f7 e602 06f7 e9f6 060e f3fe
000000f0: 1803 0b15 07f5 fbec e3f1 fefa 01ff 04d9

sequential_1/dense_3/MatMul i1 [21, 64] scale=0.0047581997 zero_point=0
0.23315178 -0.24266818 -0.22839358 0.0 -0.061856598 -0.06661479 0.19984439 0.15226239
-0.36162317 -0.15226239 0.019032799 -0.11419679 0.052340195 -0.099922195 0.06661479 -0.06661479
0.18081158 -0.1712952 0.13798779 -0.10943859 0.028549198 -0.19508618 -0.20936078 -0.09516399
-0.014274599 -0.24742639 -0.06661479 0.028549198 0.028549198 -0.25218457 0.038065597 0.23315178
-0.123713195 -0.15226239 0.20460258 0.1855698 -0.26645917 0.028549198 0.10468039 0.1475042
-0.1855698 -0.099922195 -0.1617788 0.10468039 -0.25218457 -0.009516399 -0.15226239 0.019032799
-0.19984439 -0.099922195 -0.1617788 0.014274599 -0.18081158 -0.10468039 -0.309283 0.099922195
0.07137299 -0.023790998 -0.21411899 -0.15226239 0.24266818 0.3235576 -0.13322958 -0.057098396
0.22363539 0.052340195 0.21411899 0.13798779 0.038065597 0.057098396 0.20460258 0.123713195
0.1475042 0.0856476 0.123713195 -0.038065597 0.06661479 -0.17605339 0.10468039 -0.047581997
-0.052340195 0.0856476 -0.1617788 -0.13322958 -0.22839358 -0.0808894 -0.20460258 0.13798779
0.22839358 0.076131195 -0.21411899 0.09040579 -0.0808894 -0.0047581997 -0.16653699 0.123713195
0.118954994 0.028549198 0.06661479 0.10943859 -0.10468039 -0.07137299 0.123713195 0.023790998
0.24266818 0.061856598 -0.19508618 0.22363539 -0.1855698 0.1712952 -0.1475042 0.023790998
0.20460258 -0.038065597 0.09040579 -0.0856476 0.13798779 -0.057098396 -0.10468039 0.17605339
0.06661479 -0.061856598 0.1855698 0.22839358 0.057098396 0.118954994 -0.29025018 -0.099922195
-0.261701 0.038065597 0.1712952 -0.118954994 -0.2807338 0.1617788 -0.26645917 0.118954994
0.18081158 0.07137299 -0.0808894 -0.057098396 -0.20460258 0.24266818 0.1855698 0.16653699
-0.0808894 -0.10943859 0.0 -0.033307396 -0.21411899 0.23790999 0.061856598 -0.13798779
0.009516399 -0.061856598 0.009516399 -0.10943859 -0.22363539 -0.07137299 0.21411899 -0.033307396
-0.24266818 -0.16653699 -0.18081158 -0.0808894 0.11419679 -0.23790999 -0.13798779 0.24742639
0.076131195 -0.21887718 0.06661479 -0.0856476 -0.26645917 -0.23790999 0.15226239 -0.16653699
0.057098396 0.0047581997 -0.21887718 -0.3235576 -0.21887718 -0.076131195 -0.25218457 -0.10468039
-0.30452478 -0.21887718 -0.3711396 0.18081158 0.20460258 0.10943859 0.30452478 0.0856476
0.1855698 0.0 -0.052340195 -0.23790999 0.09516399 0.0 -0.033307396 -0.26645917
0.061856598 -0.1617788 0.1617788 0.12847139 0.07137299 -0.0808894 -0.033307396 -0.31404117
0.14274599 -0.17605339 0.052340195 0.099922195 -0.27597558 0.10943859 0.21887718 -0.24266818
0.22839358 0.07137299 0.1617788 0.057098396 0.19984439 0.17605339 0.014274599 -0.19508618
-0.0856476 0.17605339 -0.15702058 -0.0856476 -0.038065597 -0.19508618 -0.014274599 0.1712952
-0.09040579 0.14274599 -0.0428238 -0.12847139 0.15702058 -0.12847139 0.047581997 -0.16653699
-0.34734857 0.28549197 -0.14274599 0.22839358 0.028549198 -0.009516399 0.1617788 0.033307396
-0.057098396 -0.047581997 0.261701 0.15226239 -0.27597558 -0.20460258 -0.19984439 0.32831576
00000000: 31cd d000 f3f2 2a20 b4e0 04e8 0beb 0ef2
00000010: 26dc 1de9 06d7 d4ec fdcc f206 06cb 0831
00000020: e6e0 2b27 c806 161f d9eb de16 cbfe e004
00000030: d6eb de03 daea bf15 0ffb d3e0 3344 e4f4
00000040: 2f0b 2d1d 080c 2b1a 1f12 1af8 0edb 16f6
00000050: f512 dee4 d0ef d51d 3010 d313 efff dd1a
00000060: 1906 0e17 eaf1 1a05 330d d72f d924 e105
00000070: 2bf8 13ee 1df4 ea25 0ef3 2730 0c19 c3eb
00000080: c908 24e7 c522 c819 260f eff4 d533 2723
00000090: efe9 00f9 d332 0de3 02f3 02e9 d1f1 2df9
000000a0: cddd daef 18ce e334 10d2 0eee c8ce 20dd
000000b0: 0c01 d2bc d2f0 cbea c0d2 b226 2b17 4012
000000c0: 2700 f5ce 1400 f9c8 0dde 221b 0fef f9be
000000d0: 1edb 0b15 c617 2ecd 300f 220c 2a25 03d7
000000e0: ee25 dfee f8d7 fd24 ed1e f7e5 21e5 0add
000000f0: b73c e230 06fe 2207 f4f6 3720 c6d5 d645
