saved_model_icons/Warrior/model.tflite (tflite, 477320 bytes, 10 tensors)

sequential/dense_1/BiasAdd/ReadVariableOp f4 [39]
0	0xbd5061ee	-0.050874643
1	0x3e708843	0.2348948
2	0xbd06a37b	-0.03287075
3	0x3e160b1d	0.14652677
4	0xbddbe201	-0.10736466
5	0xbde7cdb4	-0.11318532
6	0xbd86916a	-0.06570704
7	0xbdb5af30	-0.08871305
8	0x3dc12d42	0.0943246
9	0xbd23e9a8	-0.040017754
10	0xbb3b8924	-0.0028615678
11	0xbd550df5	-0.052015264
12	0xbe1751fd	-0.1477737
13	0xbc159948	-0.009130783
14	0x3e263b04	0.1623345
15	0xbe28302b	-0.16424625
16	0xbd3fa165	-0.046784777
17	0xbc927b10	-0.017880946
18	0x3d9b3d95	0.07580105
19	0xbd537455	-0.051624615
20	0xbe1c82d0	-0.15284276
21	0x3e30290d	0.1720316
22	0xbe97a350	-0.29616785
23	0x3e1348db	0.14383261
24	0x3def0000	0.11669922
25	0xbe19de53	-0.15026216
26	0x3dc6b88e	0.0970317
27	0x3dcd4b8c	0.10024175
28	0x3d850b77	0.06496327
29	0xbcb47892	-0.022030149
30	0xbd0a1b88	-0.033717662
31	0x3cac6765	0.021045396
32	0xbc86ceee	-0.016456094
33	0xbe60f609	-0.21968855
34	0xbdaecfec	-0.08535752
35	0x3e64707d	0.22308536
36	0x3d553021	0.052047852
37	0x3e00658e	0.1253874
38	0xbda094e4	-0.07840899

sequential/dense/BiasAdd/ReadVariableOp f4 [64]
0	0xbbc4c4f5	-0.0060049244
1	0x3d0a9864	0.033836737
2	0xbd2dc087	-0.042419937
3	0x3d97d66a	0.07413943
4	0xbd8ef1dd	-0.069797255
5	0xbb97041b	-0.0046086437
6	0x3db212df	0.086950056
7	0x3d9030f9	0.07040591
8	0xbd793a62	-0.060846694
9	0x3ddda7f9	0.10823054
10	0x3e0e5ed8	0.13903368
11	0x3ba0a84a	0.004902874
12	0x3aa1f071	0.0012354982
13	0xbe04c082	-0.12964061
14	0x3dcc3993	0.09971919
15	0xbd42df76	-0.04757639
16	0xbc7668ae	-0.015039606
17	0xbe471a94	-0.19443733
18	0xbc533eda	-0.012893403
19	0xbe77dd50	-0.24205518
20	0xbc3b0f57	-0.0114172315
21	0xbbc49ca6	-0.0060001193
22	0xbe39a214	-0.18128234
23	0x3dd9c961	0.10634113
24	0xbbc6760c	-0.0060565528
25	0xbc60ff20	-0.013732702
26	0x3ce2c851	0.027683409
27	0xbd58584f	-0.052818593
28	0x3d7c4ba5	0.061595578
29	0xbbc4c68a	-0.006005113
30	0xbbc77174	-0.0060865227
31	0xbbc4c313	-0.0060047
32	0xbe93197f	-0.2873039
33	0xbe0734de	-0.13203761
34	0x3cca8470	0.024721354
35	0xbbdce646	-0.006741318
36	0xbdf861cd	-0.12128029
37	0xbdbd60e7	-0.09246998
38	0xbdaf5be4	-0.085624486
39	0x3b03fb45	0.0020138782
40	0xbdbc2236	-0.09186213
41	0xbcbc6c3a	-0.023000825
42	0x3e2fb403	0.17158513
43	0x3db3e5be	0.08784054
44	0xbce014fa	-0.027353752
45	0xbc03977e	-0.008031724
46	0x3d79bf5f	0.06097352
47	0xbb9f5e3f	-0.00486353
48	0xbdfb7b66	-0.12279396
49	0x3da83250	0.08212721
50	0xbd872e68	-0.06600648
51	0xbdda0065	-0.106446065
52	0xbbdcbdc5	-0.0067364895
53	0x3c0b5b6a	0.0085056815
54	0x3cfb4b46	0.030675542
55	0x3e6d261c	0.23159069
56	0xbd10918e	-0.03529506
57	0xbbb579bb	-0.005538193
58	0x3c642b5a	0.013926351
59	0xbdcfa27a	-0.10138412
60	0x3d358182	0.04431296
61	0xbd804f44	-0.06265119
62	0x3d426c33	0.047466468
63	0x3d320db8	0.043470114

sequential/conv2d/BiasAdd/ReadVariableOp f4 [32]
0	0xbd7f4e9c	-0.062330827
1	0xbcf35f61	-0.029708566
2	0xbd990b87	-0.07472902
3	0xbdc76b11	-0.09737218
4	0xbe0e3d77	-0.13890634
5	0xbd1900ad	-0.03735416
6	0x3dbd473b	0.09242102
7	0xbd1d768f	-0.038443144
8	0xbe2760bf	-0.163455
9	0xbda22a3e	-0.07918213
10	0xbdb51b2d	-0.08843074
11	0xbe1c6027	-0.15271054
12	0xbe3fa311	-0.18714549
13	0xbe69bbf5	-0.22825606
14	0xbd3515e4	-0.04421033
15	0xbd74b29d	-0.05974065
16	0xbdae8f2e	-0.08523403
17	0xbd3eb24f	-0.046556767
18	0xbe531eba	-0.2061719
19	0xbdaa0311	-0.08301366
20	0xbda69619	-0.081340976
21	0x3d6cdfad	0.0578305
22	0xbd8092f6	-0.062780306
23	0xbc8b8853	-0.017032778
24	0xbd309a7e	-0.043116085
25	0xbe9a10be	-0.30090898
26	0xbce17753	-0.027522719
27	0xbd7d7c12	-0.0618859
28	0xbd351246	-0.04420688
29	0xbe2c57de	-0.16830394
30	0xbe934c7d	-0.28769293
31	0xbdefc1e8	-0.117069066

sequential/conv2d_1/BiasAdd/ReadVariableOp f4 [64]
0	0xbddb38fe	-0.1070423
1	0xbe6d743b	-0.2318887
2	0xbde16f4e	-0.11007558
3	0xbd5ee245	-0.054415006
4	0xb9565dee	-0.00020443622
5	0xbe59ee5c	-0.21282333
6	0xbdeb1b30	-0.11479795
7	0xbc8e9dd3	-0.01740924
8	0x3d85dc5d	0.065361716
9	0x3d5234be	0.05131983
10	0xbdf90011	-0.12158216
11	0xbccbcc73	-0.024877762
12	0xbe1dd149	-0.15411867
13	0x3c82be60	0.015959918
14	0xbe215ecb	-0.15758817
15	0xbc0b590f	-0.00850512
16	0x3ea2f7ea	0.31829768
17	0x3e29f7fb	0.16598503
18	0xbe2afe87	-0.16698657
19	0xbd7b24fe	-0.061314575
20	0xbdec7f51	-0.11547721
21	0x3da9d8cb	0.08293303
22	0xbe125028	-0.1428839
23	0x3d56917c	0.05238484
24	0xbe364f18	-0.1780361
25	0xbe233d03	-0.15941243
26	0xbe260e0e	-0.16216299
27	0xbdfe2207	-0.12408834
28	0x3df18dbb	0.11794611
29	0x3e50b59a	0.20381775
30	0xbce5389f	-0.0279811
31	0xbe11060e	-0.14162466
32	0xbc9958a6	-0.018719029
33	0xbdd9053e	-0.10596703
34	0xbe48e9bf	-0.19620417
35	0xbd96c639	-0.07362027
36	0xbe35f523	-0.17769293
37	0xbd8820ec	-0.06646904
38	0xbdc81a42	-0.09770633
39	0xbe05c0a4	-0.13061768
40	0x3dfd75f7	0.12376016
41	0xbe316be8	-0.17326319
42	0xbe15d7f3	-0.1463316
43	0xbdba7400	-0.091041565
44	0x3e9e00ed	0.3086008
45	0xbdbfdb8b	-0.093680464
46	0xbe00fc1b	-0.1259617
47	0xbe45a08b	-0.19299524
48	0xbe054e57	-0.13018166
49	0xbe186115	-0.14880784
50	0xbe32973a	-0.17440501
51	0xbdae8704	-0.08521846
52	0xbdade7df	-0.084914915
53	0x3d6cd954	0.057824448
54	0xbe0a0384	-0.13477904
55	0xbd71536d	-0.05891745
56	0xbe55fd2b	-0.20897357
57	0xbe78b33d	-0.24287124
58	0xbd7ed16e	-0.062211446
59	0x3c6f49b8	0.014604978
60	0x3d50d70d	0.05098634
61	0xbdf09305	-0.11746792
62	0x3d856786	0.06513886
63	0xbda2d8da	-0.079515174

sequential/conv2d_2/BiasAdd/ReadVariableOp f4 [64]
0	0x3e0adfe5	0.13561971
1	0xbe86d3ed	-0.26333562
2	0xbb8c9257	-0.004289906
3	0xbd63229d	-0.05545293
4	0x3d1df73f	0.03856587
5	0xbdd02578	-0.101633966
6	0xbd3d28c8	-0.04618147
7	0xbcf66d3c	-0.030081384
8	0xbe1b51c0	-0.15167904
9	0x3d84f496	0.064919636
10	0xbe88e9d5	-0.267409
11	0xbd390356	-0.045169197
12	0x3e7e2253	0.24817781
13	0xbd0e6eb5	-0.034773547
14	0x3d6905b1	0.056890193
15	0xbe0bdbed	-0.13658114
16	0xbd1fb346	-0.038989328
17	0xbe1607e8	-0.14651453
18	0xbdd03efc	-0.10168263
19	0x38ecca46	0.00011291033
20	0xbe15301e	-0.14569137
21	0xbcf7d261	-0.030251684
22	0xbc125edb	-0.008933748
23	0x3de6165d	0.11234734
24	0xbe0c20dc	-0.1368441
25	0xbdb37a40	-0.08763552
26	0xbe3838f3	-0.17990474
27	0xbe560e3d	-0.20903869
28	0x3db50fba	0.0884089
29	0xbe0a491e	-0.13504454
30	0xbdd8b464	-0.10581282
31	0x3ea55a1a	0.32295305
32	0xbe369621	-0.17830707
33	0xbe294058	-0.16528451
34	0xbdc98044	-0.09838918
35	0xbb601629	-0.0034192896
36	0x3dd13d53	0.10216775
37	0xbe0d1631	-0.13777997
38	0xbd37671a	-0.04477606
39	0xbd66d8b2	-0.056359
40	0xbd42fc8f	-0.04760414
41	0xbd344bc3	-0.044017565
42	0xbd03aec5	-0.032149095
43	0xbcd447b4	-0.025913097
44	0xbdcec601	-0.1009636
45	0xbd9858ef	-0.07438838
46	0xbdb3dbcf	-0.087821595
47	0xbe10c98c	-0.14139384
48	0x3d90901b	0.07058736
49	0xbe1cb29e	-0.15302512
50	0xbda6c10e	-0.08142291
51	0xbce858a2	-0.028362576
52	0xbdefaee1	-0.117032774
53	0xbe69e674	-0.22841817
54	0xbde7f21b	-0.11325475
55	0xbe53f5a4	-0.20699173
56	0x3e5d0d3c	0.2158708
57	0xba624015	-0.0008630765
58	0xbd3c8834	-0.04602833
59	0xbd8f5a7f	-0.06999683
60	0xbdfadf0b	-0.12249573
61	0xbd86e122	-0.065859094
62	0xbd30d997	-0.04317626
63	0xbdb127fd	-0.08650205

sequential/conv2d/Conv2D f4 [32, 3, 3, 3]
0	0x3cbd469e	0.023104962
1	0xbe3fe1f9	-0.18738545
2	0xbe6da1a8	-0.23206198
3	0x3ce3e3c5	0.02781857
4	0xbe4d64f3	-0.2005804
5	0xbe154a20	-0.14579058
6	0x3ccd81c6	0.025086295
7	0x3cac166c	0.021006785
8	0xbdde930a	-0.10867889
9	0xbcd9b879	-0.026577221
10	0xbe54f76c	-0.20797509
11	0xbddb9bba	-0.10723062
12	0xbe125172	-0.14288881
13	0xbe7f0443	-0.2490397
14	0xbe1f8573	-0.1557825
15	0x3d544534	0.05182381
16	0xbe62e51f	-0.22157715
17	0xbe690ddb	-0.22759192
18	0xbd29045f	-0.041263934
19	0xbde7370c	-0.11289796
20	0xbceebd5b	-0.029143026
21	0xbd1fb1c2	-0.038987882
22	0x3d22bef0	0.039732873
23	0xbce5859b	-0.02801781
24	0xbe26954a	-0.16267887
25	0xbdefae61	-0.11703182
26	0xbe4cce9f	-0.20000695
27	0xbe10094a	-0.14066043
28	0x3dd4cf19	0.10391063
29	0xbcf6779c	-0.030086331
30	0xbce9be42	-0.028533105
31	0x3d3d4706	0.04621031
32	0xbe332920	-0.17496157
33	0xbe511c33	-0.20420913
34	0x3dc3c6c7	0.09559398
35	0xbcb02747	-0.021503104
36	0xbe12231c	-0.14271206
37	0xbd049406	-0.03236773
38	0xbd326fec	-0.04356377
39	0xbe175bb7	-0.1478108
40	0x3d4d5e4b	0.050138753
41	0xbdd10e52	-0.102078095
42	0xbe53cbf8	-0.20683277
43	0x3e318c0a	0.17338577
44	0xbdf6539c	-0.12027666
45	0xbd795499	-0.060871694
46	0x3de9382b	0.11387666
47	0x3aed434c	0.0018101721
48	0xbd8f9174	-0.07010165
49	0x3df0368c	0.11729154
50	0x3db9300d	0.09042368
51	0xbdb1401f	-0.08654808
52	0x3e26be36	0.16283497
53	0xbda31539	-0.07963032
54	0xbd8af322	-0.06784655
55	0x3d96f0e6	0.073701665
56	0xbdbc1acb	-0.09184798
57	0xbe22f5e2	-0.1591411
58	0xbdbc8fda	-0.09207125
59	0xbe8ddb98	-0.277066
60	0xbe2a003c	-0.16601652
61	0xbddd4dda	-0.10805865
62	0xbe1005f7	-0.14064775
63	0xbdc7298d	-0.09724722
64	0xbe268f9a	-0.16265717
65	0xbe125d7f	-0.14293478
66	0xbceb1244	-0.028695233
67	0xbdcc992d	-0.099901535
68	0xbe2eb9c0	-0.17063046
69	0xbd012c2f	-0.031536277
70	0x3e1dd3b0	0.15412784
71	0xbbe3f1f3	-0.006956333
72	0xbe073f39	-0.13207711
73	0xbe633397	-0.22187649
74	0xbe978993	-0.29597148
75	0xbadb2bc6	-0.001672142
76	0x3e03a081	0.12854196
77	0x3dfbaf2f	0.12289273
78	0xbe24a3cd	-0.1607811
79	0x3dbb4a66	0.0914505
80	0xbdff054f	-0.124521844
81	0x3ce26d7b	0.027640095
82	0xbe4e2b88	-0.20133793
83	0xbe10a111	-0.14123942
84	0x3d9d9da1	0.07696081
85	0x3e133cf5	0.14378722
86	0x3acd71ab	0.0015674134
87	0xbe1f5b84	-0.15562254
88	0x3d511794	0.051047876
89	0xbd748b92	-0.059703417
90	0xbe0bcea8	-0.13653052
91	0xbe854493	-0.2602888
92	0xbe3ba41c	-0.18324322
93	0xbe1f1494	-0.15535194
94	0xbddc45b1	-0.1075548
95	0xbd7c7151	-0.061631504
96	0x3da7607f	0.08172702
97	0x3d93853c	0.07203147
98	0x3e0bbf32	0.13647154
99	0xbe73357c	-0.23750871
100	0xbe0e7d16	-0.13914904
101	0x3d8abd99	0.06774444
102	0xbe81710c	-0.2528156
103	0xbe94fa5c	-0.2909726
104	0xbe152d24	-0.14568001
105	0xbe039bcb	-0.12852399
106	0xbcf1e664	-0.029528804
107	0x3da2e04e	0.07952939
108	0xbdca3de0	-0.09875083
109	0xbe0008b3	-0.12503318
110	0xbe95b8f6	-0.29242676
111	0xbe812711	-0.25225118
112	0xbe3ffc9f	-0.18748711
113	0xbeb4a439	-0.35281542
114	0xbe06bd57	-0.13158165
115	0xbe321b29	-0.17393173
116	0xbdfc8826	-0.12330656
117	0xbda260b7	-0.07928603
118	0xbdb74666	-0.08948974
119	0xbebae42c	-0.36502206
120	0x3dab886b	0.08375629
121	0x3ddb7cba	0.10717149
122	0xbe495d13	-0.19664411
123	0x3d55b399	0.05217323
124	0x3dec8eba	0.115506604
125	0xbe07f92f	-0.1327865
126	0x3e20774c	0.15670508
127	0x3e5c4841	0.21511938
128	0x3db40d7b	0.08791634
129	0x3e1d6cd7	0.1537355
130	0x3e2b682f	0.16738962
131	0xbd9dc265	-0.077030934
132	0x3d964555	0.07337443
133	0xbd6fc6b7	-0.05853912
134	0xbe23ce6c	-0.15996712
135	0xbe3769f6	-0.17911515
136	0xbe5ab0a3	-0.21356444
137	0xbeba4f42	-0.36388594
138	0x3dbd138b	0.09232243
139	0xbd22c60a	-0.039739646
140	0xbe987d56	-0.29783124
141	0xbcff7701	-0.031184675
142	0xbe1b39db	-0.15158789
143	0xbe4470f7	-0.19183718
144	0x3de0f21c	0.10983679
145	0x3da7040f	0.08155071
146	0xbd7ab366	-0.061206244
147	0x3bd30be9	0.006440629
148	0xbd2b6b1a	-0.041850187
149	0xbe7e33bf	-0.24824427
150	0x3d8ebd79	0.06969733
151	0x3d06083e	0.032722704
152	0xbe4db7c8	-0.20089638
153	0x3e65a512	0.2242625
154	0x3e1667f1	0.14688088
155	0x3d8adc7e	0.06780337
156	0x3e1d050f	0.15333961
157	0xbc9024fc	-0.01759576
158	0xbe28aec3	-0.16472916
159	0xbe158736	-0.1460236
160	0xbe77969b	-0.24178545
161	0xbee1faf3	-0.44136772
162	0x3e1f8074	0.15576345
163	0xbd8db940	-0.06920099
164	0xbe2def69	-0.16985859
165	0x3e071068	0.13189852
166	0xbd71df90	-0.059051096
167	0xbd58ecf6	-0.05296036
168	0x3e1e40bb	0.1545438
169	0xbe9e6ccc	-0.3094238
170	0xbea7061f	-0.32621858
171	0x3e3c4bfe	0.18388364
172	0xbdee75ab	-0.11643537
173	0x3da5ff46	0.0810533
174	0xbd5445c4	-0.051824346
175	0xbe20ed8f	-0.15715621
176	0xbe3b200c	-0.18273944
177	0x3df0fd0a	0.11767013
178	0xbe813f1a	-0.25243455
179	0xbda70871	-0.08155907
180	0x3d59ae1d	0.053144563
181	0xbc901da3	-0.017592257
182	0xbd94c4ca	-0.07264097
183	0x3b017ed0	0.0019759424
184	0xbe952199	-0.29127195
185	0xbe4ccca5	-0.1999994
186	0x3e3fd925	0.18735178
187	0x3d13d49d	0.036091436
188	0xbd747980	-0.059686184
189	0xbe7824cc	-0.24232787
190	0xbe15401f	-0.14575242
191	0xbdc1482a	-0.09437592
192	0xbe6e778a	-0.23287788
193	0x3dfc01e7	0.1230505
194	0xbe276a3b	-0.16349117
195	0xbe342e4d	-0.17595787
196	0x3da34517	0.07972162
197	0xbe570776	-0.2099894
198	0xbd397ad7	-0.045283165
199	0x3d2160f5	0.039399106
200	0xbeb09613	-0.34489498
201	0xbe3d031b	-0.18458216
202	0x3dd80623	0.105480455
203	0xbdd322b6	-0.10309355
204	0xbe1104a0	-0.1416192
205	0x3d8c9676	0.06864636
206	0xbe890c29	-0.2676709
207	0x3d8f512e	0.06997906
208	0x3e637765	0.22213514
209	0x3e2de136	0.16980442
210	0x3d96a1e5	0.07355098
211	0x3d0cc953	0.034371685
212	0xbe00105b	-0.12506239
213	0x3d174b77	0.036937203
214	0x3e37e6eb	0.17959182
215	0xbca52a76	-0.020161849
216	0x3e35574e	0.17709085
217	0x3a8210e3	0.0009923246
218	0xbe9ed9f8	-0.31025672
219	0x3de05125	0.10952977
220	0xba96a469	-0.001149309
221	0xbeb1a9f5	-0.3469998
222	0x3e1ec96d	0.15506525
223	0xbd668104	-0.056275383
224	0xbe8f3529	-0.27970245
225	0x3e066646	0.13124952
226	0x3e5b35ec	0.21407288
227	0xbe1863b4	-0.14881784
228	0xbd165aff	-0.036707874
229	0x3e3a12bd	0.1817121
230	0xbe7bd8c5	-0.2459441
231	0xbb1c782b	-0.0023875337
232	0x3e1d9234	0.15387803
233	0xbd853787	-0.065047316
234	0x3e49adee	0.19695255
235	0x3d8e7f5d	0.06957886
236	0xbe39f362	-0.1815925
237	0x3e3b9148	0.18317139
238	0xbd806c3a	-0.062706426
239	0xbea2aee4	-0.31774056
240	0x3e0f7373	0.14008884
241	0x3d13d10e	0.036088042
242	0xbe2855e2	-0.16439012
243	0xbd60c600	-0.054876328
244	0x3d3991a8	0.045304924
245	0x3d87a6b3	0.06623592
246	0xbe27127c	-0.16315645
247	0x3d45b108	0.048264533
248	0xbdeeb001	-0.11654664
249	0x3cab1c23	0.02088744
250	0xbd3aa0f9	-0.04556367
251	0xbe46fb2b	-0.1943175
252	0xbe12f023	-0.14349417
253	0xbe26005e	-0.16211078
254	0xbea79add	-0.3273534
255	0x3d181eea	0.037138857

sequential/conv2d_1/Conv2D i1 [64, 3, 3, 32]
0	0xce	-50
1	0xdc	-36
2	0xe4	-28
3	0xbe	-66
4	0xca	-54
5	0xed	-19
6	0xe4	-28
7	0x0a	10
8	0xd6	-42
9	0xeb	-21
10	0xc4	-60
11	0xea	-22
12	0xf8	-8
13	0xf9	-7
14	0xf1	-15
15	0xea	-22
16	0xfa	-6
17	0xc8	-56
18	0xd9	-39
19	0xd3	-45
20	0xef	-17
21	0x01	1
22	0xe2	-30
23	0xc1	-63
24	0x04	4
25	0xb4	-76
26	0x02	2
27	0xe6	-26
28	0xd5	-43
29	0xcf	-49
30	0xbd	-67
31	0xea	-22
32	0xd2	-46
33	0xd6	-42
34	0xca	-54
35	0xe0	-32
36	0xca	-54
37	0xd9	-39
38	0x12	18
39	0x09	9
40	0xf8	-8
41	0xf9	-7
42	0xb5	-75
43	0xf1	-15
44	0xd3	-45
45	0xf9	-7
46	0x3a	58
47	0xf0	-16
48	0x13	19
49	0x05	5
50	0xca	-54
51	0x18	24
52	0xf1	-15
53	0x1d	29
54	0xeb	-21
55	0xb0	-80
56	0xf8	-8
57	0xc1	-63
58	0xca	-54
59	0x02	2
60	0xd4	-44
61	0xe7	-25
62	0xc9	-55
63	0x1b	27
64	0xf1	-15
65	0xc3	-61
66	0x09	9
67	0x23	35
68	0x1c	28
69	0xdb	-37
70	0x0a	10
71	0x24	36
72	0xea	-22
73	0xf3	-13
74	0xeb	-21
75	0xf5	-11
76	0xea	-22
77	0xf9	-7
78	0x4b	75
79	0xf7	-9
80	0xed	-19
81	0xe9	-23
82	0x18	24
83	0x01	1
84	0xed	-19
85	0x33	51
86	0xfa	-6
87	0xc3	-61
88	0x04	4
89	0xc7	-57
90	0xcd	-51
91	0xcf	-49
92	0x15	21
93	0xf3	-13
94	0xcb	-53
95	0x13	19
96	0xed	-19
97	0x09	9
98	0xf7	-9
99	0xd2	-46
100	0x0e	14
101	0xea	-22
102	0x2f	47
103	0x10	16
104	0x02	2
105	0xca	-54
106	0xe0	-32
107	0x0b	11
108	0xdb	-37
109	0xe5	-27
110	0x4a	74
111	0xfb	-5
112	0xe4	-28
113	0xf6	-10
114	0x01	1
115	0xb4	-76
116	0xed	-19
117	0x2c	44
118	0xfc	-4
119	0xc0	-64
120	0x19	25
121	0xbf	-65
122	0xf2	-14
123	0xdd	-35
124	0x07	7
125	0xdd	-35
126	0xd5	-43
127	0x1c	28
128	0xd4	-44
129	0x37	55
130	0x23	35
131	0xc8	-56
132	0x4b	75
133	0xf2	-14
134	0x1e	30
135	0x35	53
136	0x15	21
137	0xfa	-6
138	0xd7	-41
139	0x0f	15
140	0xda	-38
141	0x0c	12
142	0x61	97
143	0xcf	-49
144	0xe0	-32
145	0x06	6
146	0x2b	43
147	0xca	-54
148	0xef	-17
149	0x1a	26
150	0xf8	-8
151	0xdb	-37
152	0x21	33
153	0xe0	-32
154	0x25	37
155	0x03	3
156	0x15	21
157	0xf6	-10
158	0x04	4
159	0x2d	45
160	0xe7	-25
161	0x0c	12
162	0x29	41
163	0x07	7
164	0x48	72
165	0x22	34
166	0xfe	-2
167	0x2f	47
168	0x24	36
169	0x09	9
170	0xfb	-5
171	0x08	8
172	0xf6	-10
173	0x0c	12
174	0x49	73
175	0xf8	-8
176	0x03	3
177	0x0f	15
178	0xf1	-15
179	0xf9	-7
180	0xf0	-16
181	0xf5	-11
182	0xf7	-9
183	0xf4	-12
184	0x00	0
185	0xf4	-12
186	0x04	4
187	0xcc	-52
188	0x2f	47
189	0xfe	-2
190	0x0e	14
191	0xf5	-11
192	0xe1	-31
193	0xf8	-8
194	0x15	21
195	0xa8	-88
196	0x41	65
197	0xf9	-7
198	0xf3	-13
199	0x25	37
200	0x1f	31
201	0xff	-1
202	0xd1	-47
203	0x17	23
204	0x00	0
205	0x0b	11
206	0x6b	107
207	0xd3	-45
208	0x0a	10
209	0xe0	-32
210	0x36	54
211	0xb6	-74
212	0xf4	-12
213	0xed	-19
214	0xf5	-11
215	0xde	-34
216	0x22	34
217	0xf6	-10
218	0xbf	-65
219	0xf3	-13
220	0x1b	27
221	0x0f	15
222	0x21	33
223	0x31	49
224	0xda	-38
225	0xf6	-10
226	0x1d	29
227	0xb6	-74
228	0x24	36
229	0x11	17
230	0x1a	26
231	0x18	24
232	0x13	19
233	0x01	1
234	0xf1	-15
235	0x0c	12
236	0xd9	-39
237	0x1c	28
238	0x09	9
239	0xf6	-10
240	0xf4	-12
241	0xdc	-36
242	0x1d	29
243	0x81	-127
244	0x07	7
245	0xdf	-33
246	0xff	-1
247	0xe9	-23
248	0x23	35
249	0x17	23
250	0xc4	-60
251	0xeb	-21
252	0xf3	-13
253	0xe6	-26
254	0x16	22
255	0x0d	13

sequential/conv2d_2/Conv2D i1 [64, 3, 3, 64]
0	0x1e	30
1	0x1d	29
2	0x1b	27
3	0x2d	45
4	0xf7	-9
5	0xfa	-6
6	0x11	17
7	0x22	34
8	0x24	36
9	0xfb	-5
10	0xfc	-4
11	0x12	18
12	0x2f	47
13	0x22	34
14	0x17	23
15	0x03	3
16	0x11	17
17	0x07	7
18	0x3d	61
19	0x11	17
20	0x0f	15
21	0xe4	-28
22	0x23	35
23	0xec	-20
24	0x1a	26
25	0xfc	-4
26	0xf3	-13
27	0xfc	-4
28	0x30	48
29	0x1b	27
30	0x0b	11
31	0x0c	12
32	0x04	4
33	0x2b	43
34	0x1b	27
35	0x14	20
36	0x1f	31
37	0xe8	-24
38	0x1c	28
39	0x02	2
40	0xf9	-7
41	0xef	-17
42	0x20	32
43	0x14	20
44	0x0b	11
45	0x08	8
46	0x01	1
47	0xf4	-12
48	0x26	38
49	0x08	8
50	0x14	20
51	0xe9	-23
52	0xf6	-10
53	0xf1	-15
54	0x0b	11
55	0x2a	42
56	0x2b	43
57	0x04	4
58	0xf5	-11
59	0x35	53
60	0x78	120
61	0xfe	-2
62	0x1f	31
63	0x1a	26
64	0x0a	10
65	0xed	-19
66	0x07	7
67	0x0d	13
68	0x06	6
69	0xe5	-27
70	0x1b	27
71	0x1e	30
72	0x1d	29
73	0x08	8
74	0xea	-22
75	0xfc	-4
76	0x0e	14
77	0x18	24
78	0xe7	-25
79	0xf6	-10
80	0x1d	29
81	0x17	23
82	0x06	6
83	0xf7	-9
84	0xea	-22
85	0xfa	-6
86	0xec	-20
87	0xf9	-7
88	0x25	37
89	0xf5	-11
90	0xfb	-5
91	0xed	-19
92	0x1e	30
93	0x1c	28
94	0x00	0
95	0x16	22
96	0xf9	-7
97	0x18	24
98	0xed	-19
99	0x32	50
100	0x0a	10
101	0xfa	-6
102	0x17	23
103	0x07	7
104	0x16	22
105	0xe7	-25
106	0xf5	-11
107	0xea	-22
108	0x25	37
109	0xf1	-15
110	0x05	5
111	0xda	-38
112	0x08	8
113	0xfe	-2
114	0x01	1
115	0xe2	-30
116	0xe7	-25
117	0x07	7
118	0xec	-20
119	0x04	4
120	0x00	0
121	0xf2	-14
122	0x03	3
123	0x08	8
124	0x52	82
125	0xfc	-4
126	0x27	39
127	0x10	16
128	0x13	19
129	0xcd	-51
130	0xc5	-59
131	0xe1	-31
132	0xfc	-4
133	0xd6	-42
134	0xfe	-2
135	0x06	6
136	0x06	6
137	0x09	9
138	0xde	-34
139	0xef	-17
140	0xd4	-44
141	0xf5	-11
142	0xb8	-72
143	0xee	-18
144	0x41	65
145	0xf4	-12
146	0xd0	-48
147	0xda	-38
148	0xf7	-9
149	0x03	3
150	0xb3	-77
151	0x12	18
152	0x02	2
153	0xf8	-8
154	0xd5	-43
155	0xbc	-68
156	0x09	9
157	0xf6	-10
158	0xe9	-23
159	0xde	-34
160	0xf5	-11
161	0xdf	-33
162	0xb6	-74
163	0xf9	-7
164	0xef	-17
165	0xdb	-37
166	0xe9	-23
167	0x07	7
168	0x15	21
169	0xf2	-14
170	0xca	-54
171	0x9d	-99
172	0x30	48
173	0xc3	-61
174	0xe9	-23
175	0xd1	-47
176	0x00	0
177	0x00	0
178	0xe6	-26
179	0x00	0
180	0xec	-20
181	0x0e	14
182	0xd5	-43
183	0xec	-20
184	0xca	-54
185	0xd5	-43
186	0xe6	-26
187	0xe8	-24
188	0x0a	10
189	0xeb	-21
190	0x2b	43
191	0xfe	-2
192	0xfc	-4
193	0x1a	26
194	0xe8	-24
195	0x1b	27
196	0xfa	-6
197	0x0c	12
198	0x1c	28
199	0x13	19
200	0x25	37
201	0x04	4
202	0xed	-19
203	0xfd	-3
204	0x13	19
205	0x16	22
206	0xf6	-10
207	0x2a	42
208	0x23	35
209	0x1c	28
210	0x19	25
211	0xfb	-5
212	0x14	20
213	0xee	-18
214	0x06	6
215	0xf7	-9
216	0x0d	13
217	0xfe	-2
218	0x01	1
219	0xd0	-48
220	0x26	38
221	0x1f	31
222	0x12	18
223	0x04	4
224	0xfd	-3
225	0x09	9
226	0x07	7
227	0x01	1
228	0x16	22
229	0xd7	-41
230	0xff	-1
231	0xf9	-7
232	0xfe	-2
233	0x04	4
234	0x22	34
235	0xdd	-35
236	0x02	2
237	0x06	6
238	0xff	-1
239	0x0b	11
240	0x0b	11
241	0xef	-17
242	0xf8	-8
243	0xf3	-13
244	0x09	9
245	0x0f	15
246	0x0b	11
247	0x0f	15
248	0x1e	30
249	0x05	5
250	0x04	4
251	0x25	37
252	0x56	86
253	0x0e	14
254	0x24	36
255	0x1f	31

sequential/dense/MatMul i1 [64, 6400] scale=0.0056006843 zero_point=0
0	0xff	-0.0056006843
1	0x04	0.022402737
2	0xfb	-0.02800342
3	0x02	0.011201369
4	0x03	0.016802054
5	0x02	0.011201369
6	0xfc	-0.022402737
7	0x01	0.0056006843
8	0x03	0.016802054
9	0x02	0.011201369
10	0xfd	-0.016802054
11	0x03	0.016802054
12	0xfe	-0.011201369
13	0x06	0.033604108
14	0xff	-0.0056006843
15	0xfe	-0.011201369
16	0xfd	-0.016802054
17	0x01	0.0056006843
18	0x03	0.016802054
19	0x02	0.011201369
20	0xfa	-0.033604108
21	0x00	0.0
22	0xfa	-0.033604108
23	0x00	0.0
24	0x03	0.016802054
25	0xfb	-0.02800342
26	0x01	0.0056006843
27	0xfa	-0.033604108
28	0x03	0.016802054
29	0x00	0.0
30	0x01	0.0056006843
31	0x02	0.011201369
32	0x01	0.0056006843
33	0xfd	-0.016802054
34	0x03	0.016802054
35	0x03	0.016802054
36	0x01	0.0056006843
37	0xfb	-0.02800342
38	0xfe	-0.011201369
39	0xff	-0.0056006843
40	0xfe	-0.011201369
41	0xfd	-0.016802054
42	0xfb	-0.02800342
43	0xfb	-0.02800342
44	0x04	0.022402737
45	0x02	0.011201369
46	0x01	0.0056006843
47	0xfc	-0.022402737
48	0xfe	-0.011201369
49	0xff	-0.0056006843
50	0xff	-0.0056006843
51	0x01	0.0056006843
52	0x03	0.016802054
53	0xfd	-0.016802054
54	0xfd	-0.016802054
55	0x01	0.0056006843
56	0xff	-0.0056006843
57	0xfe	-0.011201369
58	0xfa	-0.033604108
59	0xfc	-0.022402737
60	0x04	0.022402737
61	0x04	0.022402737
62	0xfe	-0.011201369
63	0x03	0.016802054
64	0x02	0.011201369
65	0x04	0.022402737
66	0xff	-0.0056006843
67	0x03	0.016802054
68	0xfb	-0.02800342
69	0x04	0.022402737
70	0x04	0.022402737
71	0xfa	-0.033604108
72	0xfd	-0.016802054
73	0x03	0.016802054
74	0xfc	-0.022402737
75	0x03	0.016802054
76	0xff	-0.0056006843
77	0x00	0.0
78	0xfc	-0.022402737
79	0x00	0.0
80	0xfd	-0.016802054
81	0xfa	-0.033604108
82	0xff	-0.0056006843
83	0xfd	-0.016802054
84	0x03	0.016802054
85	0xfb	-0.02800342
86	0x03	0.016802054
87	0x02	0.011201369
88	0x03	0.016802054
89	0x04	0.022402737
90	0xff	-0.0056006843
91	0xfe	-0.011201369
92	0xff	-0.0056006843
93	0xfd	-0.016802054
94	0xfc	-0.022402737
95	0x04	0.022402737
96	0xfd	-0.016802054
97	0xfc	-0.022402737
98	0x04	0.022402737
99	0xfa	-0.033604108
100	0xff	-0.0056006843
101	0xfc	-0.022402737
102	0xfe	-0.011201369
103	0xfe	-0.011201369
104	0x01	0.0056006843
105	0x02	0.011201369
106	0x03	0.016802054
107	0x05	0.02800342
108	0x00	0.0
109	0x05	0.02800342
110	0xfc	-0.022402737
111	0x04	0.022402737
112	0xfe	-0.011201369
113	0xff	-0.0056006843
114	0x01	0.0056006843
115	0x01	0.0056006843
116	0x03	0.016802054
117	0xfd	-0.016802054
118	0x02	0.011201369
119	0xfd	-0.016802054
120	0xfb	-0.02800342
121	0xfe	-0.011201369
122	0xfb	-0.02800342
123	0x04	0.022402737
124	0xff	-0.0056006843
125	0x03	0.016802054
126	0x01	0.0056006843
127	0x00	0.0
128	0x04	0.022402737
129	0xfa	-0.033604108
130	0xfd	-0.016802054
131	0x02	0.011201369
132	0x00	0.0
133	0xfe	-0.011201369
134	0x05	0.02800342
135	0xfb	-0.02800342
136	0xfe	-0.011201369
137	0x02	0.011201369
138	0xff	-0.0056006843
139	0x03	0.016802054
140	0x01	0.0056006843
141	0x02	0.011201369
142	0x01	0.0056006843
143	0xfe	-0.011201369
144	0xfc	-0.022402737
145	0xfe	-0.011201369
146	0xfd	-0.016802054
147	0xfc	-0.022402737
148	0x03	0.016802054
149	0x00	0.0
150	0xfc	-0.022402737
151	0xfe	-0.011201369
152	0x02	0.011201369
153	0xfc	-0.022402737
154	0xfc	-0.022402737
155	0xfd	-0.016802054
156	0xfa	-0.033604108
157	0x04	0.022402737
158	0x03	0.016802054
159	0x01	0.0056006843
160	0xfb	-0.02800342
161	0xfe	-0.011201369
162	0xfb	-0.02800342
163	0xff	-0.0056006843
164	0xff	-0.0056006843
165	0x01	0.0056006843
166	0x01	0.0056006843
167	0x00	0.0
168	0xfd	-0.016802054
169	0xfb	-0.02800342
170	0x03	0.016802054
171	0xfd	-0.016802054
172	0xfd	-0.016802054
173	0x03	0.016802054
174	0x01	0.0056006843
175	0x02	0.011201369
176	0xfc	-0.022402737
177	0x01	0.0056006843
178	0xff	-0.0056006843
179	0x04	0.022402737
180	0x03	0.016802054
181	0x02	0.011201369
182	0x04	0.022402737
183	0x00	0.0
184	0x00	0.0
185	0xfe	-0.011201369
186	0xfe	-0.011201369
187	0x04	0.022402737
188	0x02	0.011201369
189	0xfd	-0.016802054
190	0xff	-0.0056006843
191	0xfc	-0.022402737
192	0xfa	-0.033604108
193	0x00	0.0
194	0xfb	-0.02800342
195	0x03	0.016802054
196	0x04	0.022402737
197	0xfc	-0.022402737
198	0xff	-0.0056006843
199	0x02	0.011201369
200	0x02	0.011201369
201	0x04	0.022402737
202	0x00	0.0
203	0xfd	-0.016802054
204	0xfe	-0.011201369
205	0x01	0.0056006843
206	0x00	0.0
207	0xfb	-0.02800342
208	0xfc	-0.022402737
209	0xfe	-0.011201369
210	0x01	0.0056006843
211	0x04	0.022402737
212	0x03	0.016802054
213	0x01	0.0056006843
214	0x03	0.016802054
215	0x00	0.0
216	0xff	-0.0056006843
217	0x04	0.022402737
218	0x01	0.0056006843
219	0xfd	-0.016802054
220	0x00	0.0
221	0x00	0.0
222	0xfa	-0.033604108
223	0xfe	-0.011201369
224	0x02	0.011201369
225	0x03	0.016802054
226	0x03	0.016802054
227	0xfe	-0.011201369
228	0xfc	-0.022402737
229	0x01	0.0056006843
230	0xfb	-0.02800342
231	0xfe	-0.011201369
232	0x04	0.022402737
233	0xff	-0.0056006843
234	0xfd	-0.016802054
235	0xfd	-0.016802054
236	0xfb	-0.02800342
237	0xfc	-0.022402737
238	0x00	0.0
239	0xfc	-0.022402737
240	0x03	0.016802054
241	0xfa	-0.033604108
242	0x03	0.016802054
243	0x01	0.0056006843
244	0xfc	-0.022402737
245	0x04	0.022402737
246	0xfc	-0.022402737
247	0x01	0.0056006843
248	0x04	0.022402737
249	0xfa	-0.033604108
250	0xff	-0.0056006843
251	0xfc	-0.022402737
252	0x04	0.022402737
253	0x05	0.02800342
254	0xfb	-0.02800342
255	0xfc	-0.022402737

sequential/dense_1/MatMul i1 [39, 64] scale=0.004796018 zero_point=0
0	0x23	0.16786063
1	0x1e	0.14388053
2	0xde	-0.16306461
3	0x0d	0.06234823
4	0x2c	0.21102479
5	0x00	0.0
6	0xf8	-0.038368143
7	0xc2	-0.29735312
8	0xf6	-0.047960177
9	0x20	0.15347257
10	0x24	0.17265664
11	0xc3	-0.2925571
12	0x1b	0.12949248
13	0xf7	-0.04316416
14	0xd8	-0.19184071
15	0xf3	-0.06234823
16	0x04	0.019184072
17	0x48	0.34531328
18	0xd6	-0.20143275
19	0x23	0.16786063
20	0xda	-0.18224868
21	0xf8	-0.038368143
22	0xd2	-0.22061682
23	0xf3	-0.06234823
24	0xe2	-0.14388053
25	0xa8	-0.42204958
26	0x19	0.11990045
27	0xcb	-0.25418895
28	0x00	0.0
29	0xde	-0.16306461
30	0x18	0.11510443
31	0x12	0.08632832
32	0x19	0.11990045
33	0xd5	-0.20622876
34	0xe2	-0.14388053
35	0xe4	-0.1342885
36	0x01	0.004796018
37	0xce	-0.2398009
38	0xd0	-0.23020886
39	0xd7	-0.19663674
40	0xe5	-0.12949248
41	0x12	0.08632832
42	0xe0	-0.15347257
43	0xe6	-0.12469646
44	0xde	-0.16306461
45	0x27	0.1870447
46	0xdb	-0.17745267
47	0x15	0.100716375
48	0x18	0.11510443
49	0x2d	0.2158208
50	0xe7	-0.11990045
51	0x21	0.15826859
52	0x21	0.15826859
53	0xee	-0.08632832
54	0xcd	-0.24459691
55	0x0f	0.071940266
56	0xdd	-0.16786063
57	0x2d	0.2158208
58	0xf2	-0.06714425
59	0xc5	-0.28296506
60	0xef	-0.08153231
61	0xf6	-0.047960177
62	0x04	0.019184072
63	0x2a	0.20143275
64	0xe7	-0.11990045
65	0x38	0.268577
66	0xff	-0.004796018
67	0xe7	-0.11990045
68	0xd5	-0.20622876
69	0x2d	0.2158208
70	0x0c	0.057552215
71	0x07	0.033572126
72	0xc3	-0.2925571
73	0xf6	-0.047960177
74	0x0c	0.057552215
75	0x26	0.18224868
76	0x0e	0.06714425
77	0xf3	-0.06234823
78	0x05	0.023980089
79	0x25	0.17745267
80	0x07	0.033572126
81	0x04	0.019184072
82	0xd7	-0.19663674
83	0xf1	-0.071940266
84	0x14	0.095920354
85	0xde	-0.16306461
86	0xba	-0.33572125
87	0x1c	0.1342885
88	0xdf	-0.15826859
89	0x37	0.26378098
90	0x1a	0.12469646
91	0x12	0.08632832
92	0x61	0.46521375
93	0xfc	-0.019184072
94	0xf0	-0.07673629
95	0x12	0.08632832
96	0xd5	-0.20622876
97	0xe7	-0.11990045
98	0x0f	0.071940266
99	0xde	-0.16306461
100	0x06	0.028776107
101	0x16	0.105512396
102	0x00	0.0
103	0x0d	0.06234823
104	0xfe	-0.009592036
105	0xe6	-0.12469646
106	0x14	0.095920354
107	0x3d	0.2925571
108	0xe7	-0.11990045
109	0xe2	-0.14388053
110	0x27	0.1870447
111	0xe3	-0.13908452
112	0x1a	0.12469646
113	0xdd	-0.16786063
114	0xf0	-0.07673629
115	0x0e	0.06714425
116	0xf1	-0.071940266
117	0x3c	0.28776106
118	0xe7	-0.11990045
119	0x26	0.18224868
120	0xc6	-0.27816904
121	0x30	0.23020886
122	0x97	-0.5035819
123	0xb8	-0.34531328
124	0xe1	-0.14867656
125	0x13	0.09112434
126	0xe3	-0.13908452
127	0xfb	-0.023980089
128	0xeb	-0.100716375
129	0xd4	-0.21102479
130	0x10	0.07673629
131	0xfc	-0.019184072
132	0x06	0.028776107
133	0x0f	0.071940266
134	0xd7	-0.19663674
135	0xf1	-0.071940266
136	0xea	-0.105512396
137	0x26	0.18224868
138	0x36	0.25898495
139	0xe1	-0.14867656
140	0x09	0.04316416
141	0x4f	0.37888542
142	0x0b	0.052756198
143	0x29	0.19663674
144	0xde	-0.16306461
145	0xc7	-0.273373
146	0xdb	-0.17745267
147	0xd7	-0.19663674
148	0x08	0.038368143
149	0x2f	0.22541285
150	0xb9	-0.34051728
151	0x14	0.095920354
152	0xd0	-0.23020886
153	0xae	-0.39327347
154	0xc4	-0.28776106
155	0xe8	-0.11510443
156	0xf6	-0.047960177
157	0x0a	0.047960177
158	0x06	0.028776107
159	0x16	0.105512396
160	0x22	0.16306461
161	0xfb	-0.023980089
162	0x44	0.32612923
163	0xcf	-0.23500487
164	0xbc	-0.32612923
165	0xee	-0.08632832
166	0xca	-0.25898495
167	0xfb	-0.023980089
168	0xe0	-0.15347257
169	0xda	-0.18224868
170	0xe4	-0.1342885
171	0x3a	0.27816904
172	0x1a	0.12469646
173	0xde	-0.16306461
174	0xf4	-0.057552215
175	0x02	0.009592036
176	0xe1	-0.14867656
177	0x27	0.1870447
178	0xc7	-0.273373
179	0x15	0.100716375
180	0xe4	-0.1342885
181	0x1d	0.13908452
182	0xbb	-0.33092523
183	0x17	0.11030841
184	0xfe	-0.009592036
185	0x23	0.16786063
186	0xb7	-0.3501093
187	0xf6	-0.047960177
188	0xd0	-0.23020886
189	0xcb	-0.25418895
190	0x08	0.038368143
191	0xda	-0.18224868
192	0xde	-0.16306461
193	0xee	-0.08632832
194	0xe2	-0.14388053
195	0x29	0.19663674
196	0xd9	-0.1870447
197	0x1a	0.12469646
198	0xc1	-0.30214912
199	0xe5	-0.12949248
200	0xd7	-0.19663674
201	0xd3	-0.2158208
202	0x44	0.32612923
203	0xe2	-0.14388053
204	0xb7	-0.3501093
205	0xbd	-0.3213332
206	0xd0	-0.23020886
207	0x1e	0.14388053
208	0xdd	-0.16786063
209	0xe5	-0.12949248
210	0x30	0.23020886
211	0xc6	-0.27816904
212	0xff	-0.004796018
213	0x29	0.19663674
214	0xf0	-0.07673629
215	0x0e	0.06714425
216	0x25	0.17745267
217	0xea	-0.105512396
218	0x01	0.004796018
219	0x21	0.15826859
220	0xfb	-0.023980089
221	0xff	-0.004796018
222	0x02	0.009592036
223	0xe0	-0.15347257
224	0xf3	-0.06234823
225	0x0a	0.047960177
226	0x20	0.15347257
227	0x18	0.11510443
228	0xd7	-0.19663674
229	0xa4	-0.44123363
230	0x03	0.014388054
231	0x28	0.19184071
232	0xcc	-0.24939293
233	0xc2	-0.29735312
234	0xcb	-0.25418895
235	0x32	0.2398009
236	0xe1	-0.14867656
237	0x0c	0.057552215
238	0x5e	0.4508257
239	0x20	0.15347257
240	0xed	-0.09112434
241	0xe3	-0.13908452
242	0x09	0.04316416
243	0xf3	-0.06234823
244	0xf6	-0.047960177
245	0x18	0.11510443
246	0x9a	-0.48919383
247	0x3d	0.2925571
248	0x09	0.04316416
249	0x07	0.033572126
250	0xed	-0.09112434
251	0xe4	-0.1342885
252	0x13	0.09112434
253	0xfd	-0.014388054
254	0xd6	-0.20143275
255	0xed	-0.09112434
