saved_model_icons/Druid/model.tflite (tflite, 476776 bytes, 10 tensors)

sequential/dense_1/BiasAdd/ReadVariableOp f4 [31]
0	0x3d1d4a11	0.038400713
1	0xbbed1bd3	-0.007235983
2	0x3b02362f	0.0019868722
3	0xbe3c155b	-0.18367521
4	0x3df89ea2	0.12139632
5	0x3d42e40d	0.047580767
6	0xbca330c3	-0.019920712
7	0xbce4c133	-0.027924156
8	0xbc954a24	-0.01822383
9	0xbdd0653a	-0.101755574
10	0xbe0e87bc	-0.13918966
11	0x3dcc10ce	0.09964143
12	0x3ddb7c3a	0.10717054
13	0xba59d372	-0.0008309401
14	0xbd42aafe	-0.047526352
15	0xbbcb043e	-0.006195574
16	0xbdade591	-0.08491052
17	0x3de84f67	0.1134327
18	0xbce51038	-0.027961835
19	0x3d1a243c	0.037632212
20	0xbdeb7223	-0.11496379
21	0x3ddeb6d7	0.10874718
22	0x3e00e942	0.12588981
23	0xbdfef9db	-0.1245
24	0xbd02e0c2	-0.031952627
25	0xbcf3731b	-0.029717973
26	0xbc7b10a9	-0.015323796
27	0x3dc20d36	0.09475176
28	0x3c0168aa	0.007898489
29	0x3db37cab	0.08764013
30	0xbd00cdb1	-0.031446163

sequential/dense/BiasAdd/ReadVariableOp f4 [64]
0	0xbbc4c359	-0.0060047326
1	0xbd5234a2	-0.051319726
2	0xbccf7fbd	-0.025329465
3	0xbb289af7	-0.0025727132
4	0xbcbec9f0	-0.02328965
5	0xbd345a6d	-0.04403155
6	0xbbce4163	-0.006294416
7	0xbe02b5d5	-0.12764676
8	0xbdb125a1	-0.08649755
9	0x3d14ae43	0.036299
10	0xbe219864	-0.15780789
11	0xbd2c9121	-0.042130593
12	0xbd210a19	-0.03931627
13	0x3d3aa075	0.04556318
14	0x3dc57dd8	0.096431434
15	0xbcdca4d8	-0.026934072
16	0xbcb21de5	-0.02174277
17	0xbda39ed2	-0.07989277
18	0x3db61d71	0.08892334
19	0x3b59cf1d	0.0033235021
20	0xbc0d0053	-0.008606034
21	0xbe18e008	-0.14929211
22	0x3d18d0fb	0.037308674
23	0x3d23ed93	0.04002149
24	0xbced2e1c	-0.02895265
25	0xbdadbbf7	-0.08483117
26	0xbd62505b	-0.055252414
27	0x3d80baee	0.06285654
28	0xbd8798d8	-0.066209495
29	0xbbc4c2a3	-0.006004648
30	0x3db9f7c3	0.0908046
31	0xbbc51bbd	-0.0060152696
32	0x3d46f8c1	0.048577074
33	0xbdee0e18	-0.11623782
34	0x3d82731f	0.06369614
35	0xbb7a433e	-0.0038187052
36	0xbc3b8eea	-0.011447648
37	0xbd217116	-0.039414488
38	0x3da3e9c2	0.0800357
39	0xbd866586	-0.06562333
40	0xbb8ad657	-0.004236977
41	0xbbc4c65e	-0.0060050925
42	0xbbaba302	-0.005237938
43	0x3b4d3e7f	0.0031317768
44	0xbe3b0fd6	-0.1826776
45	0xbcad99cf	-0.021191506
46	0xbd1b4f3e	-0.037917368
47	0xbdbc0cc3	-0.091821216
48	0xbd5bbf86	-0.053649448
49	0xbbb43573	-0.0054995357
50	0xbd02203d	-0.031769026
51	0x3d03b7cc	0.032157704
52	0xbc87e06a	-0.016586501
53	0x3d003a8b	0.03130583
54	0x3db3ca8d	0.08778868
55	0x3d2249db	0.039621215
56	0xbbc08663	-0.005875395
57	0xbcc62372	-0.024186824
58	0xbbcf4143	-0.0063249185
59	0xbdfcd56b	-0.12345394
60	0xbe09b008	-0.13446057
61	0xbd09f05b	-0.033676486
62	0x3da12774	0.07868853
63	0xbbaa81b3	-0.0052034496

sequential/conv2d/BiasAdd/ReadVariableOp f4 [32]
0	0x3c0854fd	0.008321044
1	0xbd614249	-0.054994855
2	0xbdcc6c08	-0.09981543
3	0xbdf267a7	-0.11836176
4	0xbcea77af	-0.028621523
5	0xbe79b633	-0.2438591
6	0x3becca10	0.007226236
7	0xbe8124a0	-0.25223255
8	0xbe1723c5	-0.14759739
9	0xbe3285fb	-0.17433922
10	0x3e5f6bdd	0.2181849
11	0xbe013e57	-0.12621437
12	0xbd1f57dc	-0.03890215
13	0xbd2bafbe	-0.041915648
14	0xbdd63f22	-0.104612604
15	0xbd6a35de	-0.057180278
16	0xbc912899	-0.017719554
17	0xbd6ef300	-0.05833721
18	0xbd22cff7	-0.039749112
19	0xbd3092c1	-0.043108705
20	0xbe6e2961	-0.23257972
21	0x3dc97a3d	0.09837768
22	0xbdcd741a	-0.1003191
23	0xbcead948	-0.02866806
24	0xbdfbd7d0	-0.12297022
25	0xbe3f048d	-0.1865408
26	0xbe3b3ec4	-0.18285662
27	0xbe0fda83	-0.140482
28	0xbbb9ba47	-0.005667958
29	0xbe09d23a	-0.13459101
30	0xbb3512b2	-0.0027629551
31	0xbd35038c	-0.044192836

sequential/conv2d_1/BiasAdd/ReadVariableOp f4 [64]
0	0xbe5a39dc	-0.21311134
1	0x3cbd538f	0.023111133
2	0xbe013695	-0.12618478
3	0xbe11340d	-0.14180012
4	0xbde7dfa2	-0.113219514
5	0xbe14e139	-0.1453904
6	0xbdbb3a80	-0.09142017
7	0x3d6ef251	0.05833656
8	0xbd2162a6	-0.03940072
9	0xbe291d1b	-0.16515009
10	0xbce13207	-0.027489675
11	0xbd6b33f5	-0.057422597
12	0xbdbb9467	-0.09159165
13	0x3e0005f3	0.1250227
14	0xbd994a74	-0.07484904
15	0xbe85c4d5	-0.26126733
16	0xbe1c4f3c	-0.152646
17	0xbc9d73f7	-0.019220335
18	0x3c932e0c	0.017966293
19	0xbdf66b45	-0.12032179
20	0xbe14d236	-0.14533314
21	0xbe2c0c8c	-0.16801661
22	0x3e319acb	0.17344205
23	0xbe3210b1	-0.1738918
24	0x3e47e88f	0.19522308
25	0xbda1a63d	-0.078930356
26	0xbe8fd8b2	-0.28095013
27	0xbd4a9053	-0.049454045
28	0xbd549643	-0.051901113
29	0xbdf0acb3	-0.1175169
30	0xbda70db1	-0.08156908
31	0xbe2e86d2	-0.17043617
32	0xbdaa95f4	-0.083293825
33	0xbdbb8043	-0.09155323
34	0xbe06dec4	-0.13170916
35	0xbe25c479	-0.1618823
36	0xbd959183	-0.07303145
37	0xbdf50ce2	-0.11965348
38	0xbdeb752a	-0.11496957
39	0xbe23b96e	-0.15988705
40	0xbdd5bd93	-0.10436549
41	0xbd6f5a4a	-0.058435716
42	0xbe566f11	-0.20940806
43	0xbddbfc2a	-0.10741456
44	0xbe253cd2	-0.16136482
45	0xbe23f99e	-0.1601319
46	0xbe4bee3b	-0.19915096
47	0x3cdb6ea9	0.026786165
48	0xbdb8916e	-0.090121135
49	0xbd0384a2	-0.03210891
50	0x3e489ad8	0.19590318
51	0xbdd6a54c	-0.104807466
52	0xbdc9596f	-0.09831511
53	0xbc9c128f	-0.019051818
54	0x3d8b803b	0.068115674
55	0xbe05ae94	-0.13054878
56	0xbdf15f9c	-0.11785814
57	0x3e7841cb	0.24243848
58	0x3c7be126	0.015373504
59	0xbd34b66c	-0.044119284
60	0x3e0c098d	0.13675518
61	0xbe14c5db	-0.14528601
62	0xbe6bc550	-0.23024487
63	0xba4decda	-0.0007855423

sequential/conv2d_2/BiasAdd/ReadVariableOp f4 [64]
0	0xbce78ff7	-0.02826689
1	0x3afa6e71	0.00191064
2	0xbb914569	-0.004433323
3	0xbd2ff0b2	-0.042954154
4	0xbcb10b09	-0.021611707
5	0x3d281838	0.04103872
6	0xbd86587c	-0.06559846
7	0xbd42f78b	-0.047599357
8	0x3e820077	0.2539098
9	0x3b31f4df	0.0027154011
10	0xbde4c34a	-0.11170061
11	0xbdd8a47c	-0.10578248
12	0x3d58b0d9	0.05290303
13	0xbe526cd4	-0.20549327
14	0xbe062408	-0.13099682
15	0xbd9852d8	-0.07437676
16	0x3d10c4f8	0.035344094
17	0xbe07adb9	-0.13249864
18	0xbdc3c4a9	-0.09558994
19	0xbc8cc756	-0.017184895
20	0xbcc8ef11	-0.024528058
21	0xbe22b5ad	-0.15889616
22	0x3d19a092	0.037506647
23	0xbc98e1d1	-0.018662365
24	0xbe3a2db7	-0.18181501
25	0xbd3f1613	-0.04665191
26	0xbdb67a40	-0.08910036
27	0xbdb722d4	-0.0894219
28	0x3da4ac05	0.080406226
29	0x3d456a31	0.048196975
30	0x3d557486	0.05211308
31	0xbd932f05	-0.07186703
32	0xbd22a093	-0.039703917
33	0xbdc19b15	-0.09453408
34	0x3d27159c	0.040792093
35	0xbd810504	-0.06299785
36	0xbd0d3b3a	-0.03448031
37	0xbd5ac42e	-0.053409748
38	0x3e14b2c9	0.14521326
39	0xbd9ecfcd	-0.077544786
40	0x3c34eccb	0.011042784
41	0x3d69e7f9	0.057105992
42	0x3e537d73	0.20653324
43	0xbe1c83e0	-0.15284681
44	0xbd1e0e65	-0.038587946
45	0xbd5fd197	-0.05464324
46	0xbe0755e3	-0.13216357
47	0x3a95434e	0.0011387856
48	0xbe1a9f3a	-0.15099803
49	0xbc2b95ef	-0.010472759
50	0xbd3a0acc	-0.045420453
51	0xbd835c7f	-0.064141266
52	0xbca1767d	-0.01970982
53	0xbd515f91	-0.05111653
54	0x3daace5f	0.083401434
55	0xbdb5c035	-0.08874551
56	0xbd0f0c05	-0.034923572
57	0xbcb225da	-0.021746565
58	0x3d929cde	0.07158826
59	0x3e0173bc	0.12641805
60	0xbda9d79d	-0.08293078
61	0xbd48f934	-0.049065784
62	0xbd9a0858	-0.07521123
63	0xbde73c31	-0.112907775

sequential/conv2d/Conv2D f4 [32, 3, 3, 3]
0	0xbe25fbf5	-0.16209395
1	0xbd93f442	-0.07224323
2	0xbaa8e88c	-0.0012886687
3	0x3cf30078	0.02966331
4	0xbe75d101	-0.2400551
5	0x3e1577dc	0.14596504
6	0xbcecc037	-0.028900249
7	0xbe6d5d49	-0.23180117
8	0x3e292d84	0.16521269
9	0xbd91515f	-0.070955984
10	0xbe67ca57	-0.2263578
11	0x3ba423d5	0.0050091543
12	0x3dd99f52	0.10626091
13	0xb9b1929f	-0.00033869312
14	0x3e0821ae	0.13294098
15	0xbe00643c	-0.12538236
16	0xbd4bed19	-0.04978666
17	0x3de72aef	0.11287486
18	0xbdcc30af	-0.09970223
19	0xbd1fe6ff	-0.039038654
20	0x3da7c795	0.08192364
21	0xbdc2d732	-0.095137015
22	0xbe706de3	-0.23479418
23	0x3ca5b706	0.020228874
24	0x3d66f071	0.056381647
25	0xbe84eb11	-0.2596059
26	0x3dba0d00	0.09084511
27	0x3d9946fa	0.07484241
28	0x3d01a532	0.031651683
29	0xbcf62f02	-0.030051712
30	0xbb32aff3	-0.0027265518
31	0xbccd7133	-0.025078392
32	0xbe207e41	-0.15673162
33	0xbd885e28	-0.06658584
34	0xbdf6785a	-0.12034674
35	0xbda7a495	-0.081856884
36	0xbe27e603	-0.16396336
37	0xbe302e9c	-0.1720528
38	0xbe6cf5a1	-0.23140575
39	0x3d1bb9bf	0.03801894
40	0xbe212ec2	-0.15740493
41	0xbe7722b8	-0.24134338
42	0xbd66cee0	-0.056349635
43	0x3df07f08	0.11742979
44	0xbc866bda	-0.01640885
45	0xbd1d9448	-0.03847149
46	0x3dce5e48	0.100765765
47	0xbe139a6d	-0.14414378
48	0xbd074c0a	-0.0330315
49	0x3d6cf475	0.05785032
50	0x3d74d116	0.059769712
51	0xbc9a2ae2	-0.018819276
52	0x3ca0f282	0.019646887
53	0xbe3750a5	-0.17901857
54	0xbd868dfa	-0.06570049
55	0xbdf66715	-0.1203138
56	0xbe47fbbe	-0.19529626
57	0xbe7e16d2	-0.24813393
58	0xbd171080	-0.03688097
59	0xbda18b35	-0.0788788
60	0xbe6901fe	-0.22754666
61	0xbe080d52	-0.13286331
62	0xbd6b968e	-0.057516627
63	0x3c7bbfe3	0.015365574
64	0x3db66766	0.089064404
65	0xbd8a2009	-0.067443915
66	0x3bd15a03	0.006388904
67	0x3e2594e1	0.16170074
68	0xbe42fbcf	-0.1904137
69	0xbdf7fc17	-0.12108629
70	0x3e1d7fd2	0.15380791
71	0x3a1531a7	0.00056912977
72	0x3db142bf	0.08655309
73	0x3e525efb	0.20544045
74	0x3df6b5df	0.12046408
75	0x3e30feff	0.17284773
76	0x3e4708d9	0.19436969
77	0x3d91d980	0.07121563
78	0x3bcdf209	0.0062849564
79	0x3e2e889f	0.17044304
80	0xbdb091d1	-0.08621562
81	0x3e3349a7	0.17508565
82	0x3d823a2a	0.0635875
83	0xbca7bd46	-0.020475995
84	0xbc6f97c2	-0.014623584
85	0xbd6e6859	-0.058204982
86	0xbddff604	-0.10935596
87	0x3cc75063	0.024330324
88	0x3cbd17fb	0.023082724
89	0xbe9332d5	-0.2874972
90	0xbe0a8b10	-0.1352961
91	0x3d4cba9a	0.049982645
92	0x3d802ff5	0.06259147
93	0xbe38caad	-0.18046065
94	0x3d06c04f	0.032898244
95	0x3cbf1173	0.02332375
96	0xbdf00643	-0.11719944
97	0xbe26930e	-0.16267034
98	0xbd42efcc	-0.04759197
99	0x3ddb3c01	0.10704804
100	0x3da4ecc4	0.08052972
101	0x3c96a92f	0.01839122
102	0xbe3d4c60	-0.18486166
103	0xbe028e72	-0.12749651
104	0xbdc3afb3	-0.09554996
105	0xbe2a4a18	-0.16629827
106	0xbe2b6e91	-0.16741396
107	0xbe31e75c	-0.17373413
108	0xbe3a2ed3	-0.18181925
109	0xbdbea087	-0.09307962
110	0xbe46a371	-0.19398285
111	0xbe030077	-0.12793146
112	0xbe435e0b	-0.19078843
113	0xbe190457	-0.14943062
114	0x3d0382b3	0.032107066
115	0xba488d18	-0.0007650419
116	0xbe225c02	-0.1585541
117	0xbe377240	-0.17914677
118	0xbe71284d	-0.2355053
119	0xbe02aace	-0.1276047
120	0xbe31bbc9	-0.1735679
121	0xbdae9e2c	-0.08526263
122	0xbde42220	-0.11139321
123	0xbcf066ec	-0.029345952
124	0x3e62c925	0.22147043
125	0x3dcad845	0.099045314
126	0x3b32707f	0.0027227697
127	0xbd29f9b6	-0.04149791
128	0xbcdf2959	-0.027241396
129	0x3e0d5c20	0.13804674
130	0x3e4d9eb8	0.20080078
131	0x3da4ee06	0.08053212
132	0x3e44c270	0.19214797
133	0x3e6a3d5a	0.22874966
134	0xbd0c5a81	-0.034266
135	0x3dc7cdc0	0.097560406
136	0x3c00656d	0.007836682
137	0xbd14463a	-0.036199786
138	0x3da962ed	0.08270822
139	0x3da68168	0.08130151
140	0x3d48bc76	0.049007855
141	0xbc55574f	-0.013021304
142	0x3e2dea2d	0.16983862
143	0x3dc4a317	0.096014194
144	0x3de0197f	0.10942363
145	0x3da24557	0.07923382
146	0xbddef74e	-0.108870134
147	0x3e364b1e	0.17802092
148	0x3db0f9fc	0.08641431
149	0xbe1bb4f3	-0.15205745
150	0x3e0e0d91	0.13872363
151	0x3bb19c48	0.0054202415
152	0xbd63a6d9	-0.05557904
153	0x3e0dce9c	0.13848346
154	0x3d818845	0.063248195
155	0xbdaed338	-0.085363805
156	0x3e286065	0.16443022
157	0xbd6be846	-0.05759456
158	0x3d9109af	0.07081925
159	0x3d6bbf9c	0.05755578
160	0x3e24953e	0.16072556
161	0xbd61a3f5	-0.055088002
162	0xbda0a582	-0.07844068
163	0xbe00d635	-0.12581713
164	0xbd5cd33c	-0.053912386
165	0xbe86e683	-0.2634774
166	0xbd8da483	-0.06916144
167	0xbe7b14fc	-0.24519724
168	0xbe4003d0	-0.18751454
169	0x3ddf195a	0.10893507
170	0xbccc8d89	-0.024969833
171	0xbea085db	-0.31352124
172	0xbd05a1b9	-0.032624934
173	0xbe9eee10	-0.31041002
174	0xbe052b3b	-0.13004772
175	0xbe0b819f	-0.13623665
176	0xbe2c2bc5	-0.16813572
177	0x3e37e8a3	0.17959838
178	0x3d0b8831	0.03406543
179	0x3d894219	0.0670206
180	0xbe679fa1	-0.22619487
181	0xbdf3e039	-0.119080015
182	0xbd7c5577	-0.061604943
183	0x3e19d68d	0.15023251
184	0x3e5ef8df	0.21774624
185	0x3e5ac805	0.21365364
186	0x3dde45c2	0.10853149
187	0x3e729631	0.23690106
188	0x3e2d53e9	0.1692654
189	0x3da901eb	0.08252319
190	0xbd7a0863	-0.061043154
191	0x3e0570fb	0.1303138
192	0x3bcd22de	0.00626026
193	0xbd8f6ab4	-0.07002774
194	0x3e37d1c1	0.17951109
195	0x3e1bb594	0.15205985
196	0xbd61f40d	-0.055164386
197	0x3dc4df7a	0.09612937
198	0x3dedadeb	0.11605438
199	0xbd408383	-0.04700042
200	0xbcbc525c	-0.02298849
201	0x3dfdba2e	0.123890266
202	0xbe4bd2e5	-0.19904669
203	0x3e1fe9a1	0.15616466
204	0x3db0d3b8	0.08634132
205	0xbe5d5977	-0.2161616
206	0xbcf94b2c	-0.030431353
207	0x3ced3f0b	0.028960725
208	0xbdaf4fdf	-0.08560156
209	0x3de69739	0.11259312
210	0xbbbbe9d4	-0.0057346616
211	0x3c47e82d	0.012201351
212	0x3c6e4204	0.014542107
213	0x3dc839aa	0.097766235
214	0xbd97baf8	-0.07408708
215	0x3e2839f6	0.1642836
216	0x3e489c3e	0.19590852
217	0x3de90650	0.11378157
218	0x3e3c4e01	0.18389131
219	0xbdb45312	-0.08804907
220	0xbdeccc11	-0.1156236
221	0xbd9c2671	-0.076245196
222	0xbe34501f	-0.17608689
223	0xbd59480f	-0.053047236
224	0x3d73dd87	0.059537437
225	0x3e0d76dd	0.13814874
226	0x3d2ca307	0.042147662
227	0x3e54684b	0.2074291
228	0x3dc5567f	0.096356384
229	0xbc13d26f	-0.009022339
230	0xbda611c1	-0.08108855
231	0xbe0beefd	-0.13665386
232	0xbec1a7ba	-0.37823278
233	0xbe09798c	-0.13425273
234	0x3dfa9b4b	0.12236651
235	0xbd3d0d1d	-0.046155084
236	0x3e653e0d	0.22386952
237	0x3e27ccba	0.1638669
238	0x3d8cd6c1	0.068768986
239	0x3dc9d130	0.098543525
240	0xbe8811ae	-0.2657599
241	0xbe587df6	-0.211418
242	0xbe59c26c	-0.21265572
243	0xbe192b72	-0.1495798
244	0x3d825b8e	0.06365119
245	0x3e3a5855	0.18197758
246	0xbe0bea07	-0.13663493
247	0x3e1aab40	0.15104389
248	0x3cb13f9c	0.021636777
249	0xbde3b56b	-0.11118587
250	0x3e34e2bc	0.17664617
251	0x3e20d6fa	0.15707007
252	0xbe31fe09	-0.17382063
253	0x3e5aea55	0.21378453
254	0x3d86cba5	0.06581811
255	0xbe4613ac	-0.19343442

sequential/conv2d_1/Conv2D i1 [64, 3, 3, 32]
0	0x39	57
1	0x0e	14
2	0x14	20
3	0x20	32
4	0x2d	45
5	0x16	22
6	0x36	54
7	0xd4	-44
8	0x45	69
9	0xff	-1
10	0xf3	-13
11	0xe6	-26
12	0x27	39
13	0x13	19
14	0x4d	77
15	0x13	19
16	0x27	39
17	0x1b	27
18	0x7f	127
19	0x14	20
20	0xfb	-5
21	0x3c	60
22	0xdb	-37
23	0xcd	-51
24	0xe4	-28
25	0xf2	-14
26	0x0f	15
27	0xec	-20
28	0x33	51
29	0x24	36
30	0xc2	-62
31	0x57	87
32	0x42	66
33	0x0e	14
34	0x23	35
35	0x09	9
36	0x3b	59
37	0x12	18
38	0x57	87
39	0x00	0
40	0x27	39
41	0xd8	-40
42	0xf8	-8
43	0x05	5
44	0x1c	28
45	0x59	89
46	0x47	71
47	0x35	53
48	0x34	52
49	0x0d	13
50	0x04	4
51	0x34	52
52	0x11	17
53	0xfe	-2
54	0x07	7
55	0x11	17
56	0x09	9
57	0x08	8
58	0xf3	-13
59	0xf4	-12
60	0x36	54
61	0x03	3
62	0xb0	-80
63	0x53	83
64	0x2b	43
65	0x0d	13
66	0x34	52
67	0x0d	13
68	0x31	49
69	0x41	65
70	0x1b	27
71	0xf9	-7
72	0xf2	-14
73	0x05	5
74	0xf8	-8
75	0x1a	26
76	0x03	3
77	0x19	25
78	0x24	36
79	0x38	56
80	0x0c	12
81	0x2b	43
82	0x00	0
83	0x08	8
84	0x2e	46
85	0xce	-50
86	0x0c	12
87	0xfc	-4
88	0x05	5
89	0x08	8
90	0x09	9
91	0x03	3
92	0xf9	-7
93	0x32	50
94	0xd5	-43
95	0x04	4
96	0x41	65
97	0x25	37
98	0x03	3
99	0x0e	14
100	0x15	21
101	0x11	17
102	0x37	55
103	0xce	-50
104	0xd5	-43
105	0xfc	-4
106	0xfa	-6
107	0xfc	-4
108	0x12	18
109	0x2a	42
110	0x77	119
111	0xf3	-13
112	0x00	0
113	0x07	7
114	0x1b	27
115	0x0a	10
116	0x02	2
117	0xf6	-10
118	0xc7	-57
119	0x06	6
120	0xd8	-40
121	0xed	-19
122	0xfd	-3
123	0xe8	-24
124	0x2e	46
125	0x2a	42
126	0xef	-17
127	0x48	72
128	0x25	37
129	0x13	19
130	0xff	-1
131	0x21	33
132	0xdf	-33
133	0x0f	15
134	0x07	7
135	0x16	22
136	0x38	56
137	0xf3	-13
138	0xd7	-41
139	0xe4	-28
140	0xcd	-51
141	0x11	17
142	0x3a	58
143	0x1d	29
144	0xe7	-25
145	0xcf	-49
146	0x4e	78
147	0x0a	10
148	0x0d	13
149	0xd3	-45
150	0x0a	10
151	0xe1	-31
152	0x1e	30
153	0xea	-22
154	0x14	20
155	0xf9	-7
156	0x26	38
157	0x27	39
158	0xda	-38
159	0xe8	-24
160	0x4e	78
161	0xf7	-9
162	0x10	16
163	0x00	0
164	0xbc	-68
165	0x16	22
166	0xf8	-8
167	0x28	40
168	0xfb	-5
169	0xf6	-10
170	0xe8	-24
171	0xf7	-9
172	0xb7	-73
173	0xef	-17
174	0x25	37
175	0x0c	12
176	0x11	17
177	0xf4	-12
178	0x1c	28
179	0xec	-20
180	0x28	40
181	0xcc	-52
182	0x0a	10
183	0xfb	-5
184	0x1d	29
185	0x03	3
186	0x11	17
187	0x22	34
188	0xfe	-2
189	0x2b	43
190	0xba	-70
191	0x0b	11
192	0x3b	59
193	0x13	19
194	0xec	-20
195	0x11	17
196	0xfb	-5
197	0xdd	-35
198	0x53	83
199	0x03	3
200	0x0a	10
201	0xf8	-8
202	0xe0	-32
203	0x06	6
204	0xfa	-6
205	0x4d	77
206	0x36	54
207	0xfc	-4
208	0xff	-1
209	0xdb	-37
210	0x28	40
211	0xe4	-28
212	0xf8	-8
213	0xf3	-13
214	0xda	-38
215	0xf4	-12
216	0x1a	26
217	0x01	1
218	0x0d	13
219	0x10	16
220	0x18	24
221	0x0b	11
222	0xd5	-43
223	0x2d	45
224	0x3e	62
225	0x1e	30
226	0xe2	-30
227	0x48	72
228	0xf3	-13
229	0x02	2
230	0x2c	44
231	0x16	22
232	0x2e	46
233	0xcb	-53
234	0xf5	-11
235	0xe0	-32
236	0xca	-54
237	0xfc	-4
238	0x40	64
239	0x17	23
240	0xdd	-35
241	0xb1	-79
242	0x47	71
243	0xd3	-45
244	0x06	6
245	0x0a	10
246	0xf3	-13
247	0xfd	-3
248	0x1b	27
249	0xf7	-9
250	0x1c	28
251	0xfe	-2
252	0x2f	47
253	0x0b	11
254	0xe4	-28
255	0x31	49

sequential/conv2d_2/Conv2D i1 [64, 3, 3, 64]
0	0x2c	44
1	0x75	117
2	0xd5	-43
3	0xf4	-12
4	0x0e	14
5	0xea	-22
6	0x09	9
7	0xfc	-4
8	0x0f	15
9	0xdf	-33
10	0x5d	93
11	0x20	32
12	0x0c	12
13	0x07	7
14	0x4b	75
15	0xeb	-21
16	0x0c	12
17	0xf3	-13
18	0x7f	127
19	0x13	19
20	0xf2	-14
21	0xf1	-15
22	0xe3	-29
23	0x24	36
24	0x15	21
25	0x16	22
26	0x0f	15
27	0x2e	46
28	0xf1	-15
29	0x42	66
30	0x17	23
31	0xea	-22
32	0x28	40
33	0x0c	12
34	0xec	-20
35	0x24	36
36	0x5b	91
37	0x6f	111
38	0x2f	47
39	0xfd	-3
40	0xe8	-24
41	0x2c	44
42	0xeb	-21
43	0x0e	14
44	0xdd	-35
45	0x4e	78
46	0xeb	-21
47	0x06	6
48	0xee	-18
49	0xfd	-3
50	0xcd	-51
51	0x06	6
52	0x00	0
53	0x06	6
54	0xc6	-58
55	0xef	-17
56	0xcd	-51
57	0xf1	-15
58	0xf2	-14
59	0x43	67
60	0xc7	-57
61	0x09	9
62	0xdb	-37
63	0x37	55
64	0x12	18
65	0x57	87
66	0xd8	-40
67	0x03	3
68	0x01	1
69	0xd2	-46
70	0x07	7
71	0x19	25
72	0x06	6
73	0xf9	-7
74	0x20	32
75	0x10	16
76	0x2e	46
77	0x0e	14
78	0x20	32
79	0xbe	-66
80	0xfd	-3
81	0x08	8
82	0x64	100
83	0xee	-18
84	0xf3	-13
85	0xf3	-13
86	0x06	6
87	0x18	24
88	0x1e	30
89	0x05	5
90	0x00	0
91	0x2d	45
92	0x01	1
93	0x25	37
94	0xea	-22
95	0xea	-22
96	0xf5	-11
97	0x27	39
98	0xd7	-41
99	0x27	39
100	0x59	89
101	0x53	83
102	0x3c	60
103	0x09	9
104	0xf9	-7
105	0xf6	-10
106	0xdd	-35
107	0x28	40
108	0xbd	-67
109	0x31	49
110	0xc2	-62
111	0x07	7
112	0xe6	-26
113	0x10	16
114	0xfa	-6
115	0x23	35
116	0x08	8
117	0xf1	-15
118	0xe4	-28
119	0xee	-18
120	0xfc	-4
121	0x1e	30
122	0x07	7
123	0x29	41
124	0xec	-20
125	0xe3	-29
126	0xd4	-44
127	0xf0	-16
128	0x19	25
129	0x31	49
130	0xe0	-32
131	0xec	-20
132	0xf5	-11
133	0xb0	-80
134	0xe5	-27
135	0xf4	-12
136	0xed	-19
137	0xee	-18
138	0x16	22
139	0xff	-1
140	0xfb	-5
141	0x20	32
142	0x27	39
143	0xc4	-60
144	0x01	1
145	0xda	-38
146	0x22	34
147	0xdb	-37
148	0x1b	27
149	0xc5	-59
150	0x38	56
151	0xf4	-12
152	0x2b	43
153	0x14	20
154	0x10	16
155	0x12	18
156	0x0d	13
157	0x36	54
158	0xbc	-68
159	0xdd	-35
160	0xd8	-40
161	0x0c	12
162	0xdf	-33
163	0xea	-22
164	0x46	70
165	0x26	38
166	0x1f	31
167	0xf0	-16
168	0xe3	-29
169	0xd4	-44
170	0xe2	-30
171	0x18	24
172	0xd4	-44
173	0x0a	10
174	0xc6	-58
175	0x32	50
176	0xc7	-57
177	0xf7	-9
178	0x16	22
179	0x20	32
180	0xff	-1
181	0xe6	-26
182	0xd0	-48
183	0xcd	-51
184	0x08	8
185	0x12	18
186	0xe5	-27
187	0x1f	31
188	0x17	23
189	0xdd	-35
190	0xb4	-76
191	0xfb	-5
192	0xfd	-3
193	0x39	57
194	0x15	21
195	0xf7	-9
196	0x0d	13
197	0xd2	-46
198	0x2c	44
199	0xf1	-15
200	0x06	6
201	0x05	5
202	0x16	22
203	0xec	-20
204	0xf5	-11
205	0x1f	31
206	0x36	54
207	0xf6	-10
208	0x09	9
209	0x0e	14
210	0x1a	26
211	0x1f	31
212	0xec	-20
213	0xe7	-25
214	0x2f	47
215	0x14	20
216	0x28	40
217	0x05	5
218	0x14	20
219	0xf6	-10
220	0x1f	31
221	0x32	50
222	0x16	22
223	0x14	20
224	0xe4	-28
225	0x30	48
226	0xf2	-14
227	0xe5	-27
228	0x27	39
229	0x40	64
230	0x1b	27
231	0xe3	-29
232	0xea	-22
233	0x00	0
234	0x03	3
235	0x1f	31
236	0xdc	-36
237	0xfe	-2
238	0xd3	-45
239	0x30	48
240	0xe9	-23
241	0x15	21
242	0xcc	-52
243	0x31	49
244	0x19	25
245	0xe9	-23
246	0xc6	-58
247	0x05	5
248	0x0c	12
249	0xf7	-9
250	0x07	7
251	0x48	72
252	0xd9	-39
253	0xea	-22
254	0xd1	-47
255	0x1e	30

sequential/dense/MatMul i1 [64, 6400] scale=0.0050024767 zero_point=0
0	0xfa	-0.030014861
1	0xfe	-0.0100049535
2	0x03	0.015007431
3	0x01	0.0050024767
4	0x05	0.025012383
5	0x02	0.0100049535
6	0x04	0.020009907
7	0xfb	-0.025012383
8	0xfe	-0.0100049535
9	0xfe	-0.0100049535
10	0x03	0.015007431
11	0x00	0.0
12	0xfe	-0.0100049535
13	0xfc	-0.020009907
14	0xfc	-0.020009907
15	0x05	0.025012383
16	0x01	0.0050024767
17	0x03	0.015007431
18	0x00	0.0
19	0x06	0.030014861
20	0xfe	-0.0100049535
21	0xff	-0.0050024767
22	0xfc	-0.020009907
23	0x02	0.0100049535
24	0xfa	-0.030014861
25	0x06	0.030014861
26	0xfc	-0.020009907
27	0xfb	-0.025012383
28	0x01	0.0050024767
29	0xfd	-0.015007431
30	0x02	0.0100049535
31	0xff	-0.0050024767
32	0x03	0.015007431
33	0xff	-0.0050024767
34	0x03	0.015007431
35	0x01	0.0050024767
36	0x05	0.025012383
37	0xfa	-0.030014861
38	0xfb	-0.025012383
39	0xfc	-0.020009907
40	0xfb	-0.025012383
41	0xfb	-0.025012383
42	0xfe	-0.0100049535
43	0x03	0.015007431
44	0x05	0.025012383
45	0xfa	-0.030014861
46	0x05	0.025012383
47	0x06	0.030014861
48	0xfb	-0.025012383
49	0xfa	-0.030014861
50	0xfa	-0.030014861
51	0xfe	-0.0100049535
52	0x03	0.015007431
53	0xfd	-0.015007431
54	0xfc	-0.020009907
55	0x02	0.0100049535
56	0x04	0.020009907
57	0xfd	-0.015007431
58	0xfe	-0.0100049535
59	0x02	0.0100049535
60	0xfb	-0.025012383
61	0xff	-0.0050024767
62	0x03	0.015007431
63	0x03	0.015007431
64	0xfd	-0.015007431
65	0xff	-0.0050024767
66	0xfb	-0.025012383
67	0xfb	-0.025012383
68	0x03	0.015007431
69	0xfd	-0.015007431
70	0x01	0.0050024767
71	0x00	0.0
72	0x04	0.020009907
73	0x03	0.015007431
74	0xfc	-0.020009907
75	0x01	0.0050024767
76	0x00	0.0
77	0x03	0.015007431
78	0x05	0.025012383
79	0x01	0.0050024767
80	0x01	0.0050024767
81	0xfc	-0.020009907
82	0xfd	-0.015007431
83	0xfd	-0.015007431
84	0x02	0.0100049535
85	0xfd	-0.015007431
86	0x02	0.0100049535
87	0x03	0.015007431
88	0xfe	-0.0100049535
89	0x01	0.0050024767
90	0xfd	-0.015007431
91	0x06	0.030014861
92	0xff	-0.0050024767
93	0xfa	-0.030014861
94	0x00	0.0
95	0xfb	-0.025012383
96	0x02	0.0100049535
97	0xfb	-0.025012383
98	0x07	0.035017338
99	0x02	0.0100049535
100	0x00	0.0
101	0x05	0.025012383
102	0x01	0.0050024767
103	0x07	0.035017338
104	0x01	0.0050024767
105	0x04	0.020009907
106	0xfd	-0.015007431
107	0x02	0.0100049535
108	0xfc	-0.020009907
109	0xf9	-0.035017338
110	0x04	0.020009907
111	0x00	0.0
112	0x01	0.0050024767
113	0xff	-0.0050024767
114	0x01	0.0050024767
115	0x02	0.0100049535
116	0xfd	-0.015007431
117	0x04	0.020009907
118	0xfd	-0.015007431
119	0xfe	-0.0100049535
120	0xfe	-0.0100049535
121	0xfc	-0.020009907
122	0xfd	-0.015007431
123	0x02	0.0100049535
124	0x02	0.0100049535
125	0x04	0.020009907
126	0xfa	-0.030014861
127	0xf9	-0.035017338
128	0xff	-0.0050024767
129	0x00	0.0
130	0x06	0.030014861
131	0x02	0.0100049535
132	0x00	0.0
133	0xfa	-0.030014861
134	0x03	0.015007431
135	0x03	0.015007431
136	0xfc	-0.020009907
137	0x05	0.025012383
138	0x01	0.0050024767
139	0x02	0.0100049535
140	0xfe	-0.0100049535
141	0xfe	-0.0100049535
142	0xf9	-0.035017338
143	0xfe	-0.0100049535
144	0x05	0.025012383
145	0xfb	-0.025012383
146	0x02	0.0100049535
147	0x02	0.0100049535
148	0xfb	-0.025012383
149	0xfe	-0.0100049535
150	0x03	0.015007431
151	0xfc	-0.020009907
152	0xfe	-0.0100049535
153	0x03	0.015007431
154	0x00	0.0
155	0x07	0.035017338
156	0xfb	-0.025012383
157	0xfe	-0.0100049535
158	0x00	0.0
159	0xfb	-0.025012383
160	0x00	0.0
161	0xf9	-0.035017338
162	0x03	0.015007431
163	0xfd	-0.015007431
164	0xff	-0.0050024767
165	0xfd	-0.015007431
166	0xfe	-0.0100049535
167	0x02	0.0100049535
168	0xfd	-0.015007431
169	0xfd	-0.015007431
170	0x02	0.0100049535
171	0x00	0.0
172	0xfb	-0.025012383
173	0x03	0.015007431
174	0xfb	-0.025012383
175	0xfe	-0.0100049535
176	0x00	0.0
177	0x01	0.0050024767
178	0xff	-0.0050024767
179	0x04	0.020009907
180	0xfd	-0.015007431
181	0x04	0.020009907
182	0x06	0.030014861
183	0xfc	-0.020009907
184	0xff	-0.0050024767
185	0xfd	-0.015007431
186	0xfd	-0.015007431
187	0xff	-0.0050024767
188	0xfa	-0.030014861
189	0xfc	-0.020009907
190	0x02	0.0100049535
191	0xfe	-0.0100049535
192	0x00	0.0
193	0x04	0.020009907
194	0x02	0.0100049535
195	0xfa	-0.030014861
196	0x03	0.015007431
197	0x04	0.020009907
198	0x03	0.015007431
199	0x05	0.025012383
200	0x02	0.0100049535
201	0xff	-0.0050024767
202	0x01	0.0050024767
203	0x05	0.025012383
204	0x01	0.0050024767
205	0xf9	-0.035017338
206	0x05	0.025012383
207	0xfd	-0.015007431
208	0xf9	-0.035017338
209	0x03	0.015007431
210	0xfb	-0.025012383
211	0x05	0.025012383
212	0xfc	-0.020009907
213	0xfd	-0.015007431
214	0x00	0.0
215	0x04	0.020009907
216	0x00	0.0
217	0x04	0.020009907
218	0xfb	-0.025012383
219	0xfe	-0.0100049535
220	0x03	0.015007431
221	0xff	-0.0050024767
222	0xfe	-0.0100049535
223	0x04	0.020009907
224	0x03	0.015007431
225	0xfd	-0.015007431
226	0x00	0.0
227	0xfd	-0.015007431
228	0xfe	-0.0100049535
229	0xfd	-0.015007431
230	0xff	-0.0050024767
231	0x03	0.015007431
232	0xfc	-0.020009907
233	0xfd	-0.015007431
234	0xfc	-0.020009907
235	0xfc	-0.020009907
236	0xfd	-0.015007431
237	0x02	0.0100049535
238	0x04	0.020009907
239	0x05	0.025012383
240	0x00	0.0
241	0xfc	-0.020009907
242	0x05	0.025012383
243	0xff	-0.0050024767
244	0xfa	-0.030014861
245	0x02	0.0100049535
246	0x00	0.0
247	0x01	0.0050024767
248	0x00	0.0
249	0x04	0.020009907
250	0x03	0.015007431
251	0xfd	-0.015007431
252	0xff	-0.0050024767
253	0xfd	-0.015007431
254	0xf9	-0.035017338
255	0xfb	-0.025012383

sequential/dense_1/MatMul i1 [31, 64] scale=0.004505845 zero_point=0
0	0xeb	-0.09462274
1	0xeb	-0.09462274
2	0x1b	0.12165781
3	0x26	0.1712221
4	0x03	0.013517534
5	0x1f	0.13968119
6	0x29	0.18473963
7	0x18	0.108140275
8	0xaa	-0.38750264
9	0x1c	0.12616366
10	0x27	0.17572795
11	0x03	0.013517534
12	0x28	0.18023379
13	0xb6	-0.33343253
14	0xca	-0.24331562
15	0xfd	-0.013517534
16	0x17	0.10363443
17	0xe0	-0.14418703
18	0xec	-0.090116896
19	0x2d	0.20276302
20	0x2e	0.20726886
21	0xf0	-0.07209352
22	0xb3	-0.34695005
23	0xd9	-0.17572795
24	0x2d	0.20276302
25	0xf3	-0.05857598
26	0xcd	-0.22979808
27	0xd6	-0.18924548
28	0xfc	-0.01802338
29	0x21	0.14869288
30	0xcf	-0.2207864
31	0x2f	0.2117747
32	0xdd	-0.15770456
33	0xba	-0.31540912
34	0xab	-0.3829968
35	0xfe	-0.00901169
36	0xeb	-0.09462274
37	0x0e	0.06308183
38	0x1a	0.11715196
39	0x05	0.022529224
40	0x13	0.08561105
41	0x1d	0.1306695
42	0xfb	-0.022529224
43	0x14	0.090116896
44	0xb6	-0.33343253
45	0xe1	-0.13968119
46	0xe4	-0.12616366
47	0x08	0.03604676
48	0x0b	0.049564295
49	0x2a	0.18924548
50	0xd3	-0.20276302
51	0x37	0.24782147
52	0x13	0.08561105
53	0xe5	-0.12165781
54	0xc2	-0.27936238
55	0xba	-0.31540912
56	0xea	-0.09912859
57	0x05	0.022529224
58	0xda	-0.1712221
59	0xc9	-0.24782147
60	0x2e	0.20726886
61	0x06	0.027035069
62	0xcf	-0.2207864
63	0xda	-0.1712221
64	0x05	0.022529224
65	0xfc	-0.01802338
66	0xd9	-0.17572795
67	0xda	-0.1712221
68	0xff	-0.004505845
69	0x17	0.10363443
70	0xd2	-0.20726886
71	0xe0	-0.14418703
72	0x40	0.28837407
73	0xec	-0.090116896
74	0x22	0.15319872
75	0xe9	-0.10363443
76	0x05	0.022529224
77	0x0c	0.054070137
78	0xc7	-0.25683317
79	0xc2	-0.27936238
80	0xe6	-0.11715196
81	0x07	0.031540915
82	0x16	0.09912859
83	0x2b	0.19375132
84	0xee	-0.0811052
85	0xbd	-0.3018916
86	0x28	0.18023379
87	0x0e	0.06308183
88	0xf1	-0.06758767
89	0x11	0.07659936
90	0xc5	-0.26584485
91	0xd1	-0.2117747
92	0x46	0.31540912
93	0x00	0.0
94	0x20	0.14418703
95	0x02	0.00901169
96	0xca	-0.24331562
97	0xc6	-0.261339
98	0xe8	-0.108140275
99	0x14	0.090116896
100	0x21	0.14869288
101	0x16	0.09912859
102	0xec	-0.090116896
103	0xe8	-0.108140275
104	0xfa	-0.027035069
105	0x27	0.17572795
106	0x2f	0.2117747
107	0xb7	-0.32892668
108	0x07	0.031540915
109	0xcb	-0.23880978
110	0x37	0.24782147
111	0xda	-0.1712221
112	0xdd	-0.15770456
113	0xe1	-0.13968119
114	0x03	0.013517534
115	0xb6	-0.33343253
116	0x17	0.10363443
117	0x29	0.18473963
118	0xf8	-0.03604676
119	0xbc	-0.30639744
120	0xcf	-0.2207864
121	0xdb	-0.16671626
122	0xf8	-0.03604676
123	0xeb	-0.09462274
124	0x3b	0.26584485
125	0xb8	-0.3244208
126	0xe2	-0.13517535
127	0xe9	-0.10363443
128	0x32	0.22529224
129	0x43	0.3018916
130	0x2b	0.19375132
131	0x58	0.39651436
132	0xca	-0.24331562
133	0x13	0.08561105
134	0x24	0.1622104
135	0x26	0.1712221
136	0xec	-0.090116896
137	0x01	0.004505845
138	0xfd	-0.013517534
139	0xca	-0.24331562
140	0x18	0.108140275
141	0xc0	-0.28837407
142	0xdf	-0.14869288
143	0xe2	-0.13517535
144	0xd6	-0.18924548
145	0xfd	-0.013517534
146	0x36	0.24331562
147	0xc5	-0.26584485
148	0xfa	-0.027035069
149	0xd4	-0.19825718
150	0xfb	-0.022529224
151	0xe5	-0.12165781
152	0xe6	-0.11715196
153	0x3b	0.26584485
154	0x0e	0.06308183
155	0x39	0.25683317
156	0xe6	-0.11715196
157	0x21	0.14869288
158	0xd9	-0.17572795
159	0xd2	-0.20726886
160	0xe8	-0.108140275
161	0x0a	0.045058448
162	0xce	-0.22529224
163	0xc8	-0.25232732
164	0x0c	0.054070137
165	0x0e	0.06308183
166	0xd7	-0.18473963
167	0x10	0.07209352
168	0x13	0.08561105
169	0x2b	0.19375132
170	0x11	0.07659936
171	0xb5	-0.33793837
172	0x27	0.17572795
173	0x38	0.25232732
174	0xd0	-0.21628055
175	0x20	0.14418703
176	0x2b	0.19375132
177	0x08	0.03604676
178	0x02	0.00901169
179	0xfb	-0.022529224
180	0xf7	-0.0405526
181	0x08	0.03604676
182	0xd6	-0.18924548
183	0x0e	0.06308183
184	0xd7	-0.18473963
185	0x31	0.2207864
186	0x0f	0.06758767
187	0xc8	-0.25232732
188	0x12	0.0811052
189	0x0e	0.06308183
190	0x0a	0.045058448
191	0xff	-0.004505845
192	0xe7	-0.11264612
193	0x01	0.004505845
194	0x03	0.013517534
195	0x08	0.03604676
196	0xd6	-0.18924548
197	0xdc	-0.1622104
198	0x29	0.18473963
199	0xd7	-0.18473963
200	0x1d	0.1306695
201	0xbf	-0.2928799
202	0x30	0.21628055
203	0x01	0.004505845
204	0xe9	-0.10363443
205	0x9d	-0.44607863
206	0xe5	-0.12165781
207	0x3a	0.261339
208	0x1e	0.13517535
209	0xf7	-0.0405526
210	0xf9	-0.031540915
211	0x11	0.07659936
212	0x35	0.23880978
213	0xbe	-0.29738575
214	0xfa	-0.027035069
215	0x28	0.18023379
216	0x29	0.18473963
217	0x14	0.090116896
218	0xf8	-0.03604676
219	0xd8	-0.18023379
220	0xc7	-0.25683317
221	0x05	0.022529224
222	0x14	0.090116896
223	0x06	0.027035069
224	0xc3	-0.27485654
225	0xb7	-0.32892668
226	0xdc	-0.1622104
227	0x1b	0.12165781
228	0x02	0.00901169
229	0xd1	-0.2117747
230	0xd5	-0.19375132
231	0xea	-0.09912859
232	0x0e	0.06308183
233	0xeb	-0.09462274
234	0xed	-0.08561105
235	0xf5	-0.049564295
236	0x3b	0.26584485
237	0xd5	-0.19375132
238	0xeb	-0.09462274
239	0x0f	0.06758767
240	0x0a	0.045058448
241	0x0e	0.06308183
242	0xdc	-0.1622104
243	0xd8	-0.18023379
244	0x2f	0.2117747
245	0xd6	-0.18924548
246	0xc7	-0.25683317
247	0xe2	-0.13517535
248	0xde	-0.15319872
249	0xc9	-0.24782147
250	0xe9	-0.10363443
251	0x3b	0.26584485
252	0xef	-0.07659936
253	0xcf	-0.2207864
254	0x03	0.013517534
255	0x15	0.09462274
