saved_models/Druid/model.tflite (tflite, 476984 bytes, 10 tensors)

sequential/dense_1/BiasAdd/ReadVariableOp f4 [34]
000000 21 0c 53 ba f9 aa c8 bd e2 f3 2b 3d b3 d7 c2 bd
       -0.00080508186 -0.097982354 0.04198063 -0.095137976
000010 0c 36 d5 bd 79 56 d4 3d b1 0c ab 3d 39 98 0b be
       -0.10410699 0.10368056 0.0835203 -0.13632287
000020 2e b5 e8 bc e9 c7 a7 ba b0 6a 4f bb b8 26 c8 bd
       -0.028406706 -0.0012800667 -0.0031649284 -0.0977301
000030 f2 7a b7 3d 91 ab d8 3d 2f 6d 9d bb 63 aa 05 be
       0.08958997 0.10579599 -0.0048042755 -0.13053279
000040 11 b4 ba 3d f7 68 cf bd d8 ab 0d 3e 2f 5a da 3d
       0.09116376 -0.10127442 0.13835084 0.106617324
000050 a8 dc ab 3c 99 31 01 be a2 f8 ae 3d 9b 83 9a 3d
       0.02097924 -0.12616576 0.08543517 0.07544633
000060 63 a0 ce 3c fa 40 0b bd 41 89 be bc 32 2d c9 bd
       0.025222963 -0.033997513 -0.023258807 -0.098230734
000070 df 4a 2c bb ab 10 a8 3d 13 b3 f7 3d 73 7a 61 bb
       -0.0026289744 0.08206304 0.120947026 -0.003440526
000080 1f 39 0a 3e c3 17 e6 bd
       0.13498352 -0.11235001

sequential/dense/BiasAdd/ReadVariableOp f4 [64]
000000 eb 5d 23 be f3 ba ef bb bc eb 76 bc 8e 42 8c bc
       -0.15953796 -0.0073159873 -0.015070852 -0.01712158
000010 52 38 b0 bd 56 9f 71 3d f6 70 00 bc f8 dc 30 bc
       -0.08604492 0.058989845 -0.007839432 -0.010794871
000020 9c 89 ae bb b4 1c 36 3d 72 51 c8 bb 0e a2 e0 bd
       -0.005326463 0.044460967 -0.0061132247 -0.109684095
000030 a4 74 89 bc 17 ff f8 bb 14 83 1b bc 33 5d a9 3d
       -0.016779251 -0.0075987685 -0.009491701 0.082697295
000040 3e 22 84 bd 54 f6 a2 3d 0c ea 76 bd 58 1b b6 bb
       -0.06451844 0.079571396 -0.0602818 -0.005557459
000050 e4 a9 8b 3d 8e 53 79 3d 8a 1e 10 3d 63 db 4f 3e
       0.068195134 0.0608707 0.035185374 0.20298533
000060 15 76 8e bd f5 9d 95 bd 34 9b ea bb 5d e5 05 bd
       -0.06956116 -0.073055185 -0.007159615 -0.03268944
000070 b6 5f ad bc 21 25 cb bb b5 a0 9c bc ff ea f1 bd
       -0.021163803 -0.0061994945 -0.0191196 -0.118124
000080 0d b2 00 3e 88 6d cb bb fa 1a 11 3e 32 27 dc bb
       0.12567921 -0.0062081255 0.14170447 -0.0067185396
000090 c8 4d 0b bc a4 4b ae bd 37 a0 21 be b6 27 2f bc
       -0.008502431 -0.08510521 -0.15783773 -0.01069062
0000a0 27 83 07 be c3 fe b0 3c a1 a8 26 3e bd 24 e0 3d
       -0.13233624 0.021605855 0.16275264 0.10944507
0000b0 99 c7 98 bd 89 06 7f bc b2 4d 86 bd a0 7d 80 3c
       -0.07459945 -0.015565523 -0.06557788 0.015684903
0000c0 18 80 7d 3d 12 f8 35 be 5a 2b e2 bb 72 33 af bd
       0.061889738 -0.17770413 -0.0069021406 -0.08554734
0000d0 26 e3 dd 3d b0 80 08 be 69 8e 85 bb 88 e7 a9 bb
       0.10834341 -0.1333034 -0.0040758145 -0.0051850714
0000e0 5c a3 2f be 95 4e be 3c ed c6 c4 bb 60 74 39 bc
       -0.1715216 0.02323083 -0.006005159 -0.01131925
0000f0 6c 71 1b be 1b a7 d4 bc 89 45 d7 bc cb 8a 9e bc
       -0.15179986 -0.025958588 -0.026278274 -0.019353291

sequential/conv2d/BiasAdd/ReadVariableOp f4 [32]
000000 e0 ff a4 bc 38 52 71 bb db 29 5f bd 24 0b 17 be
       -0.020141542 -0.0036822688 -0.054483276 -0.14750344
000010 88 b7 55 be 77 97 18 3e 56 f9 5b bc c8 b6 79 3d
       -0.20870793 0.14901529 -0.013426146 0.06096533
000020 4f fe 30 bc d5 36 a1 be 23 26 f1 bc 3b e7 60 be
       -0.010802819 -0.31487146 -0.02943713 -0.21963207
000030 a9 75 b2 bc 03 e1 13 be 55 2f bb be 0a 8d fc 3c
       -0.02178462 -0.14441304 -0.3655955 0.030828971
000040 26 9a 47 be 03 e4 09 bd 04 a6 95 bd 18 9f 19 bd
       -0.19492397 -0.033664715 -0.073070556 -0.03750524
000050 37 80 c5 bd 1b 1a 42 3c 37 97 87 bd 21 71 0b bc
       -0.09643596 0.011847044 -0.06620639 -0.008510859
000060 18 63 cb 3d ef d7 3b be 05 79 41 3d 0a 5f 16 be
       0.0993101 -0.18344091 0.047234554 -0.14684692
000070 5e 4d 76 3d c1 7d 69 bd 20 34 57 bd 1e 91 9e bd
       0.060132377 -0.057004694 -0.052539945 -0.07742523

sequential/conv2d_1/BiasAdd/ReadVariableOp f4 [64]
000000 d7 a2 1c be 79 f6 10 3e 50 d1 b8 bd 91 23 a3 bd
       -0.15296493 0.14156522 -0.09024298 -0.07965768
000010 c2 4d 1d be 57 5b 30 be 20 30 6f be 43 9e 22 bc
       -0.15361694 -0.17222343 -0.23358202 -0.009925428
000020 0a 59 22 be 50 07 3e 3e 8c 20 0d be f8 77 2c be
       -0.15854278 0.18557477 -0.13781947 -0.1684264
000030 0c f7 17 bd f1 6e d1 bd 40 c9 8e be a6 a9 f8 bd
       -0.037100837 -0.102262385 -0.27887917 -0.12141733
000040 3e 39 65 be f2 ec d8 bd 2f 65 2a bc 4e c6 7d be
       -0.22385117 -0.10592069 -0.010400101 -0.24782678
000050 88 f6 85 3d cb cd fa bc b1 89 4d be b6 22 2b be
       0.06541163 -0.030615708 -0.20072056 -0.1671246
000060 34 c2 b6 bd 05 62 53 bd 15 3a 3f be 94 ec dd bd
       -0.0892376 -0.05160715 -0.186745 -0.10836139
000070 8d 34 1b be 54 43 00 be fc 98 60 bc 7e 6b f6 bd
       -0.15156765 -0.12525684 -0.013708349 -0.12032221
000080 68 33 d3 3e 8f 4b 8f be 63 b9 8d bd 25 de 71 be
       0.41250157 -0.27987334 -0.06920125 -0.23619898
000090 9a dd 16 be e5 64 5f be 33 5b 8d bd 98 dd 06 3d
       -0.14732972 -0.21815832 -0.069021605 0.032926172
0000a0 1a 58 a2 3c bf 05 33 be 22 46 52 be 82 63 d7 bd
       0.0198174 -0.1748266 -0.20534566 -0.105170265
0000b0 54 4d 00 be 00 69 1c be 2a ce d9 3d d3 40 57 bd
       -0.12529498 -0.1527443 0.10635026 -0.052552056
0000c0 8f 7c 56 be 54 dc ee 3d ef d2 cf bd ce 58 48 be
       -0.20945953 0.11663118 -0.10147654 -0.19565126
0000d0 ca aa 06 be ce 40 40 bc 6c 9a 0d be 47 f0 25 3e
       -0.13151088 -0.011734201 -0.13828439 0.1620494
0000e0 84 8c 2a 3d 3f 2d 01 be 08 cc 5b be a2 e2 11 be
       0.041637912 -0.12614916 -0.2146455 -0.1424661
0000f0 a4 b1 b4 bd 69 2b 0e be b1 08 83 bc 90 e1 de 3d
       -0.08822945 -0.13883747 -0.015995355 0.108828664

sequential/conv2d_2/BiasAdd/ReadVariableOp f4 [64]
000000 7a 67 31 bd 70 f7 41 3c 00 de 85 3c a1 ef 01 be
       -0.043311574 0.011838779 0.01634121 -0.12689067
000010 4d 2a c7 3c a2 7c 76 3d 3d 4e 39 bd 83 d7 2a be
       0.024312163 0.060177453 -0.04524063 -0.16683774
000020 5a 26 30 3d b3 23 20 be 19 28 68 bd 90 f2 04 bd
       0.043005325 -0.15638618 -0.056678865 -0.032457888
000030 fc fa e1 bd 59 1a e5 bd 58 08 04 be 95 6f 11 3e
       -0.110341996 -0.11186666 -0.12893808 0.14202721
000040 3c 04 21 bc 3e 6d 28 be 14 bf ea 3c cb e3 2f bd
       -0.00982767 -0.16447923 0.028655566 -0.04294185
000050 3b 68 b2 39 bc d7 f9 bd 42 bc e4 bd 79 9f 8c bc
       0.00034028463 -0.12199351 -0.1116872 -0.017165886
000060 96 3d 2f be 2e 03 04 be 2c a7 0a be f7 fa b5 3d
       -0.17113337 -0.12891838 -0.13540334 0.08885758
000070 99 0d 8f 3c 88 b2 35 be b6 14 e1 bd 21 87 56 3d
       0.017462539 -0.17743886 -0.109902784 0.052374963
000080 98 da c9 bc d9 1e 15 3c 2c 55 85 bd ce 04 30 be
       -0.024640366 0.009101593 -0.06510386 -0.17189333
000090 52 e0 78 3c de 30 a4 bd 15 42 6f bd b2 f0 2e be
       0.015190201 -0.08017133 -0.05841263 -0.17084005
0000a0 8a fc fd 3d 2a 1c d6 bd 92 d9 05 be 17 f1 00 be
       0.12401684 -0.104545906 -0.13071278 -0.12591968
0000b0 f5 dc 6b bd aa 49 c7 bd 89 93 43 bd af b6 9e bd
       -0.057583768 -0.09730847 -0.047748122 -0.07749688
0000c0 7d b1 48 bd e7 b2 a0 3d bb aa 8b 3d bc 95 26 3e
       -0.04899739 0.07846623 0.06819674 0.16268057
0000d0 47 56 6d bd 79 7b 3e be ca 3b f1 bc 67 c7 b1 bd
       -0.05794361 -0.18601789 -0.029447455 -0.08680611
0000e0 72 ad 74 bc 51 b0 f3 bd 71 fb ab 3d bd 64 f9 3d
       -0.014933931 -0.11898864 0.08397568 0.121774174
0000f0 5b 76 30 be 82 cf fd bd ed 36 15 be 9d 3a 8e be
       -0.17232649 -0.123930946 -0.14571734 -0.27779093

sequential/conv2d/Conv2D f4 [32, 3, 3, 3]
000000 a7 4d 7d 3e 78 35 8f 3d b5 a3 4a 3e 03 57 4a 3e
       0.24736653 0.0699262 0.19789012 0.19759755
000010 25 a7 3e 3e a1 40 b9 3d 9c 42 32 bc 3f 4f 93 bc
       0.18618448 0.0904553 -0.010880139 -0.017982123
000020 ff 11 95 3d 44 4b e1 3d 4f e4 11 3e 8f d3 cf 3c
       0.07278823 0.11000684 0.14247249 0.025369434
000030 ba 4d d2 bd 9f ed 1a be 2b f7 5c bc 0b 22 41 be
       -0.102687314 -0.15129708 -0.013486664 -0.18860643
000040 3c 99 6f be 02 78 e5 bd f1 46 1a be 91 68 8b be
       -0.23398298 -0.1120453 -0.15066124 -0.27228215
000050 9e ec 89 be 08 8f 1b be f4 17 7c be 6b 4b ad bd
       -0.26938337 -0.15191281 -0.24618512 -0.084616505
000060 97 c0 92 bd fa 27 e5 bd b1 98 63 be 11 5b ce bd
       -0.0716564 -0.111892655 -0.22226216 -0.10075963
000070 5e 38 3a 3e c9 60 e2 bd b0 c2 da bc a3 3c a5 3d
       0.18185565 -0.110536166 -0.026704162 0.08068206
000080 b6 63 b1 3c 47 6a 75 be ca 3d 6e bd a4 86 32 be
       0.021653991 -0.23966323 -0.058164395 -0.17434174
000090 55 7d 7f be 9f 5d 56 bc be 5e 5c bd b4 25 65 be
       -0.24950154 -0.013083844 -0.05380129 -0.22377664
0000a0 1b b1 6c 3d c0 48 b0 3c 8a 40 a1 be 3d 2f dc 3b
       0.05778609 0.021519065 -0.31494552 0.0067194984
0000b0 25 38 36 be 0e ad 26 3d 7b 68 06 3e 67 6f dd bd
       -0.17794855 0.04069238 0.13125794 -0.10812264
0000c0 14 7b ce bd 54 8e 3f 3e 9b 5c 12 be fe 34 f7 bd
       -0.10082069 0.18706638 -0.14293139 -0.12070654
0000d0 a3 4e 7f 3e 1e fe e6 3d d3 b7 b2 ba 9a 04 00 3e
       0.24932341 0.11278938 -0.0013635106 0.12501755
0000e0 66 48 3c 3d 67 58 12 3e c4 f4 16 3e 73 c9 56 bd
       0.045967482 0.14291535 0.14741808 -0.05243821
0000f0 97 a5 f5 bd 2f 47 aa 3d 41 6a 6c bd 57 ab 95 be
       -0.119944744 0.083143584 -0.05771852 -0.29232284
000100 a8 f2 0e be 80 dc 22 be 29 c6 c5 3b 9a eb 5e 3d
       -0.13959754 -0.15904427 0.0060355854 0.054423906
000110 1c fe 6d bd 44 81 0f be b3 f0 1b 3e ec ea b2 bc
       -0.058103666 -0.14014155 0.15228538 -0.021840535
000120 12 78 e0 bc 96 57 3b bd 5c 04 99 bd 80 86 3a be
       -0.027401004 -0.045737825 -0.074715346 -0.1821537
000130 e0 9c 70 3d 3e db 7f be 10 85 87 bd e8 5a 47 3e
       0.058743358 -0.24985978 -0.066171765 0.19468272
000140 93 66 00 3e 87 b3 27 be a5 21 2f 3d 91 ab 35 3e
       0.12539129 -0.16377078 0.042756695 0.17741229
000150 05 de c1 bd 6c cb 0f 3d f3 12 19 3e 97 ad be bc
       -0.09466175 0.035106108 0.14948635 -0.023276133
000160 9c c7 aa 3d 7b a5 9d 3d f4 b8 c4 bd 00 2e c9 bb
       0.08338854 0.076975785 -0.096055895 -0.006139517
000170 45 fa 20 3e 6c 84 ab bc 23 a8 a6 3c 9b a8 26 3e
       0.1572047 -0.020937167 0.020343846 0.16275255
000180 6f 42 28 be 7d 27 ae 3d e3 a1 66 3e c8 55 ac bd
       -0.16431592 0.085036255 0.22522692 -0.08414799
000190 ec 81 18 3e b5 f1 ef 3d a5 92 8f 3d 2e df 34 bd
       0.14893311 0.11716024 0.07010392 -0.044158153
0001a0 78 2c 61 3e cf 52 a8 3d b4 89 38 3c cc 5a 54 3e
       0.2198962 0.082189195 0.0112633 0.20737761
0001b0 09 61 37 3e 84 81 96 3d b8 33 42 be d6 dc 2c 3e
       0.1790811 0.07348922 -0.18965042 0.16881117
0001c0 19 89 21 3e 81 15 98 bd a6 34 dc 3d 28 27 24 3e
       0.15774955 -0.074259765 0.107522294 0.16030562
0001d0 87 1d 03 be ab 8a 9d bc ca d9 9c 3d f2 35 82 bd
       -0.12804233 -0.019231161 0.076587275 -0.063579455
0001e0 6c 16 db 3d 35 e2 fd 3d b1 1f 81 be 29 73 c9 3d
       0.10697636 0.12396661 -0.2521949 0.09836418
0001f0 84 19 15 3e a9 0c 6b be ab db 72 3d 44 47 5b bd
       0.14560515 -0.22954048 0.059291523 -0.05353476
000200 09 d1 bf bc 3c 97 17 3d d9 9c d1 3d a6 73 84 be
       -0.023415105 0.037009463 0.102349944 -0.25869483
000210 2d 33 40 3d ca 2e 0f bd 4c 7a d2 bd dc 7b a5 3d
       0.046923805 -0.03495673 -0.102772325 0.08080265
000220 e4 16 d1 bd fb a0 14 3d 6f c2 b6 bd 3f 27 8f be
       -0.10209444 0.036286335 -0.08923804 -0.2795963
000230 40 d1 05 be 5f 6f 69 bd 62 f9 92 be d2 3b 0f bd
       -0.13068104 -0.056990977 -0.2870589 -0.03496916
000240 15 25 25 be 2c 83 87 3c 15 d1 09 be b9 7e cc bd
       -0.16127427 0.01654204 -0.13458665 -0.09985108
000250 25 cf b3 3c b6 84 a5 3d 94 43 e6 bd 41 5b 7b be
       0.02194936 0.08081953 -0.11243358 -0.2454653
000260 df 01 47 3d a1 f5 46 be 4c 2c 60 be c8 2c 6b bd
       0.04858577 -0.19429637 -0.21891898 -0.057415754
000270 5a 3a 12 3d 9a d0 5e 3d db fd 29 bd c8 05 43 be
       0.03570018 0.054398157 -0.04150186 -0.19045174
000280 1c 31 00 3b 4f 89 85 3d 32 59 7d be c5 54 15 3e
       0.0019560521 0.0652033 -0.24741057 0.14583118
000290 62 3d 4e be 42 3f d9 bd 1a 72 dc bd ab 68 09 be
       -0.20140603 -0.106077686 -0.10763951 -0.13418834
0002a0 bd 7b aa be 21 56 19 be e4 5a 59 bb 9d 9b 77 be
       -0.3329753 -0.14974262 -0.0033165747 -0.24180456
0002b0 5f 83 96 bd 77 26 43 be 35 14 9f be f1 d6 d1 bd
       -0.07349276 -0.19057642 -0.31070104 -0.10246075
0002c0 78 24 8f bd 1d e5 6b be 46 d8 e8 bc 2d 00 0a be
       -0.06989378 -0.23036619 -0.02842344 -0.1347663
0002d0 bc b4 01 bd 3f 08 9a 3e 4e 9b 18 3e c1 5b 66 3d
       -0.031666502 0.30084416 0.14902994 0.056239847
0002e0 d7 83 a9 3e 00 a6 36 3d a2 61 1c 3e b9 eb 5c 3e
       0.33108398 0.044591904 0.15271619 0.21574296
0002f0 09 05 2d 3e 02 f8 41 3e 61 59 cf bd ab ef 71 3e
       0.16896452 0.18942264 -0.101244695 0.23626582
000300 9f 67 31 3e 29 c2 59 be 94 73 5e 3e 8c c7 d9 3c
       0.17324685 -0.21265472 0.21723777 0.02658441
000310 1c 1d 65 be 48 dc 17 bc f7 47 00 3e 77 13 85 be
       -0.22374386 -0.009268828 0.12527452 -0.25991413
000320 7a 08 f1 3d c6 ec 40 3e d3 24 74 be 39 e6 1c 3e
       0.11769195 0.18840322 -0.23842172 0.15322198
000330 63 b0 4c bd e1 2f 5c be d6 6e 2e 3e a2 e9 5b bd
       -0.049972903 -0.2150264 0.17034468 -0.053689606
000340 2d da b3 be 00 97 90 3c df 51 0f 3e 8b 8b 16 be
       -0.35127392 0.017650127 0.13996075 -0.14701669
000350 4a 41 2e bc c0 15 67 3c c4 a5 8b be b6 6b 3c 3e
       -0.010635683 0.014104307 -0.27274907 0.18400463
000360 4e 2b 37 3e 46 20 98 3d 93 84 36 bd 44 b2 22 3e
       0.17887613 0.07428031 -0.044560026 0.15888315
000370 0a f3 de 3d fa f1 06 be 98 c3 a9 3b 11 c6 9b 3d
       0.108862 -0.13178244 0.0051807873 0.076061375
000380 d5 33 14 be f9 cb 12 3e e0 3b fa bd 8f ff 7a bc
       -0.14472897 0.14335622 -0.122184515 -0.015319719
000390 e8 a7 71 3d 1f 5e 1e be 16 50 89 3d dc 30 23 3e
       0.05899802 -0.15465592 0.06704728 0.15936607
0003a0 20 8f 93 bc 5f b5 24 be ac c1 0e be 39 77 92 be
       -0.018012583 -0.16084813 -0.13941067 -0.28606585
0003b0 ad a6 82 bd 9c 2b 87 bd a1 84 46 be b3 f4 d6 3c
       -0.06379447 -0.06600115 -0.19386531 0.026239729
0003c0 30 72 71 3c 7f 62 88 be 4d 02 2b be 23 e4 6d 3d
       0.014736697 -0.26637647 -0.16700096 0.058078896
0003d0 d8 5e fa bd ef 9a 0c 3d 14 ed 3d bd 0e 8d 89 bc
       -0.12225121 0.034327444 -0.046368673 -0.016790893
0003e0 25 20 d0 bc ff 13 fb bd dc ff 97 bd ad 08 55 bd
       -0.025405953 -0.12259673 -0.07421848 -0.052010227
0003f0 72 4a 11 bb 44 82 a4 3d 24 a9 f7 bd 26 f5 b9 3d
       -0.0022169617 0.08032659 -0.12092808 0.090799615

sequential/conv2d_1/Conv2D i1 [64, 3, 3, 32]
000000 cf 26 1e da 05 07 2f c5 e9 e7 14 bf 3d 24 17 01
       -49 38 30 -38 5 7 47 -59 -23 -25 20 -65 61 36 23 1
000010 01 15 0b 1c ee ef ef 15 ec 0f 24 b9 0e 04 26 fe
       1 21 11 28 -18 -17 -17 21 -20 15 36 -71 14 4 38 -2
000020 e4 37 31 fa 17 02 2d a7 ff eb 01 ba 44 23 04 f7
       -28 55 49 -6 23 2 45 -89 -1 -21 1 -70 68 35 4 -9
000030 15 18 f3 26 d5 f1 fc 07 ec 08 f6 d7 15 22 24 d3
       21 24 -13 38 -43 -15 -4 7 -20 8 -10 -41 21 34 36 -45
000040 e3 2c 3b 01 0a fc 5a b6 ee ef 0a a8 35 2c e5 16
       -29 44 59 1 10 -4 90 -74 -18 -17 10 -88 53 44 -27 22
000050 fe 12 11 1a ce 03 09 1b e1 ec e1 c6 1a 12 2c e7
       -2 18 17 26 -50 3 9 27 -31 -20 -31 -58 26 18 44 -25
000060 cf 3d 11 05 16 ec 2e ae f8 ed ef b9 48 21 fe 18
       -49 61 17 5 22 -20 46 -82 -8 -19 -17 -71 72 33 -2 24
000070 08 21 0d 18 d3 02 f3 04 c8 17 ff e8 1f 0e 1e ef
       8 33 13 24 -45 2 -13 4 -56 23 -1 -24 31 14 30 -17
000080 bf 1e 39 f0 02 ff 34 81 ee 06 0b af 2c 23 ef f3
       -65 30 57 -16 2 -1 52 -127 -18 6 11 -81 44 35 -17 -13
000090 fb 14 0d 1f f3 f0 24 1b bc 0a 1e e5 23 1a 35 de
       -5 20 13 31 -13 -16 36 27 -68 10 30 -27 35 26 53 -34
0000a0 bf 12 3f 08 12 d8 49 b7 ec f1 f5 b3 2b 0c f0 f0
       -65 18 63 8 18 -40 73 -73 -20 -15 -11 -77 43 12 -16 -16
0000b0 f2 29 1b 1c d9 e5 0c d0 cd fb 03 de 18 ea 26 01
       -14 41 27 28 -39 -27 12 -48 -51 -5 3 -34 24 -22 38 1
0000c0 e6 16 32 e4 0a fc 11 a4 f9 da 0a af 39 32 0d ff
       -26 22 50 -28 10 -4 17 -92 -7 -38 10 -81 57 50 13 -1
0000d0 f9 06 e2 2a de eb e5 03 b2 03 10 ca 15 1c 2c d3
       -7 6 -30 42 -34 -21 -27 3 -78 3 16 -54 21 28 44 -45
0000e0 f1 1f 25 f7 14 ee 1b c0 ec 03 0d c8 3d 29 ff 03
       -15 31 37 -9 20 -18 27 -64 -20 3 13 -56 61 41 -1 3
0000f0 0b 2e f9 19 d5 d6 1e 0b d2 ff e6 cf ec 17 33 ef
       11 46 -7 25 -43 -42 30 11 -46 -1 -26 -49 -20 23 51 -17

sequential/conv2d_2/Conv2D i1 [64, 3, 3, 64]
000000 0a cf eb f4 29 15 db 65 15 e6 eb 39 dc cf 33 c9
       10 -49 -21 -12 41 21 -37 101 21 -26 -21 57 -36 -49 51 -55
000010 eb 21 f9 1a f4 c2 f2 ea cb e9 30 26 f0 0d ef d7
       -21 33 -7 26 -12 -62 -14 -22 -53 -23 48 38 -16 13 -17 -41
000020 cc 27 dd 23 fb 0e ec e5 e1 0b 40 d3 24 f8 44 0a
       -52 39 -35 35 -5 14 -20 -27 -31 11 64 -45 36 -8 68 10
000030 29 ed 07 19 ec 2b f7 a0 d0 1c 0e eb 16 f5 e6 e9
       41 -19 7 25 -20 43 -9 -96 -48 28 14 -21 22 -11 -26 -23
000040 e5 cd cf 11 db e3 ca 4a e2 ff d7 04 0a d5 e9 0a
       -27 -51 -49 17 -37 -29 -54 74 -30 -1 -41 4 10 -43 -23 10
000050 ca f1 21 d9 02 05 dc d0 f9 d8 f0 d8 cd 16 e2 e2
       -54 -15 33 -39 2 5 -36 -48 -7 -40 -16 -40 -51 22 -30 -30
000060 27 db 13 f4 e8 c2 ef e5 dd e2 fe f7 29 1f 2a 25
       39 -37 19 -12 -24 -62 -17 -27 -35 -30 -2 -9 41 31 42 37
000070 d5 f0 f8 f4 ed 1e da f2 eb eb f7 f3 f1 de cf d8
       -43 -16 -8 -12 -19 30 -38 -14 -21 -21 -9 -13 -15 -34 -49 -40
000080 05 00 eb 36 b4 df ee 00 eb 0f e0 bb 2b f3 a1 12
       5 0 -21 54 -76 -33 -18 0 -21 15 -32 -69 43 -13 -95 18
000090 aa 98 fd 85 1e 0b b8 f5 f9 d8 b6 b3 d9 ef e1 04
       -86 -104 -3 -123 30 11 -72 -11 -7 -40 -74 -77 -39 -17 -31 4
0000a0 27 a2 39 d0 c6 81 f3 e3 fe d6 d5 09 e8 03 1f 2f
       39 -94 57 -48 -58 -127 -13 -29 -2 -42 -43 9 -24 3 31 47
0000b0 92 f9 d4 f8 02 20 ff 18 1f d8 bf f0 d0 ea d8 e5
       -110 -7 -44 -8 2 32 -1 24 31 -40 -65 -16 -48 -22 -40 -27
0000c0 22 a1 d7 da 27 19 e1 62 f4 b9 e8 44 c4 b8 42 d5
       34 -95 -41 -38 39 25 -31 98 -12 -71 -24 68 -60 -72 66 -43
0000d0 1f 32 e6 38 e6 c9 1a de f7 cd 2d 33 fd 07 04 d9
       31 50 -26 56 -26 -55 26 -34 -9 -51 45 51 -3 7 4 -39
0000e0 b4 36 ef fc f0 fc e7 db c5 0d 4e d1 26 fc 35 11
       -76 54 -17 -4 -16 -4 -25 -37 -59 13 78 -47 38 -4 53 17
0000f0 2c ea 04 fe 09 07 0a a9 c6 24 f7 07 ff f3 ef dd
       44 -22 4 -2 9 7 10 -87 -58 36 -9 7 -1 -13 -17 -35

sequential/dense/MatMul i1 [64, 6400] scale=0.0047224364 zero_point=0
000000 06 0d 0e ec fa f7 02 c4 c1 f1 f4 f4 e3 e1 f3 19
       0.028334618 0.061391674 0.06611411 -0.09444873 -0.028334618 -0.042501926 0.009444873 -0.28334618 -0.29751348 -0.070836544 -0.056669235 -0.056669235 -0.13695066 -0.14639553 -0.061391674 0.11806091
000010 05 e9 e6 d7 04 d8 03 db dc f8 d8 f1 b2 fb 1d 0d
       0.023612183 -0.10861604 -0.12278335 -0.19361989 0.018889746 -0.18889746 0.014167309 -0.17473015 -0.1700077 -0.03777949 -0.18889746 -0.070836544 -0.36835003 -0.023612183 0.13695066 0.061391674
000020 0d c1 fb f9 16 16 d2 e7 ec ff cc f4 e3 ee bd e9
       0.061391674 -0.29751348 -0.023612183 -0.033057056 0.1038936 0.1038936 -0.21723208 -0.11806091 -0.09444873 -0.0047224364 -0.2455667 -0.056669235 -0.13695066 -0.08500385 -0.31640324 -0.10861604
000030 07 12 05 1e eb e0 dc 04 da 02 16 c7 f4 19 f2 f4
       0.033057056 0.08500385 0.023612183 0.14167309 -0.09917116 -0.15111797 -0.1700077 0.018889746 -0.17945258 0.009444873 0.1038936 -0.26917887 -0.056669235 0.11806091 -0.06611411 -0.056669235
000040 0d 16 fe ee fe 00 fb d9 e9 e6 ef 0c f0 df ea 1f
       0.061391674 0.1038936 -0.009444873 -0.08500385 -0.009444873 0.0 -0.023612183 -0.18417501 -0.10861604 -0.12278335 -0.08028142 0.056669235 -0.07555898 -0.1558404 -0.1038936 0.14639553
000050 19 ec df f8 0d d3 00 fa e8 f3 e9 f4 a8 03 11 29
       0.11806091 -0.09444873 -0.1558404 -0.03777949 0.061391674 -0.21250963 0.0 -0.028334618 -0.11333847 -0.061391674 -0.10861604 -0.056669235 -0.4155744 0.014167309 0.08028142 0.19361989
000060 0b df fe f9 0f 1d d1 f4 fb 09 de e4 01 f5 d0 df
       0.0519468 -0.1558404 -0.009444873 -0.033057056 0.070836544 0.13695066 -0.22195451 -0.056669235 -0.023612183 0.042501926 -0.16056284 -0.13222823 0.0047224364 -0.0519468 -0.22667694 -0.1558404
000070 00 22 ff 18 04 fa cc 0b fa 25 29 d8 fb 01 f0 fd
       0.0 0.16056284 -0.0047224364 0.11333847 0.018889746 -0.028334618 -0.2455667 0.0519468 -0.028334618 0.17473015 0.19361989 -0.18889746 -0.023612183 0.0047224364 -0.07555898 -0.014167309
000080 04 1d 00 fd 06 fb 00 06 01 f7 f4 10 fa f0 f1 0c
       0.018889746 0.13695066 0.0 -0.014167309 0.028334618 -0.023612183 0.0 0.028334618 0.0047224364 -0.042501926 -0.056669235 0.07555898 -0.028334618 -0.07555898 -0.070836544 0.056669235
000090 09 d4 e8 fe 0b eb fe 0a de fc ee f0 cb 09 14 19
       0.042501926 -0.2077872 -0.11333847 -0.009444873 0.0519468 -0.09917116 -0.009444873 0.047224365 -0.16056284 -0.018889746 -0.08500385 -0.07555898 -0.25028914 0.042501926 0.09444873 0.11806091
0000a0 03 ec 01 0d 13 15 d7 f1 eb 12 ee f7 e0 fd e3 da
       0.014167309 -0.09444873 0.0047224364 0.061391674 0.08972629 0.09917116 -0.19361989 -0.070836544 -0.09917116 0.08500385 -0.08500385 -0.042501926 -0.15111797 -0.014167309 -0.13695066 -0.17945258
0000b0 03 24 06 17 18 de ce 04 ff 39 24 ed 04 fc e9 f8
       0.014167309 0.1700077 0.028334618 0.10861604 0.11333847 -0.16056284 -0.23612182 0.018889746 -0.0047224364 0.26917887 0.1700077 -0.08972629 0.018889746 -0.018889746 -0.10861604 -0.03777949
0000c0 f9 08 04 fb ee e8 fe 11 0d f6 02 0e 02 ed d7 f8
       -0.033057056 0.03777949 0.018889746 -0.023612183 -0.08500385 -0.11333847 -0.009444873 0.08028142 0.061391674 -0.047224365 0.009444873 0.06611411 0.009444873 -0.08972629 -0.19361989 -0.03777949
0000d0 01 cd f3 06 08 e4 f2 12 de f0 e8 ea de fe 18 09
       0.0047224364 -0.24084426 -0.061391674 0.028334618 0.03777949 -0.13222823 -0.06611411 0.08500385 -0.16056284 -0.07555898 -0.11333847 -0.1038936 -0.16056284 -0.009444873 0.11333847 0.042501926
0000e0 03 f9 f6 05 08 0b db ec e2 12 fa f3 d6 f2 ee ec
       0.014167309 -0.033057056 -0.047224365 0.023612183 0.03777949 0.0519468 -0.17473015 -0.09444873 -0.14167309 0.08500385 -0.028334618 -0.061391674 -0.19834232 -0.06611411 -0.08500385 -0.09444873
0000f0 09 10 ef 15 0a f7 f1 07 f6 25 21 f1 09 fc e7 e9
       0.042501926 0.07555898 -0.08028142 0.09917116 0.047224365 -0.042501926 -0.070836544 0.033057056 -0.047224365 0.17473015 0.1558404 -0.070836544 0.042501926 -0.018889746 -0.11806091 -0.10861604

sequential/dense_1/MatMul i1 [34, 64] scale=0.005576284 zero_point=0
000000 2f 26 f6 ce 19 24 08 02 d8 15 e1 40 d8 de 09 e3
       0.26208535 0.2118988 -0.055762842 -0.2788142 0.1394071 0.20074622 0.044610273 0.011152568 -0.22305137 0.11710197 -0.17286481 0.35688218 -0.22305137 -0.18959366 0.050186556 -0.16171224
000010 ff c5 f5 16 d9 03 d6 dc 26 e0 f1 1a b5 d8 e1 2f
       -0.005576284 -0.32900077 -0.061339125 0.12267825 -0.21747509 0.016728852 -0.23420393 -0.20074622 0.2118988 -0.17844109 -0.08364426 0.14498338 -0.41822132 -0.22305137 -0.17286481 0.26208535
000020 07 0a f8 00 e1 35 f3 1e 0f d5 16 fc 31 d9 df 39
       0.03903399 0.055762842 -0.044610273 0.0 -0.17286481 0.29554304 -0.07249169 0.16728853 0.08364426 -0.23978022 0.12267825 -0.022305137 0.2732379 -0.21747509 -0.18401738 0.3178482
000030 d8 07 fe e5 c7 ec e2 fd 2d 03 eb e0 fb e7 0d e6
       -0.22305137 0.03903399 -0.011152568 -0.15055968 -0.3178482 -0.111525685 -0.16728853 -0.016728852 0.25093278 0.016728852 -0.11710197 -0.17844109 -0.027881421 -0.1394071 0.07249169 -0.14498338
000040 f9 e8 10 16 0e e0 e5 bf 21 e9 15 28 e9 db ff 0b
       -0.03903399 -0.13383082 0.089220546 0.12267825 0.07806798 -0.17844109 -0.15055968 -0.36245847 0.18401738 -0.12825453 0.11710197 0.22305137 -0.12825453 -0.2063225 -0.005576284 0.061339125
000050 e1 bd fd 1e f6 d8 21 2e ff 23 14 e4 e9 ec ca f9
       -0.17286481 -0.37361103 -0.016728852 0.16728853 -0.055762842 -0.22305137 0.18401738 0.25650907 -0.005576284 0.19516994 0.111525685 -0.15613596 -0.12825453 -0.111525685 -0.30111936 -0.03903399
000060 ea 08 0d 11 14 fd ce f9 f4 dd 14 ec e2 15 1a c7
       -0.12267825 0.044610273 0.07249169 0.09479683 0.111525685 -0.016728852 -0.2788142 -0.03903399 -0.06691541 -0.19516994 0.111525685 -0.111525685 -0.16728853 0.11710197 0.14498338 -0.3178482
000070 2c ba 29 2f d6 1b fe 23 00 fb 0b dd c9 d6 2a fc
       0.2453565 -0.39033988 0.22862765 0.26208535 -0.23420393 0.15055968 -0.011152568 0.19516994 0.0 -0.027881421 0.061339125 -0.19516994 -0.30669564 -0.23420393 0.23420393 -0.022305137
000080 fd d2 22 b9 d7 1e f4 27 f8 26 0d fa f6 f6 d3 3f
       -0.016728852 -0.25650907 0.18959366 -0.39591616 -0.22862765 0.16728853 -0.06691541 0.21747509 -0.044610273 0.2118988 0.07249169 -0.033457704 -0.055762842 -0.055762842 -0.25093278 0.3513059
000090 e4 f5 ee 10 16 0f f8 ed d2 21 d8 de d4 2b fb 05
       -0.15613596 -0.061339125 -0.10037311 0.089220546 0.12267825 0.08364426 -0.044610273 -0.1059494 -0.25650907 0.18401738 -0.22305137 -0.18959366 -0.2453565 0.23978022 -0.027881421 0.027881421
0000a0 e3 df f9 fc 06 15 05 30 0b 37 37 ca 19 08 f1 22
       -0.16171224 -0.18401738 -0.03903399 -0.022305137 0.033457704 0.11710197 0.027881421 0.26766163 0.061339125 0.30669564 0.30669564 -0.30111936 0.1394071 0.044610273 -0.08364426 0.18959366
0000b0 fc af 0f 05 12 de db db f1 db 29 f7 28 e8 e6 db
       -0.022305137 -0.45167902 0.08364426 0.027881421 0.10037311 -0.18959366 -0.2063225 -0.2063225 -0.08364426 -0.2063225 0.22862765 -0.050186556 0.22305137 -0.13383082 -0.14498338 -0.2063225
0000c0 d8 05 ec fe fb c5 d4 d5 16 d5 1a e4 f9 26 24 18
       -0.22305137 0.027881421 -0.111525685 -0.011152568 -0.027881421 -0.32900077 -0.2453565 -0.23978022 0.12267825 -0.23978022 0.14498338 -0.15613596 -0.03903399 0.2118988 0.20074622 0.13383082
0000d0 20 0f fb 00 e0 dd dc e0 09 30 ea 17 fa 28 06 d5
       0.17844109 0.08364426 -0.027881421 0.0 -0.17844109 -0.19516994 -0.20074622 -0.17844109 0.050186556 0.26766163 -0.12267825 0.12825453 -0.033457704 0.22305137 0.033457704 -0.23978022
0000e0 d9 27 0d 10 e8 08 c6 06 17 ea ed e0 d0 20 f9 e4
       -0.21747509 0.21747509 0.07249169 0.089220546 -0.13383082 0.044610273 -0.3234245 0.033457704 0.12825453 -0.12267825 -0.1059494 -0.17844109 -0.26766163 0.17844109 -0.03903399 -0.15613596
0000f0 ed c1 e3 3c 14 38 1a 00 f5 bb f3 e0 0d e2 01 d4
       -0.1059494 -0.3513059 -0.16171224 0.33457705 0.111525685 0.31227192 0.14498338 0.0 -0.061339125 -0.3847636 -0.07249169 -0.17844109 0.07249169 -0.16728853 0.005576284 -0.2453565
