saved_model_icons/DeathKnight copy/model.tflite (tflite, 476616 bytes, 10 tensors)

sequential_3/dense_6/BiasAdd/ReadVariableOp f4 [64]
000000 54 ca 62 bc 24 2c 2f ba f7 c4 c4 bb 40 cb 21 3d
       -0.013842184 -0.00066822977 -0.0060049254 0.039500475
000010 a9 d0 c4 bb 24 90 b8 bc 32 a5 04 bd ee 18 6b bd
       -0.0060063195 -0.02252967 -0.032384105 -0.05739682
000020 12 bc c4 bb 68 c3 7b bd a7 b6 a0 bc cd 4b a4 3d
       -0.006003865 -0.06146565 -0.019618345 0.0802227
000030 5d d1 a8 bb df bb c4 bb bd 68 ae bb 94 7b 1a bd
       -0.005151911 -0.0060038413 -0.0053225444 -0.03771551
000040 a6 b5 87 bc 01 33 f4 bb c4 b5 2e 3c 42 8b dc bd
       -0.016566109 -0.007452369 0.0106634535 -0.10768749
000050 82 c1 c4 bb bf c5 c4 bb 39 87 e4 bd 87 08 10 3d
       -0.0060045132 -0.0060050185 -0.11158604 0.035164382
000060 f2 2c 87 bd 87 1a 65 bd f1 3a 1b 3d f9 eb 23 bd
       -0.066003695 -0.0559335 0.037898008 -0.040019963
000070 ce b5 8d bd 9a db 3f 3d 67 8c 9b bd 57 8b 83 bd
       -0.06919442 0.046840288 -0.07595139 -0.06423061
000080 b0 8a da bc 28 01 09 3d ad 73 3d 3c 03 04 60 bd
       -0.02667746 0.03344837 0.011563224 -0.054691326
000090 c3 98 d8 3c 81 c5 c4 bb df 75 02 bd 6e fd c6 bb
       0.02644003 -0.0060049896 -0.031850692 -0.0060726916
0000a0 c2 a8 3b 3c b2 27 71 bd fd dc 45 bc b3 c2 c4 bb
       0.011453809 -0.058875747 -0.0120766135 -0.0060046553
0000b0 d2 e7 c4 bb 19 4e 20 3b 46 c2 c4 bb ff c7 c4 bb
       -0.0060090804 0.0024460612 -0.0060046045 -0.0060052867
0000c0 99 86 c5 3b a3 28 8f bd a0 96 b5 3d d4 e8 38 bd
       0.006028008 -0.06990173 0.0886662 -0.045143917
0000d0 2c d1 93 bc 41 1b 16 bd 1e 51 c9 bd d3 c5 c4 bb
       -0.018044077 -0.036647085 -0.09829925 -0.006005028
0000e0 c0 ca d5 3d 20 c4 c4 bb 54 fb 94 3d 73 03 83 3d
       0.10439062 -0.0060048252 0.072744995 0.06397142
0000f0 e7 f0 f1 bd 36 8a c8 3c 8d 48 79 bd a9 3e be 3b
       -0.118135266 0.024479967 -0.060860205 0.0058058095

sequential_3/dense_7/BiasAdd/ReadVariableOp f4 [27]
000000 b2 bd ac bd f5 98 e4 bd 59 3b 52 bd a2 b5 dd 3c
       -0.08434619 -0.11161987 -0.05132613 0.027064148
000010 b8 af 4f bd 43 57 92 bd 6f bf 95 bd 99 bf 64 3d
       -0.050704688 -0.0714555 -0.07311904 0.055846784
000020 24 f7 1c 3c d3 05 af 3d a8 fb 17 3e c8 72 81 bd
       0.009580407 0.08546033 0.14842093 -0.06320721
000030 f3 60 03 3d d1 31 34 bc 7f 3b 96 3d 25 34 24 3d
       0.03207488 -0.010998205 0.07335567 0.04008879
000040 b2 00 e0 bc 0b e7 d2 bd 20 d0 49 bd 16 f1 13 3d
       -0.027344082 -0.10297974 -0.04927075 0.03611859
000050 f7 92 9f bc c0 97 3c 3d 4a ce 17 3d 48 d8 91 bd
       -0.019479258 0.046043158 0.037061967 -0.071213305
000060 d5 4f 4f bb 21 30 0a 3d b4 97 1f bd
       -0.0031633277 0.033737306 -0.038963035

sequential_3/conv2d_9/BiasAdd/ReadVariableOp f4 [32]
000000 db cf 83 bd d7 ea c5 bd 77 27 cc bd 7b 8f 23 be
       -0.0643613 -0.09663933 -0.09968465 -0.15972702
000010 6e 6e 45 3c cb f0 24 bd 0f 5d 3e bd d8 58 d6 bd
       0.012050254 -0.0402687 -0.046475466 -0.10466164
000020 2e 4c e1 bd 2c ff ac 3d 46 92 1e be 29 26 63 3c
       -0.11000858 0.08447108 -0.15485486 0.013864079
000030 2e a7 6a bd e3 fd 3e be e1 bb 2d bd d0 fc 8a be
       -0.05728834 -0.18651538 -0.042415503 -0.27146006
000040 3c 96 74 bc d3 c5 31 bd e8 0d 99 bd ad cd af bd
       -0.014928397 -0.04340155 -0.074733555 -0.085841514
000050 89 28 d9 bd 2f e7 2b bd 6e b0 0f 3e 39 6d 1f 3d
       -0.106034346 -0.04196852 0.14032146 0.038922522
000060 71 90 12 be e3 be 95 bd 3a e8 92 bd d1 3a ec 3d
       -0.14312913 -0.073117994 -0.071732 0.11534656
000070 0f 68 b7 bd 26 27 a8 bd da 04 a9 bc 08 75 53 be
       -0.089553945 -0.08210592 -0.020632196 -0.20650113

sequential_3/conv2d_10/BiasAdd/ReadVariableOp f4 [64]
000000 fe 74 fb bd 2b 31 0f be 7c 87 01 be 12 5f 05 be
       -0.12278174 -0.139836 -0.1264934 -0.13024548
000010 33 88 71 bd ce 63 29 be 98 8e af bd 80 b3 ba 3d
       -0.05896778 -0.16541979 -0.085721195 0.09116268
000020 8f 51 22 bc ee 7c e8 bd 9e 23 c0 bd d8 98 5f 3e
       -0.00990714 -0.113519534 -0.093817934 0.21835649
000030 d6 20 ab bc 73 f5 76 bd b2 96 24 be 56 0b 8d 3d
       -0.02088968 -0.060292672 -0.1607311 0.06886928
000040 ab 07 f0 bd 34 70 01 be ef 17 3b be c3 7b 1b be
       -0.117202125 -0.12640458 -0.18270849 -0.1518393
000050 9f eb 03 be 9f 59 ab bc 3e f0 12 3e bb 09 05 be
       -0.12882851 -0.020916758 0.14349458 -0.12991993
000060 97 d5 f4 bd ff a4 b9 bd af 4f 9a 3e 93 fd f7 bb
       -0.119548015 -0.09064674 0.3013892 -0.00756807
000070 e7 9f e9 bd fa 76 9b bd 18 97 a3 bb ef b1 86 bd
       -0.11407452 -0.07591052 -0.004992377 -0.06576907
000080 00 9d 66 bd f7 11 13 be e2 20 1b be 69 cb 78 bd
       -0.05630207 -0.14362322 -0.15149263 -0.060740862
000090 37 4b c4 bd bb d8 77 3e 36 21 7a 3e 37 63 1e bd
       -0.095846586 0.2420377 0.24426731 -0.038668837
0000a0 dd 77 ca bd 98 31 2d be d3 62 19 be 29 1a 77 bd
       -0.09886143 -0.1691345 -0.14979105 -0.060327683
0000b0 9a 85 ef bd a5 33 a7 bd 0d 07 d4 bd b9 bb b7 3d
       -0.11695404 -0.08164147 -0.10352907 0.08971352
0000c0 fc a1 48 be 8b 4e 6d 3c 93 03 a7 3e fe 99 97 bd
       -0.19593042 0.014484058 0.32619914 -0.074024186
0000d0 4c 25 5e bd ce 87 dd bd 1d 36 9a 3c 45 c8 fe bd
       -0.054234788 -0.10816918 0.018824631 -0.12440542
0000e0 56 4f 33 bc 4f fb c5 bd 6f 85 f3 bd 54 5c 27 3e
       -0.010944208 -0.09667074 -0.11890685 0.16343814
0000f0 85 ae 03 3d 96 dd b8 3d f8 c2 e9 bd cb 38 f5 bd
       0.032148857 0.09026639 -0.114141405 -0.11973723

sequential_3/conv2d_11/BiasAdd/ReadVariableOp f4 [64]
000000 0d 44 ce bd 20 73 c8 3d ed 45 d6 bd aa 19 66 bd
       -0.100715734 0.09787583 -0.10462556 -0.05617682
000010 5f df 78 bd 82 a6 e9 bd fd cd e5 3b cc 6c 02 bd
       -0.0607599 -0.11408712 0.007013081 -0.031842038
000020 9e 15 8b bd d3 ba 15 be ae f9 27 be 99 10 c3 bd
       -0.067912325 -0.14622049 -0.16403839 -0.0952465
000030 80 e9 92 bc e5 64 86 bd e4 1e ab bd 13 99 e4 bd
       -0.017933607 -0.06562213 -0.08355501 -0.11162009
000040 f5 32 a3 bd 83 73 07 be 36 7c 9d bd 25 14 9e 3c
       -0.07968704 -0.13227658 -0.07689707 0.019296715
000050 77 67 33 3e 3b 3c f1 3c c4 a4 14 be 31 2c 3d 3d
       0.17519937 0.029447665 -0.14515978 0.046184722
000060 2e 2a ee bd 17 f5 67 bd 5d 0e 97 bd a0 13 2f be
       -0.11629139 -0.05663022 -0.073757865 -0.1709733
000070 a1 4b 39 3e 32 00 8c bd 2f 52 a8 bd b3 a9 58 bc
       0.18095256 -0.06835975 -0.082188 -0.013224053
000080 5e 42 be bd 44 61 1c be 8e 39 a6 bd 3e f2 80 bd
       -0.09290002 -0.15271479 -0.081164464 -0.06296204
000090 5a 68 45 bd cb 12 05 be 67 ff d4 bd 73 4f ec bc
       -0.04819522 -0.1299545 -0.10400277 -0.028846478
0000a0 cc 4b 41 bd 31 fe b8 bc 87 2b 0f bd 33 bf bf bc
       -0.047191426 -0.022582145 -0.03495362 -0.0234066
0000b0 8d 25 0c bc 0d 62 44 be 6d b3 1e bd eb 7b f5 bd
       -0.008553875 -0.19178028 -0.038745333 -0.11986526
0000c0 13 d2 17 be 59 e3 17 be e5 f2 e0 bd 68 c6 99 bd
       -0.1482623 -0.1483282 -0.109838285 -0.07508546
0000d0 eb 46 d1 bd 4b a1 a3 bd e1 63 36 be f6 ed ee bc
       -0.10218605 -0.079897486 -0.17811538 -0.029166203
0000e0 b7 06 1d be 3f 96 d1 bd b8 a4 e8 bd 9b 55 15 bd
       -0.15334593 -0.10233735 -0.113595426 -0.036458593
0000f0 7d 53 24 3d 4a 32 10 be f0 4a c6 3d d1 1a ac bd
       0.040118683 -0.14081684 0.09682262 -0.08403552

sequential_3/conv2d_9/Conv2D f4 [32, 3, 3, 3]
000000 44 06 98 bd e2 81 91 be e9 9a 06 3b 66 2e 0d bd
       -0.0742307 -0.28419405 0.002053911 -0.034468077
000010 00 62 3d be 90 4e f3 bd 63 8f ce bd 42 f6 04 be
       -0.18494415 -0.11880219 -0.100859426 -0.12984565
000020 07 9c a4 bd 19 ca b2 3c 58 15 2a be 2c 25 19 be
       -0.08037572 0.021824883 -0.16609704 -0.14955586
000030 64 f5 d7 bd 8f d0 9b bd 65 aa b9 3d 94 c9 87 bd
       -0.105448514 -0.07608139 0.09065703 -0.06630245
000040 5d 58 33 3e e2 bb 42 3e b0 ce 9b bc 39 b1 f3 bc
       0.17514177 0.19016984 -0.019019455 -0.029747592
000050 7c 42 16 be 9d 6d 3b 3e ea af 9b bd 9d 9e 91 3c
       -0.146738 0.18303533 -0.07601912 0.017775828
000060 d1 f2 25 3e 0a dd 0c 3e 33 85 6f 3e d0 b3 6c bc
       0.16205908 0.13756195 0.23390655 -0.0144471675
000070 79 d3 49 be f8 aa 65 be 4b e8 86 bd 62 26 46 bd
       -0.19709577 -0.224285 -0.06587275 -0.04837645
000080 55 68 5a be d7 0d de 3d e5 fb 33 be ec ed 5c be
       -0.21328862 0.108424835 -0.17576559 -0.21575135
000090 4c 1b 05 3d 3a ca 41 be 84 99 88 be f5 a2 0b 3d
       0.032496735 -0.189248 -0.26679623 0.034090955
0000a0 de 3c 3a 3c 23 c5 04 3d d2 1d 78 3d aa d3 c2 bd
       0.011367051 0.032414567 0.060575314 -0.09513028
0000b0 73 de 97 3d 05 08 d5 3c 1a d0 57 3b c1 55 b2 3c
       0.07415476 0.0260048 0.0032930435 0.021769406
0000c0 3a 78 fb 3d 4d e5 83 bc 55 76 13 be 14 78 1a 3d
       0.12278791 -0.01610055 -0.14400609 0.03771217
0000d0 92 5e b6 3d 94 79 ba bd fa 39 09 bd 60 21 7c bd
       0.089047566 -0.091052204 -0.033502556 -0.061555266
0000e0 69 92 cb 3b fa 46 80 be 6b 50 88 bc f7 de dd bd
       0.006212522 -0.2505415 -0.016639909 -0.10833543
0000f0 23 f1 98 be 30 37 0c 3e fd 21 56 3d 5e f7 a0 bd
       -0.29871473 0.13692927 0.052278508 -0.078596815
000100 0c e1 d1 bc 70 71 80 bd 79 96 83 be f5 8e c0 3c
       -0.025620006 -0.062716365 -0.2570074 0.023505667
000110 25 49 a5 3d 83 36 86 be d3 97 bd 3c d6 ef 82 bd
       0.08070592 -0.26213464 0.023143684 -0.06393401
000120 28 24 90 be e0 9b a3 bd 2e 6f 7f 3d c1 61 7b bc
       -0.28152585 -0.07988715 0.06236189 -0.015343131
000130 bc 28 cf 3d 19 f9 f6 bd 31 b2 7d be 3c 5a 03 3d
       0.10115191 -0.1205923 -0.24775006 0.032068476
000140 79 b2 9e 3d 11 65 0e be 56 62 1e be 43 26 d4 bd
       0.07748885 -0.13905741 -0.154672 -0.1035886
000150 a0 b2 4e 3d 91 11 60 3d d4 4c cb bc f8 63 d6 bd
       0.05046332 0.054704253 -0.024816908 -0.10468286
000160 ff a9 3c be 39 af a7 3d 69 79 3c bd 81 75 cf bc
       -0.18424223 0.08187718 -0.046014223 -0.025324585
000170 69 02 1b 3c 18 05 ac 3d b0 29 7e 3d 5c 1a f9 bd
       0.009461024 0.08399409 0.062051475 -0.12163231
000180 2b 55 aa bd ad 5e 4b bd da f3 00 3e ed 92 1d 3c
       -0.08317026 -0.049650837 0.12593022 0.009617549
000190 b0 0d 02 3d a0 35 e1 bd 88 7b 8d bd f6 25 1d bd
       0.031751335 -0.10996556 -0.06908327 -0.03836628
0001a0 a2 34 a9 3d 38 f3 92 3d b9 62 f6 bd fe 3c d3 3d
       0.08261992 0.071752965 -0.120305486 0.10314368
0001b0 7a f6 36 be ae 4b 1c 3e 90 38 d7 3c 17 0b 34 bb
       -0.17867461 0.15263245 0.026272088 -0.002747243
0001c0 77 62 86 3d c5 bd 05 3c c1 26 a3 3d 3f d6 f9 3d
       0.065617494 0.00816292 0.07966376 0.12199067
0001d0 ce 50 09 be 99 fc fb bd 11 96 50 3b c7 a4 a3 bd
       -0.13409731 -0.123040386 0.0031827728 -0.07990413
0001e0 63 c8 95 bd 1c e7 49 3e 7d de 34 be 80 6d e8 3d
       -0.07313611 0.19717067 -0.17662998 0.113490105
0001f0 8f b4 bd 38 fd 78 1f be 4b c6 de bd fe 97 19 3e
       9.045854e-05 -0.15573497 -0.10877665 0.14999387
000200 86 f5 41 be 58 1c 2c bd 67 52 10 3e b6 a3 25 be
       -0.18941316 -0.04201922 0.14093934 -0.16175732
000210 cb 2b 2e be f6 23 eb 3d e2 9a 1b be c1 cd 8b be
       -0.17008893 0.114814684 -0.15195802 -0.27305415
000220 b0 d8 fc bd 2f a4 3f be 3d b7 43 bd 2b e6 64 be
       -0.12346017 -0.18714975 -0.04778217 -0.22353427
000230 42 db 4c be a3 2e 0d 3e 82 7f 87 3d 23 84 37 3e
       -0.20005515 0.13787322 0.06616117 0.179215
000240 e8 b9 75 be 7a 6d 8c be bc 49 31 be 84 d1 08 be
       -0.23996699 -0.27427274 -0.17313284 -0.13361174
000250 a2 2c f9 3d 19 21 c7 bd ac db 26 3e 24 01 0c 3e
       0.12166716 -0.0972311 0.16294736 0.1367231
000260 c0 9b 86 3c 2d a4 30 be 50 6c ea bd 2f 88 ba bd
       0.01643169 -0.17250128 -0.1144644 -0.09108006
000270 6e e7 1d 3e 61 1b 26 3e e7 75 87 3d 32 4c 2b 3e
       0.15420315 0.16221382 0.06614285 0.16728285
000280 7d 73 84 3d 44 19 57 3e a4 fd f6 3d ed de af 3d
       0.0646734 0.21005732 0.12060097 0.085874416
000290 44 74 f6 3d 4c 07 09 be 70 1b 76 bd f1 4d ad bc
       0.12033895 -0.1338169 -0.06008476 -0.02115533
0002a0 74 55 49 bd a7 89 23 be ab 32 5e be 23 a5 ab 3d
       -0.04915376 -0.15970479 -0.21699016 0.08381107
0002b0 4b 30 a3 bc 43 aa 1e be a2 58 21 be 26 7d a0 bd
       -0.019920489 -0.15494637 -0.15756467 -0.0783637
0002c0 9a ee 30 be ab de 36 3d 60 44 03 bd cf b0 99 bd
       -0.1727852 0.044645946 -0.03204763 -0.07504427
0002d0 47 ed 45 3c 06 1b 44 be ae e7 47 bd c0 ef 7a 3c
       0.012080497 -0.19150934 -0.04880493 0.01531595
0002e0 a4 6b 33 be f6 56 3a be 4e b3 c0 bd b9 f4 b2 bc
       -0.1752153 -0.18197235 -0.094092 -0.021845208
0002f0 48 44 a2 bd 9d 1a c3 3d 95 d4 31 3e 99 48 89 bd
       -0.0792318 0.095265605 0.1736625 -0.067033
000300 79 e9 03 3e b3 24 1b bd 55 ff d7 3c 83 25 3f 3c
       0.12882032 -0.037876796 0.026366869 0.011666658
000310 39 e6 17 3e c0 89 19 3e 86 01 26 3e f6 3a 16 3d
       0.14833917 0.14993954 0.16211519 0.036677323
000320 38 25 31 3c 32 b2 0a 3e e8 d6 9d 3c b7 88 24 be
       0.010812096 0.13544539 0.019267514 -0.16067778
000330 85 c9 21 3e 22 e6 16 3e 03 9a d3 3d 59 90 38 bd
       0.1579953 0.14736226 0.1033211 -0.045059536
000340 f4 0a e9 bd 00 2b 4d be 0f 45 2a 3d 5f 49 aa bc
       -0.11379042 -0.20035934 0.041569766 -0.02078694
000350 a6 77 85 be 36 1b d4 bd 0a 47 99 bd 66 fa 0f be
       -0.26067847 -0.103567526 -0.07484253 -0.14060363
000360 c2 8e b5 3d a4 1d 00 be 34 e9 01 3e 49 be 05 3e
       0.088651195 -0.12511307 0.12686616 0.1306087
000370 6f 55 01 be 5b eb 7c 3d e2 da b5 bc 79 0e 2d be
       -0.12630247 0.06174789 -0.022199098 -0.16900052
000380 94 4f e7 3d 8f b7 ae 3d d5 59 b7 3a fe 21 05 bc
       0.11294475 0.08531105 0.0013988564 -0.00812578
000390 72 19 e3 bd 7b 28 cd bc 26 41 bf 3d 35 cf 06 3e
       -0.11088838 -0.025043717 0.09338598 0.1316498
0003a0 aa 29 38 be d0 72 23 3e 5f 23 15 3e 9a f3 6d 3c
       -0.17984644 0.15961766 0.14564274 0.014523411
0003b0 52 a1 85 3d 34 a0 85 bd c3 8d 49 bd 2a c5 cc bd
       0.0652491 -0.06524697 -0.04920746 -0.099985436
0003c0 87 f1 ba 3d c1 aa 81 bd eb 11 12 bd 28 cb b3 bd
       0.09128099 -0.06331397 -0.03566162 -0.08778983
0003d0 54 1a db bd 72 c8 86 3d fb ef 35 be f5 55 00 bd
       -0.10698381 0.06581201 -0.17767327 -0.031331975
0003e0 bc 32 d4 3d 1e cf 1a be 4f 78 2c bd d0 4f fe 3d
       0.10361239 -0.15118071 -0.042106923 0.12417567
0003f0 36 d2 58 be 5c 26 ca bd 24 60 03 3e 1e dc 3f be
       -0.21173939 -0.09870598 0.12829643 -0.18736312

sequential_3/conv2d_10/Conv2D i1 [64, 3, 3, 32]
000000 f8 ea 0a 25 0e 02 d2 04 f5 0c ee 81 0d 04 1d 20
       -8 -22 10 37 14 2 -46 4 -11 12 -18 -127 13 4 29 32
000010 77 48 ca d2 de db 15 d3 fb 1e 17 12 ca 00 ff 27
       119 72 -54 -46 -34 -37 21 -45 -5 30 23 18 -54 0 -1 39
000020 d5 f6 4f 1a e4 df 0d a3 d5 48 f6 b6 11 f3 1d 09
       -43 -10 79 26 -28 -33 13 -93 -43 72 -10 -74 17 -13 29 9
000030 69 3f da c4 e0 dd 04 f5 fb ec 2a cb f5 3a d6 f0
       105 63 -38 -60 -32 -35 4 -11 -5 -20 42 -53 -11 58 -42 -16
000040 ca ef 1c ef 14 d3 14 c2 df 10 09 96 1b f2 fa e6
       -54 -17 28 -17 20 -45 20 -62 -33 16 9 -106 27 -14 -6 -26
000050 31 0f d3 eb e9 f2 29 f6 14 ec 1e 0e 01 2e dd f2
       49 15 -45 -21 -23 -14 41 -10 20 -20 30 14 1 46 -35 -14
000060 ce fe 3f d1 1e b5 37 ef 04 3d f4 b9 e3 0f 34 de
       -50 -2 63 -47 30 -75 55 -17 4 61 -12 -71 -29 15 52 -34
000070 78 f2 c1 fb 20 f7 20 fc 03 0c 39 ee cc 35 0f 17
       120 -14 -63 -5 32 -9 32 -4 3 12 57 -18 -52 53 15 23
000080 02 ca 1f 25 ed c3 12 c0 d6 1d eb aa 15 21 db f0
       2 -54 31 37 -19 -61 18 -64 -42 29 -21 -86 21 33 -37 -16
000090 53 ed d3 17 f2 ee 36 e7 fa e0 0d e6 e4 1a c9 19
       83 -19 -45 23 -14 -18 54 -25 -6 -32 13 -26 -28 26 -55 25
0000a0 e9 cf 2a d4 05 93 fb c9 dc f7 ba bb 18 e9 05 17
       -23 -49 42 -44 5 -109 -5 -55 -36 -9 -70 -69 24 -23 5 23
0000b0 70 e5 d9 0a 25 e7 2b d2 f7 14 00 db fe 1d e2 10
       112 -27 -39 10 37 -25 43 -46 -9 20 0 -37 -2 29 -30 16
0000c0 c8 02 5f 1b c3 9d 17 d7 c6 15 db ac 03 1f dd dc
       -56 2 95 27 -61 -99 23 -41 -58 21 -37 -84 3 31 -35 -36
0000d0 6c e5 00 10 28 dd f8 bc f5 dd f7 0a b9 09 e4 fc
       108 -27 0 16 40 -35 -8 -68 -11 -35 -9 10 -71 9 -28 -4
0000e0 b4 be 58 e9 c8 d7 05 d4 e3 00 f4 af eb d7 08 d1
       -76 -66 88 -23 -56 -41 5 -44 -29 0 -12 -81 -21 -41 8 -47
0000f0 7e 0e e7 ea 0a 14 2c ec ee fd 39 fb cc fb d6 03
       126 14 -25 -22 10 20 44 -20 -18 -3 57 -5 -52 -5 -42 3

sequential_3/conv2d_11/Conv2D i1 [64, 3, 3, 64]
000000 07 e9 2b ca ff c8 0b cc 07 cf e3 e4 ec 13 d3 e1
       7 -23 43 -54 -1 -56 11 -52 7 -49 -29 -28 -20 19 -45 -31
000010 d9 c8 f4 ee 04 db b8 be f0 f0 f4 f6 ef 15 04 fd
       -39 -56 -12 -18 4 -37 -72 -66 -16 -16 -12 -10 -17 21 4 -3
000020 1a ee 07 fe 0b 13 05 e6 17 c3 e6 cf 08 05 fe b7
       26 -18 7 -2 11 19 5 -26 23 -61 -26 -49 8 5 -2 -73
000030 fc 0b e2 de bb ee 25 05 18 02 19 b9 e9 e0 dd 08
       -4 11 -30 -34 -69 -18 37 5 24 2 25 -71 -23 -32 -35 8
000040 f7 e3 07 a0 f4 e8 04 a4 ef c1 0b f1 01 fe b1 de
       -9 -29 7 -96 -12 -24 4 -92 -17 -63 11 -15 1 -2 -79 -34
000050 f6 d5 d5 be e5 0d 9c de d8 02 fc f5 f8 ff e9 08
       -10 -43 -43 -66 -27 13 -100 -34 -40 2 -4 -11 -8 -1 -23 8
000060 ee df ae 10 1d 0a 27 27 20 98 ee b8 fa 0b 9d 0a
       -18 -33 -82 16 29 10 39 39 32 -104 -18 -72 -6 11 -99 10
000070 d8 fc f2 18 a2 e2 06 ae fa d6 05 e4 0d cb f0 0e
       -40 -4 -14 24 -94 -30 6 -82 -6 -42 5 -28 13 -53 -16 14
000080 fe f7 09 84 25 92 da ca e2 fb e9 f6 16 eb 98 04
       -2 -9 9 -124 37 -110 -38 -54 -30 -5 -23 -10 22 -21 -104 4
000090 d1 ce 9e ac d9 fa bd d4 c6 e7 02 18 f6 fa d6 ea
       -47 -50 -98 -84 -39 -6 -67 -44 -58 -25 2 24 -10 -6 -42 -22
0000a0 c7 d3 9c f5 03 0a 13 4c d9 9e d3 98 c4 f5 05 f0
       -57 -45 -100 -11 3 10 19 76 -39 -98 -45 -104 -60 -11 5 -16
0000b0 d7 fe ee fb c6 f5 10 d6 1c db 0e e0 07 c6 b3 c0
       -41 -2 -18 -5 -58 -11 16 -42 28 -37 14 -32 7 -58 -77 -64
0000c0 e7 a9 0c be ff d3 01 c3 e8 df 11 9c 07 0e ba f7
       -25 -87 12 -66 -1 -45 1 -61 -24 -33 17 -100 7 14 -70 -9
0000d0 fd c4 f4 c7 df e9 cd 1b e1 04 ec f9 fe fc e6 e9
       -3 -60 -12 -57 -33 -23 -51 27 -31 4 -20 -7 -2 -4 -26 -23
0000e0 1c e2 f8 12 23 f4 d8 f8 ee ae 11 be ed 0b ca d8
       28 -30 -8 18 35 -12 -40 -8 -18 -82 17 -66 -19 11 -54 -40
0000f0 df 30 e8 2e 94 f5 0e d5 17 ef 1e c1 dc a6 f6 e5
       -33 48 -24 46 -108 -11 14 -43 23 -17 30 -63 -36 -90 -10 -27

sequential_3/dense_6/MatMul i1 [64, 6400] scale=0.0036925136 zero_point=0
000000 e2 f1 fc 4f db 25 4b d8 e9 e6 2c d4 f0 26 08 f8
       -0.1107754 -0.0553877 -0.014770054 0.29170856 -0.136623 0.136623 0.27693853 -0.14770055 -0.08492781 -0.09600535 0.1624706 -0.1624706 -0.059080217 0.14031552 0.029540109 -0.029540109
000010 d0 1b 36 c0 1b f6 11 fe 03 26 d2 19 fb e1 0c 08
       -0.17724065 0.099697866 0.19939573 -0.23632087 0.099697866 -0.036925137 0.06277273 -0.007385027 0.011077541 0.14031552 -0.16985562 0.09231284 -0.018462569 -0.11446792 0.044310164 0.029540109
000020 0a f6 3e df 03 ff 3a 1e 1a 11 ba e6 18 25 cb f5
       0.036925137 -0.036925137 0.22893584 -0.12185295 0.011077541 -0.0036925136 0.21416579 0.1107754 0.09600535 0.06277273 -0.25847596 -0.09600535 0.08862033 0.136623 -0.19570322 -0.04061765
000030 0a f6 dc f3 37 20 ff b9 12 c5 09 28 cc 1d 20 e2
       0.036925137 -0.036925137 -0.13293049 -0.048002675 0.20308824 0.118160434 -0.0036925136 -0.26216847 0.06646524 -0.2178583 0.03323262 0.14770055 -0.1920107 0.107082896 0.118160434 -0.1107754
000040 e2 05 05 38 e2 1d 3e c6 ef f5 0b de fb 24 0e f9
       -0.1107754 0.018462569 0.018462569 0.20678076 -0.1107754 0.107082896 0.22893584 -0.21416579 -0.06277273 -0.04061765 0.04061765 -0.12554546 -0.018462569 0.13293049 0.05169519 -0.025847595
000050 d8 0b 2e c8 1f ef 02 fc 00 10 e4 18 fd e5 03 00
       -0.14770055 0.04061765 0.16985562 -0.20678076 0.11446792 -0.06277273 0.007385027 -0.014770054 0.0 0.059080217 -0.10339038 0.08862033 -0.011077541 -0.099697866 0.011077541 0.0
000060 04 ed 30 e4 fa 02 1b 14 13 19 b8 f7 0f 10 d1 ed
       0.014770054 -0.07015776 0.17724065 -0.10339038 -0.022155082 0.007385027 0.099697866 0.073850274 0.07015776 0.09231284 -0.26586097 -0.03323262 0.0553877 0.059080217 -0.17354813 -0.07015776
000070 fd 01 da ff 15 00 06 d4 fd e1 0f 11 d7 19 2b ed
       -0.011077541 0.0036925136 -0.14031552 -0.0036925136 0.07754278 0.0 0.022155082 -0.1624706 -0.011077541 -0.11446792 0.0553877 0.06277273 -0.15139306 0.09231284 0.15877809 -0.07015776
000080 e1 02 ff 1a ee 0c 2b d0 f0 f9 05 eb ef 16 02 f8
       -0.11446792 0.007385027 -0.0036925136 0.09600535 -0.06646524 0.044310164 0.15877809 -0.17724065 -0.059080217 -0.025847595 0.018462569 -0.07754278 -0.06277273 0.0812353 0.007385027 -0.029540109
000090 ee f4 1d d2 1b f0 fd 0e fe 0a fe 15 06 f1 0a 03
       -0.06646524 -0.044310164 0.107082896 -0.16985562 0.099697866 -0.059080217 -0.011077541 0.05169519 -0.007385027 0.036925137 -0.007385027 0.07754278 0.022155082 -0.0553877 0.036925137 0.011077541
0000a0 f2 f9 1b ef 01 f1 1a fa f7 08 c6 f7 07 02 e2 ee
       -0.05169519 -0.025847595 0.099697866 -0.06277273 0.0036925136 -0.0553877 0.09600535 -0.022155082 -0.03323262 0.029540109 -0.21416579 -0.03323262 0.025847595 0.007385027 -0.1107754 -0.06646524
0000b0 fa fc f4 f3 0e e6 0c ea fd ee 06 fb e5 02 1e e8
       -0.022155082 -0.014770054 -0.044310164 -0.048002675 0.05169519 -0.09600535 0.044310164 -0.0812353 -0.011077541 -0.06646524 0.022155082 -0.018462569 -0.099697866 0.007385027 0.1107754 -0.08862033
0000c0 f2 1a 04 16 01 03 0a db f7 fc f9 ed ff 19 f5 f3
       -0.05169519 0.09600535 0.014770054 0.0812353 0.0036925136 0.011077541 0.036925137 -0.136623 -0.03323262 -0.014770054 -0.025847595 -0.07015776 -0.0036925136 0.09231284 -0.04061765 -0.048002675
0000d0 f2 ee 10 db 1d e8 eb 16 ee 09 07 fc 1d f2 00 ef
       -0.05169519 -0.06646524 0.059080217 -0.136623 0.107082896 -0.08862033 -0.07754278 0.0812353 -0.06646524 0.03323262 0.025847595 -0.014770054 0.107082896 -0.05169519 0.0 -0.06277273
0000e0 e9 f8 08 f8 00 f2 09 fd 01 08 d8 00 ed eb f0 f0
       -0.08492781 -0.029540109 0.029540109 -0.029540109 0.0 -0.05169519 0.03323262 -0.011077541 0.0036925136 0.029540109 -0.14770055 0.0 -0.07015776 -0.07754278 -0.059080217 -0.059080217
0000f0 00 f9 f0 ff 0a cb 09 fc f8 ee 02 fc 00 ec 1b fc
       0.0 -0.025847595 -0.059080217 -0.0036925136 0.036925137 -0.19570322 0.03323262 -0.014770054 -0.029540109 -0.06646524 0.007385027 -0.014770054 0.0 -0.073850274 0.099697866 -0.014770054

sequential_3/dense_7/MatMul i1 [27, 64] scale=0.0038201641 zero_point=0
000000 f1 26 f2 ee e8 df 21 34 e8 d0 08 9a 23 c2 14 d7
       -0.05730246 0.14516623 -0.053482298 -0.06876296 -0.09168394 -0.12606542 0.12606542 0.19864854 -0.09168394 -0.18336788 0.030561313 -0.38965675 0.13370575 -0.23685017 0.07640328 -0.15662673
000010 c2 e1 dd a6 02 dd b4 4b c1 1d df fc 07 3b 23 10
       -0.23685017 -0.118425086 -0.13370575 -0.34381476 0.0076403283 -0.13370575 -0.29033247 0.28651232 -0.24067034 0.11078476 -0.12606542 -0.0152806565 0.026741149 0.22538969 0.13370575 0.061122626
000020 14 da c9 dd cb c1 02 23 13 29 3f cd bd 0b 00 22
       0.07640328 -0.14516623 -0.21010903 -0.13370575 -0.2024687 -0.24067034 0.0076403283 0.13370575 0.07258312 0.15662673 0.24067034 -0.19482838 -0.255951 0.042021804 0.0 0.12988558
000030 29 e7 d3 0c af 06 13 3a bb 02 f8 eb fa e8 fe 02
       0.15662673 -0.095504105 -0.17190738 0.04584197 -0.30943328 0.022920985 0.07258312 0.22156952 -0.26359132 0.0076403283 -0.030561313 -0.08022345 -0.022920985 -0.09168394 -0.0076403283 0.0076403283
000040 20 0b ed f7 c2 f9 e2 f1 d1 d4 f5 a3 e7 26 23 10
       0.12224525 0.042021804 -0.07258312 -0.03438148 -0.23685017 -0.026741149 -0.11460492 -0.05730246 -0.17954771 -0.16808721 -0.042021804 -0.35527527 -0.095504105 0.14516623 0.13370575 0.061122626
000050 b6 d8 a5 f1 ef 25 1a d2 cf db f9 f4 0a 1d d8 ce
       -0.28269213 -0.15280657 -0.34763494 -0.05730246 -0.06494279 0.14134607 0.09932427 -0.17572755 -0.18718804 -0.14134607 -0.026741149 -0.04584197 0.03820164 0.11078476 -0.15280657 -0.19100821
000060 cd 05 4d d1 f8 d8 54 dc 3f 3e 29 2a 06 df c1 30
       -0.19482838 0.01910082 0.29415265 -0.17954771 -0.030561313 -0.15280657 0.3208938 -0.13752592 0.24067034 0.23685017 0.15662673 0.1604469 0.022920985 -0.12606542 -0.24067034 0.18336788
000070 cd 05 f9 9c fb 3a 33 05 dc df ff ab 15 45 f4 f0
       -0.19482838 0.01910082 -0.026741149 -0.38201642 -0.01910082 0.22156952 0.19482838 0.01910082 -0.13752592 -0.12606542 -0.0038201641 -0.32471395 0.08022345 0.26359132 -0.04584197 -0.061122626
000080 30 25 c8 c2 ec 50 f7 08 ed 24 17 05 3c 0e ba fb
       0.18336788 0.14134607 -0.21392919 -0.23685017 -0.07640328 0.30561313 -0.03438148 0.030561313 -0.07258312 0.13752592 0.08786377 0.01910082 0.22920984 0.053482298 -0.2674115 -0.01910082
000090 2d 20 c9 ef fd 39 d1 83 0c 11 ef d3 ba 08 0c db
       0.17190738 0.12224525 -0.21010903 -0.06494279 -0.011460492 0.21774936 -0.17954771 -0.47752053 0.04584197 0.06494279 -0.06494279 -0.17190738 -0.2674115 0.030561313 0.04584197 -0.14134607
0000a0 03 09 25 ac ea 04 2c d6 e5 13 8d e2 09 21 02 d7
       0.011460492 0.03438148 0.14134607 -0.3208938 -0.08404361 0.0152806565 0.16808721 -0.1604469 -0.10314443 0.07258312 -0.43931887 -0.11460492 0.03438148 0.12606542 0.0076403283 -0.15662673
0000b0 e5 d5 1a c6 eb c6 31 01 10 d0 d0 ac 46 b7 16 19
       -0.10314443 -0.16426706 0.09932427 -0.22156952 -0.08022345 -0.22156952 0.18718804 0.0038201641 0.061122626 -0.18336788 -0.18336788 -0.3208938 0.2674115 -0.27887198 0.08404361 0.095504105
0000c0 3c be 37 a1 01 f5 13 09 39 e2 d1 e4 ec d6 23 d8
       0.22920984 -0.25213084 0.21010903 -0.3629156 0.0038201641 -0.042021804 0.07258312 0.03438148 0.21774936 -0.11460492 -0.17954771 -0.106964596 -0.07640328 -0.1604469 0.13370575 -0.15280657
0000d0 0f e8 26 38 e8 18 f7 64 d2 19 ea ba df 0c f1 ce
       0.05730246 -0.09168394 0.14516623 0.21392919 -0.09168394 0.09168394 -0.03438148 0.38201642 -0.17572755 0.095504105 -0.08404361 -0.2674115 -0.12606542 0.04584197 -0.05730246 -0.19100821
0000e0 ce e4 25 c4 2c 18 27 dc c4 d9 fe ce 2f 05 3b d3
       -0.19100821 -0.106964596 0.14134607 -0.22920984 0.16808721 0.09168394 0.1489864 -0.13752592 -0.22920984 -0.1489864 -0.0076403283 -0.19100821 0.17954771 0.01910082 0.22538969 -0.17190738
0000f0 0b fb 18 ce b4 d7 be 09 ec 3e 31 12 3a c5 e9 25
       0.042021804 -0.01910082 0.09168394 -0.19100821 -0.29033247 -0.15662673 -0.25213084 0.03438148 -0.07640328 0.23685017 0.18718804 0.06876296 0.22156952 -0.22538969 -0.08786377 0.14134607
