saved_models/DemonHunter/model.tflite (tflite, 476304 bytes, 10 tensors)

sequential/dense_1/BiasAdd/ReadVariableOp f4 [24]
0	0xbda3ca57	-0.07997578
1	0xbd4fbcf6	-0.050717317
2	0xbc23a382	-0.009987714
3	0xbb4af11f	-0.0030966473
4	0xbe02d51f	-0.12776612
5	0xbdbbdfa4	-0.091735154
6	0x3d746ba6	0.059672974
7	0xbdc371fb	-0.095432244
8	0xbd083881	-0.03325701
9	0x3d9245be	0.071422085
10	0xbd115931	-0.03548545
11	0x3d295967	0.041345026
12	0x3d120085	0.035645027
13	0x3d140f1c	0.036147222
14	0xbd72c18a	-0.059266604
15	0x3c0620d0	0.008186534
16	0x3ac27627	0.0014836238
17	0x3d17497e	0.036935322
18	0xbd3ac6d9	-0.045599792
19	0x3dad9355	0.08475367
20	0xbd0e177a	-0.034690358
21	0x3e02919e	0.12750861
22	0xbd27a9f8	-0.04093358
23	0x3d0dab85	0.034587402

sequential/dense/BiasAdd/ReadVariableOp f4 [64]
0	0xbcfb51b2	-0.030678604
1	0x3d6d62f1	0.057955686
2	0x3d081cfc	0.033230767
3	0xbd69e712	-0.05710513
4	0x3d615510	0.055012763
5	0xbc80b1bc	-0.01570975
6	0xbd965fc5	-0.07342485
7	0x3d8af701	0.067853935
8	0xbd7d27d9	-0.06180558
9	0xbcf22d51	-0.029562624
10	0xbcfe5f53	-0.031051314
11	0xbc01586d	-0.0078946175
12	0x3caf9476	0.021433096
13	0xbbc261a9	-0.005932052
14	0x3d10988a	0.035301723
15	0xbd08d150	-0.03340274
16	0xbc371a74	-0.0111757405
17	0x3d78f92a	0.060784496
18	0xbcaa4a34	-0.020787336
19	0x3b99ee76	0.004697616
20	0xbd2e8167	-0.042603876
21	0x3c31c345	0.010849779
22	0xbc15c576	-0.009141317
23	0x3d0e900f	0.034805354
24	0xbc8793bc	-0.016549937
25	0xbbc4c60d	-0.006005055
26	0x3cbf6c29	0.023367004
27	0xbd62ed7b	-0.05540226
28	0xbd46b55f	-0.048512813
29	0xbbc4c6e2	-0.006005154
30	0x3c7c76d8	0.015409194
31	0xbb9cd43b	-0.004786042
32	0xbd208f4f	-0.03919917
33	0xbc02735d	-0.007962075
34	0xbc987ae8	-0.018613294
35	0xbbc6d495	-0.006067822
36	0x3c3f585e	0.011678783
37	0x3d3016d9	0.04299054
38	0xbbf23ffe	-0.0073928824
39	0xbbd3fce4	-0.006469356
40	0xbd3f95b8	-0.046773642
41	0xbce0cf7e	-0.02744269
42	0x3cbc01a7	0.022950007
43	0xbdbd21f7	-0.09234994
44	0xbd6a568c	-0.057211444
45	0x3cdf5502	0.027262215
46	0xbbc6d8db	-0.0060683317
47	0xbd2190b6	-0.039444648
48	0xbccdaed3	-0.025107777
49	0xbceb8bcd	-0.028753186
50	0x3cfa4ee7	0.030555202
51	0xbcce3a8a	-0.025174398
52	0xbd420580	-0.047368526
53	0x3df8cb49	0.121481486
54	0x3d06b565	0.032887835
55	0x3aae05de	0.0013276895
56	0x3cea15a4	0.028574772
57	0xbd1c05ef	-0.038091596
58	0x3cdf5208	0.027260795
59	0xbb7dfae7	-0.0038754286
60	0xbd8ca462	-0.06867291
61	0xbbc4bfd7	-0.0060043144
62	0xbc92e60e	-0.017931964
63	0x3d974da0	0.07387853

sequential/conv2d/BiasAdd/ReadVariableOp f4 [32]
0	0x3c8c36d0	0.01711598
1	0xbd32cb58	-0.043650955
2	0xbd727f5a	-0.059203483
3	0xbd630d76	-0.05543276
4	0xbdb44cdb	-0.088037215
5	0xbb5b900f	-0.0033502614
6	0xbc74395f	-0.014906256
7	0xbdb41341	-0.08792735
8	0xbdea0369	-0.11426432
9	0xbdc8aafc	-0.09798238
10	0xbccc23cb	-0.024919411
11	0xbe1aca35	-0.15116198
12	0xbd244f7f	-0.040114876
13	0xbd8efd7c	-0.06981942
14	0xbdf00422	-0.11719538
15	0xbd302688	-0.043005496
16	0xbe3f62da	-0.18690053
17	0x3ca0bb7b	0.019620648
18	0xbdd6bfae	-0.10485779
19	0xbe4e004e	-0.20117304
20	0xbcaee8e2	-0.021351282
21	0x3b1f5cac	0.0024316711
22	0xbd8f1924	-0.06987217
23	0x3d5ce7cb	0.053931993
24	0xbbbafb1a	-0.005706203
25	0xbdda6ebe	-0.10665654
26	0xbd211c93	-0.03933389
27	0xbb9513d9	-0.004549485
28	0xbc8a73db	-0.016900947
29	0xbe579ac4	-0.21055132
30	0xbc8e1fc3	-0.01734913
31	0xbbcd78d6	-0.0062705083

sequential/conv2d_1/BiasAdd/ReadVariableOp f4 [64]
0	0xbe0b57b3	-0.13607673
1	0xbb206b8d	-0.0024478168
2	0xbca08dca	-0.01959886
3	0xbc094814	-0.008379001
4	0x3c782e38	0.015147738
5	0xbdf517d9	-0.11967439
6	0xbd50e837	-0.051002707
7	0xbd44524e	-0.047930054
8	0xbd9643f8	-0.07337183
9	0xbdbe2ee5	-0.09286288
10	0xbde2baf1	-0.110708125
11	0xbd60892a	-0.05481831
12	0xbdc51e10	-0.096248746
13	0x3e0f8abc	0.14017767
14	0xbdd845fa	-0.10560222
15	0x3d86b09d	0.06576655
16	0x3d06bd74	0.03289552
17	0xbda210b6	-0.079133436
18	0xbce3628b	-0.02775695
19	0xbde47acf	-0.111562364
20	0xbe17c7dd	-0.14822336
21	0xbd6be048	-0.05758694
22	0xbdbd1862	-0.09233166
23	0xbdb9bbf1	-0.0906905
24	0xbe09cd2b	-0.13457172
25	0xbd9dab23	-0.07698657
26	0xbdc67cd9	-0.096917816
27	0xbe12dbe6	-0.14341697
28	0x3e22f9ec	0.1591565
29	0xbde24012	-0.11047377
30	0xbcd32757	-0.025775595
31	0xbdd4f733	-0.10398712
32	0xbd4034d7	-0.046925392
33	0xbd30c968	-0.043160826
34	0xbd2de81d	-0.04245769
35	0xbde5713c	-0.11203238
36	0x3d82dd8c	0.06389913
37	0xbd87493f	-0.066057675
38	0xbdf5b742	-0.11997844
39	0xbc8c0072	-0.017090056
40	0xbd18ff68	-0.03735295
41	0xbdfb1faf	-0.122619025
42	0xbd597a43	-0.053095113
43	0xbd97d1c8	-0.074130595
44	0xbd78d3df	-0.06074893
45	0xbd796329	-0.060885582
46	0xbd79644c	-0.060886666
47	0xbd896de5	-0.06710414
48	0xbdb1acdb	-0.08675548
49	0xbdd5e3c1	-0.10443831
50	0x3c073ce7	0.008254266
51	0xbc5d2644	-0.013497893
52	0xbd20234c	-0.03909616
53	0xbd2286f8	-0.039679497
54	0xbd8bce3e	-0.06826447
55	0x3e6b56c6	0.2298232
56	0xbd7f695b	-0.062356334
57	0xbd5d2c2b	-0.0539972
58	0xbdc90912	-0.09816183
59	0xbd872267	-0.065983586
60	0x3d9f222d	0.077701904
61	0x3c0dbe10	0.008651271
62	0xbddf0a15	-0.10890595
63	0xbdbb0901	-0.09132577

sequential/conv2d_2/BiasAdd/ReadVariableOp f4 [64]
0	0x3dbf6f27	0.093473725
1	0xbd319c07	-0.04336169
2	0x3abe4528	0.001451646
3	0xbd957990	-0.07298577
4	0xbdd73bcb	-0.105094515
5	0xbd4f7c12	-0.050655432
6	0xbe11cd6e	-0.14238521
7	0xbde03fd9	-0.10949678
8	0xbe05d3cc	-0.13069075
9	0xbdb5d184	-0.088778526
10	0xbd78b9c9	-0.060724054
11	0x3d915d08	0.070978224
12	0xbd822f42	-0.0635667
13	0xbd6f0012	-0.058349676
14	0xbdbba1b4	-0.09161702
15	0x3cabb367	0.02095957
16	0xbd8d22f7	-0.06891435
17	0xbcd03cf6	-0.025419693
18	0xbd7409a2	-0.0595795
19	0xbcaaf579	-0.020869004
20	0x3c8068af	0.015674917
21	0x3decc792	0.115615025
22	0xbda448f2	-0.08021726
23	0xbc32c4e1	-0.010911197
24	0xbce6dccf	-0.028181462
25	0xbd417fa3	-0.047240864
26	0xbda11bb7	-0.07866614
27	0xbd2f7cfb	-0.0428438
28	0xbd8a16de	-0.06742643
29	0xbd94ed81	-0.07271863
30	0xbd52d407	-0.051471736
31	0xbd681016	-0.056655966
32	0xbd8923a8	-0.06696254
33	0xbd1062de	-0.035250537
34	0x3db3e3da	0.087836936
35	0x3c8eccf1	0.017431708
36	0xbde532cd	-0.1119133
37	0xbc3b491a	-0.011431003
38	0xbd829376	-0.06375782
39	0xbccc072f	-0.02490577
40	0xbd937ec7	-0.07201915
41	0x3d781fcf	0.06057721
42	0xbca5770e	-0.020198371
43	0xbaca3e35	-0.0015429916
44	0xbde209d0	-0.11037028
45	0x3c46713e	0.01211196
46	0x3d8dad8f	0.06917869
47	0x3ba7d8f1	0.005122297
48	0x3b8e8d2f	0.0043503265
49	0xbd0d74f4	-0.034535363
50	0xbdb8ca21	-0.09022928
51	0xbd3d4d95	-0.046216566
52	0x3ce77b9e	0.028257187
53	0x3d285b2d	0.041102577
54	0xbd677345	-0.056506414
55	0xbcb734ee	-0.022364106
56	0xbdfafb3e	-0.12254952
57	0x3c54cf7f	0.012988924
58	0xbd6601f5	-0.05615421
59	0xbdbfecc0	-0.09371328
60	0xbca5d52e	-0.020243254
61	0xbd443125	-0.04789843
62	0xbcda7e7c	-0.02667164
63	0xbcd7f8f9	-0.026363837

sequential/conv2d/Conv2D f4 [32, 3, 3, 3]
0	0x3db160db	0.08661052
1	0x3df4ae8e	0.11947356
2	0xbd216e58	-0.039411873
3	0xbe6bcb92	-0.23026875
4	0xbd748229	-0.059694443
5	0xbdd112d8	-0.10208672
6	0xbe6439a9	-0.2228762
7	0x3bc97957	0.006148498
8	0xbac8364e	-0.0015274973
9	0x3de6626d	0.11249242
10	0x3cfc42f0	0.030793637
11	0xbb9e59cf	-0.0048324834
12	0xbe0a4876	-0.13504204
13	0x3dd0ce51	0.10195602
14	0x3e00dc07	0.12583934
15	0xbde5a13d	-0.112123944
16	0x3d104531	0.035222236
17	0xbe00fbc1	-0.12596036
18	0xbd0e92c9	-0.034807954
19	0xbcbba47a	-0.022905577
20	0xbcba2950	-0.022724777
21	0xbdf82ce8	-0.1211794
22	0xbd9de225	-0.07709149
23	0x3dd94a57	0.10609882
24	0xbd593d26	-0.05303683
25	0x3dc6efc6	0.09713702
26	0x3d448e33	0.047987174
27	0xbd33ec57	-0.043926563
28	0x3da35eee	0.07977091
29	0xbe7245f2	-0.23659495
30	0xbcb2b3bd	-0.021814222
31	0xbcc10656	-0.023562592
32	0xbd659d99	-0.0560585
33	0x3dbf7cdf	0.09349989
34	0x3ce3c187	0.027802242
35	0xbe76e15e	-0.24109408
36	0x3e0916f5	0.13387664
37	0x3cadc711	0.021213086
38	0xbe597798	-0.21237028
39	0x3d9808a5	0.07423524
40	0x3e0139a7	0.12619649
41	0xbe110fab	-0.14166133
42	0xbc98b494	-0.018640794
43	0xbd6acbc2	-0.057323225
44	0x3ce1c89f	0.027561484
45	0xbd878f86	-0.06619172
46	0x3dcf3bff	0.10118865
47	0xbcd983ad	-0.026552046
48	0x3d620eda	0.055189945
49	0x3b9e1068	0.004823733
50	0xbe13e951	-0.14444472
51	0x3dc055f7	0.093913965
52	0xbdeedc9a	-0.1166317
53	0xbe80a8fc	-0.25128925
54	0xbd3b6518	-0.045750707
55	0x3dd3b5b1	0.10337389
56	0x3e2bba98	0.16770399
57	0xbd386b46	-0.04502418
58	0xbcaa1a7e	-0.020764586
59	0x3dfb79b2	0.12279071
60	0xbd65cf13	-0.056105684
61	0x3d966f57	0.07345455
62	0x3d270a9f	0.040781613
63	0xbdda9ddd	-0.10674641
64	0x3db96bbf	0.09053754
65	0x3e3207c8	0.17385781
66	0xbe52e0e2	-0.20593598
67	0xbcc2c21a	-0.023774195
68	0x3d5dcb4a	0.05414895
69	0xbe6acab2	-0.22928885
70	0xbdd30b06	-0.10304837
71	0x3dbd2aee	0.09236704
72	0x3a8ef645	0.0010907134
73	0x3b530552	0.0032199216
74	0x3cd1e548	0.025622025
75	0xbe1fff19	-0.15624656
76	0x3ddf7beb	0.10912307
77	0xbd163df1	-0.036680166
78	0xbda1eeb4	-0.07906857
79	0xbe19eb79	-0.15031232
80	0x3dbd9e70	0.09258735
81	0x3e2cfe85	0.16893966
82	0xbd913a9a	-0.070912555
83	0xbd5fa09f	-0.05459654
84	0x3e243fca	0.16039959
85	0x3d064a7a	0.03278587
86	0x3e028287	0.12745105
87	0xbdd1a2ac	-0.10236105
88	0xbe414a9f	-0.18876122
89	0x3b9f3abe	0.0048592975
90	0x3d93c5ff	0.07215499
91	0xbe134aab	-0.14383952
92	0x3e053441	0.13008215
93	0x3d519861	0.05117071
94	0xbde8ea68	-0.113728344
95	0x3e06d757	0.13168083
96	0x3d343c48	0.0440028
97	0xbcc32b02	-0.023824219
98	0xbdd9a953	-0.10627999
99	0x3e05e34d	0.1307499
100	0xbcb0b4b1	-0.021570535
101	0xbd52b5b9	-0.051442835
102	0x3d718bf8	0.058971375
103	0xbe36747d	-0.17817874
104	0xbd71d831	-0.059044067
105	0x3d32b6be	0.043631308
106	0xbbe4a864	-0.0069780815
107	0xbbfd4ab5	-0.007729853
108	0x3d884755	0.066542305
109	0xbdb8cb4f	-0.09023153
110	0x3d20dc70	0.039272726
111	0x3d2b6751	0.041846577
112	0xbda389f9	-0.079853006
113	0x3debe030	0.1151737
114	0x3ddc83b4	0.10767308
115	0xbdb42fa0	-0.08798146
116	0x3d031616	0.032003485
117	0x3e0fa064	0.14026028
118	0xbd52c0bc	-0.051453337
119	0x3df7a009	0.12091071
120	0xbc99c243	-0.018769389
121	0x3d4c4ad9	0.049876068
122	0xbd7a3e3b	-0.061094504
123	0x3e1ac9b4	0.15116006
124	0xbd27f53d	-0.04100536
125	0x3d0a4e7a	0.033766247
126	0x3e03078d	0.12795849
127	0xbda0e88e	-0.07856856
128	0x3ddd2892	0.10798754
129	0x3dc8ac1f	0.097984545
130	0xbddac7a6	-0.10682611
131	0x3daeac41	0.085289486
132	0x3d8e987d	0.069626786
133	0x3c9d3a16	0.019192737
134	0x3df45aeb	0.11931404
135	0xbdb31129	-0.087435074
136	0x3e5ced58	0.21574914
137	0x3dbdcf36	0.09268038
138	0x3dbad4ea	0.091226414
139	0x3d154bea	0.03644935
140	0x3d4f9df3	0.05068774
141	0xbe13512d	-0.14386435
142	0xbe03e4ba	-0.12880221
143	0x3b20aa6f	0.002451565
144	0x3e10cd08	0.14140713
145	0x3e125a99	0.14292373
146	0x3d989e50	0.07452071
147	0xbcb6552b	-0.022257408
148	0x3d0454ed	0.032307554
149	0xbdd744e5	-0.105111875
150	0xbb6433e8	-0.0034820978
151	0xbdcffe15	-0.10155884
152	0xbdb434f9	-0.08799166
153	0xbe1db17e	-0.15399739
154	0x3cb5a20f	0.022172002
155	0xbd33ee55	-0.043928463
156	0xbdca69d7	-0.098834686
157	0xbd9712c5	-0.07376627
158	0x3da0e826	0.07856779
159	0xbdec56f4	-0.115400225
160	0xbd5a3631	-0.053274337
161	0xbe12a6f8	-0.14321506
162	0x3d8c3688	0.068463385
163	0xbd6cc082	-0.057800777
164	0x3d83d35e	0.064367995
165	0xbe0550ca	-0.130191
166	0xbe13b9ad	-0.14426298
167	0xbe1ab9be	-0.15109918
168	0x3cfafa3e	0.030636903
169	0x3e00eed4	0.12591106
170	0xbd673aa7	-0.05645242
171	0xbd8517b4	-0.06498662
172	0x3e2a399b	0.16623537
173	0x3c87f3c0	0.016595721
174	0xbe35905b	-0.17730848
175	0xbe02bb76	-0.12766823
176	0xbd804806	-0.062637374
177	0xbd82f0c3	-0.06393578
178	0xbd3a25f1	-0.04544634
179	0xbd48542d	-0.0489084
180	0xbd581110	-0.052750647
181	0x3df30547	0.11866241
182	0xbb36d48e	-0.0027897689
183	0x3d6452d0	0.05574304
184	0x3df9f071	0.12204064
185	0xbd41393c	-0.047173724
186	0xbdff4d80	-0.12465954
187	0xbd230e5b	-0.039808612
188	0xbd102e91	-0.03520066
189	0x3d40e1d8	0.04709038
190	0x3d80a262	0.06280972
191	0xbd357e2d	-0.044309784
192	0x3d81dd99	0.063410945
193	0x3dcaee80	0.099087715
194	0x3cdb3082	0.026756529
195	0xbe1dd26d	-0.15412302
196	0x3e0809cd	0.13284989
197	0xba62142b	-0.0008624221
198	0x3dd68582	0.10474683
199	0x3c71d5b3	0.0147604225
200	0xbdf2ca9c	-0.11855051
201	0x3d6956db	0.056967597
202	0xbbda7a5b	-0.006667418
203	0x3c25142d	0.010075611
204	0xbe4286c1	-0.18996717
205	0xbd5d0d16	-0.053967558
206	0xbd365039	-0.0445101
207	0x3d17b814	0.037040785
208	0x3d19e035	0.037567336
209	0xbd80fe82	-0.062985435
210	0x3c87f466	0.01659603
211	0xbd7b19ff	-0.06130409
212	0xbe17871a	-0.14797631
213	0xbda7cd22	-0.08193423
214	0xbdb27b65	-0.08714942
215	0x3ce36504	0.027758129
216	0xbdfe2965	-0.12410239
217	0xbe04cdf6	-0.12969193
218	0x3d62205c	0.05520664
219	0xbe3cd27f	-0.18439673
220	0xbce9d768	-0.028545097
221	0x3d943a6b	0.07237705
222	0xbe28da3c	-0.164895
223	0xbdf4ec0c	-0.11959085
224	0x3cf43e25	0.02981479
225	0x3c8d6c90	0.01726368
226	0xbe09303a	-0.13397303
227	0x3ccc7cd1	0.02496186
228	0x3db0cb40	0.08632517
229	0xbd82bee3	-0.06384065
230	0x3e2bc831	0.16775586
231	0x3d8a4c96	0.06752889
232	0x3d13d2ce	0.03608971
233	0x3dbd85d5	0.09254042
234	0xbe21beca	-0.15795437
235	0xbc4647de	-0.012102095
236	0xbcc6ed36	-0.024283033
237	0xbcc6cc9b	-0.024267485
238	0xbdad1605	-0.084514655
239	0x3e259ff0	0.16174293
240	0x3d07a6f7	0.033118214
241	0x3d89b78d	0.06724463
242	0x3cebf15d	0.028801614
243	0x39f05551	0.00045839933
244	0xbd3a6677	-0.045507874
245	0x3e2f9b5e	0.17149112
246	0x3db9a5ec	0.0906485
247	0xbd596d92	-0.05308301
248	0x3cfbfac4	0.030759223
249	0xbde73acd	-0.11290512
250	0x3e0b6064	0.13610989
251	0x3e2df8dd	0.16989465
252	0xbc75c5c0	-0.015000761
253	0xbc799fb4	-0.01523583
254	0x3e14057b	0.14455216
255	0xbe08f40a	-0.13374344

sequential/conv2d_1/Conv2D i1 [64, 3, 3, 32]
0	0xa5	-91
1	0x12	18
2	0xe2	-30
3	0xff	-1
4	0xd9	-39
5	0x06	6
6	0xe3	-29
7	0x3f	63
8	0xfd	-3
9	0xc6	-58
10	0x08	8
11	0x2d	45
12	0x56	86
13	0x6e	110
14	0x43	67
15	0x19	25
16	0xee	-18
17	0xa6	-90
18	0x05	5
19	0x1b	27
20	0x4a	74
21	0x46	70
22	0x00	0
23	0xef	-17
24	0x18	24
25	0x07	7
26	0x19	25
27	0xf4	-12
28	0xfe	-2
29	0x15	21
30	0xb2	-78
31	0x30	48
32	0xd3	-45
33	0x18	24
34	0xd2	-46
35	0x04	4
36	0x04	4
37	0x99	-103
38	0xff	-1
39	0x32	50
40	0xe8	-24
41	0x14	20
42	0x13	19
43	0xd8	-40
44	0x1f	31
45	0x45	69
46	0x18	24
47	0x04	4
48	0xf4	-12
49	0x94	-108
50	0x20	32
51	0xee	-18
52	0x3f	63
53	0xf6	-10
54	0x0e	14
55	0xb6	-74
56	0xfb	-5
57	0xda	-38
58	0xe8	-24
59	0xd4	-44
60	0xce	-50
61	0x0c	12
62	0x00	0
63	0xd9	-39
64	0xbe	-66
65	0x2a	42
66	0xc2	-62
67	0xfe	-2
68	0xe0	-32
69	0xd7	-41
70	0xe7	-25
71	0xf0	-16
72	0x24	36
73	0xb2	-78
74	0xd7	-41
75	0xeb	-21
76	0xfc	-4
77	0x49	73
78	0x2c	44
79	0x08	8
80	0xf5	-11
81	0xdd	-35
82	0x29	41
83	0xeb	-21
84	0x12	18
85	0x17	23
86	0xe9	-23
87	0xd1	-47
88	0xf5	-11
89	0xd7	-41
90	0xf0	-16
91	0xe0	-32
92	0xe0	-32
93	0x38	56
94	0xe7	-25
95	0x00	0
96	0xae	-82
97	0x23	35
98	0xb9	-71
99	0xb1	-79
100	0xab	-85
101	0x0b	11
102	0xf4	-12
103	0x45	69
104	0xe7	-25
105	0xf1	-15
106	0x12	18
107	0x0e	14
108	0x16	22
109	0x4e	78
110	0x15	21
111	0x16	22
112	0xc0	-64
113	0xda	-38
114	0xd7	-41
115	0x19	25
116	0xeb	-21
117	0x61	97
118	0xff	-1
119	0x20	32
120	0x3a	58
121	0xff	-1
122	0xf8	-8
123	0xfe	-2
124	0x03	3
125	0xf3	-13
126	0xae	-82
127	0xdf	-33
128	0x81	-127
129	0x25	37
130	0xb1	-79
131	0xfd	-3
132	0x9d	-99
133	0xef	-17
134	0xf0	-16
135	0x1b	27
136	0x1a	26
137	0xef	-17
138	0x15	21
139	0xf9	-7
140	0x43	67
141	0x20	32
142	0xcc	-52
143	0x0f	15
144	0x07	7
145	0xe0	-32
146	0xd4	-44
147	0x01	1
148	0xdd	-35
149	0x42	66
150	0x25	37
151	0x18	24
152	0xe0	-32
153	0xf5	-11
154	0xef	-17
155	0xda	-38
156	0xf0	-16
157	0x08	8
158	0xf6	-10
159	0xda	-38
160	0xc9	-55
161	0x32	50
162	0xf0	-16
163	0x06	6
164	0xf8	-8
165	0x3e	62
166	0x21	33
167	0x3d	61
168	0xd0	-48
169	0x04	4
170	0x11	17
171	0x04	4
172	0x48	72
173	0x0c	12
174	0x21	33
175	0xdc	-36
176	0xfa	-6
177	0xca	-54
178	0x0c	12
179	0xdc	-36
180	0xf2	-14
181	0x4d	77
182	0x25	37
183	0xeb	-21
184	0xe8	-24
185	0xf8	-8
186	0x21	33
187	0xce	-50
188	0xfb	-5
189	0xf2	-14
190	0xcd	-51
191	0xe2	-30
192	0xa0	-96
193	0x21	33
194	0xac	-84
195	0xe3	-29
196	0xaf	-81
197	0xc9	-55
198	0x2a	42
199	0xfd	-3
200	0xbc	-68
201	0xd6	-42
202	0x21	33
203	0xeb	-21
204	0x2d	45
205	0x06	6
206	0x11	17
207	0x12	18
208	0xe3	-29
209	0xcb	-53
210	0xce	-50
211	0xf4	-12
212	0x0b	11
213	0x63	99
214	0x16	22
215	0x01	1
216	0x20	32
217	0xfb	-5
218	0x17	23
219	0xec	-20
220	0x20	32
221	0xe0	-32
222	0xde	-34
223	0x2f	47
224	0xd3	-45
225	0x2c	44
226	0xb6	-74
227	0xd1	-47
228	0xc2	-62
229	0xcd	-51
230	0xf1	-15
231	0x0e	14
232	0x10	16
233	0xfb	-5
234	0x1f	31
235	0xdf	-33
236	0x02	2
237	0x02	2
238	0xdf	-33
239	0xfc	-4
240	0xe6	-26
241	0xf8	-8
242	0xca	-54
243	0x0c	12
244	0xdb	-37
245	0x11	17
246	0xf2	-14
247	0xf4	-12
248	0xde	-34
249	0xe7	-25
250	0xe1	-31
251	0xd0	-48
252	0xe5	-27
253	0x1b	27
254	0xe3	-29
255	0x01	1

sequential/conv2d_2/Conv2D i1 [64, 3, 3, 64]
0	0xe1	-31
1	0xf4	-12
2	0xe6	-26
3	0x0e	14
4	0xef	-17
5	0x24	36
6	0xda	-38
7	0xd2	-46
8	0xeb	-21
9	0xe9	-23
10	0xd6	-42
11	0xd1	-47
12	0xd7	-41
13	0x77	119
14	0xc8	-56
15	0xec	-20
16	0xf8	-8
17	0xa9	-87
18	0xd5	-43
19	0xc3	-61
20	0x0f	15
21	0xe0	-32
22	0x03	3
23	0x14	20
24	0xe6	-26
25	0x09	9
26	0xb4	-76
27	0x25	37
28	0x4c	76
29	0xf8	-8
30	0xda	-38
31	0xb4	-76
32	0x17	23
33	0x00	0
34	0xd7	-41
35	0xc2	-62
36	0x06	6
37	0xe2	-30
38	0x03	3
39	0xe2	-30
40	0x05	5
41	0xab	-85
42	0xfa	-6
43	0xcf	-49
44	0x0c	12
45	0xd3	-45
46	0xbd	-67
47	0x28	40
48	0x49	73
49	0xf8	-8
50	0xd9	-39
51	0xb3	-77
52	0x10	16
53	0xbc	-68
54	0xe0	-32
55	0x63	99
56	0x01	1
57	0xf1	-15
58	0x08	8
59	0xc4	-60
60	0x32	50
61	0xe0	-32
62	0xe7	-25
63	0xde	-34
64	0xe5	-27
65	0xde	-34
66	0x0e	14
67	0xdc	-36
68	0x19	25
69	0x20	32
70	0xca	-54
71	0xee	-18
72	0xed	-19
73	0xda	-38
74	0xde	-34
75	0xf2	-14
76	0xc0	-64
77	0x60	96
78	0xe7	-25
79	0x11	17
80	0x13	19
81	0xf3	-13
82	0xa3	-93
83	0xbc	-68
84	0xfa	-6
85	0xd6	-42
86	0x19	25
87	0x1e	30
88	0x1b	27
89	0xed	-19
90	0xd2	-46
91	0xe9	-23
92	0x4e	78
93	0x05	5
94	0xea	-22
95	0xd1	-47
96	0x01	1
97	0x0b	11
98	0xff	-1
99	0xdd	-35
100	0x0b	11
101	0x10	16
102	0xfd	-3
103	0x04	4
104	0x02	2
105	0xd9	-39
106	0x1d	29
107	0xee	-18
108	0xe3	-29
109	0xed	-19
110	0xc3	-61
111	0x06	6
112	0x34	52
113	0x25	37
114	0xbd	-67
115	0xc7	-57
116	0xf2	-14
117	0xf6	-10
118	0xf5	-11
119	0x48	72
120	0x0d	13
121	0x26	38
122	0xf4	-12
123	0x14	20
124	0x3c	60
125	0xeb	-21
126	0xde	-34
127	0xc5	-59
128	0xff	-1
129	0xfb	-5
130	0xc8	-56
131	0x25	37
132	0x1f	31
133	0x0d	13
134	0xb5	-75
135	0xe4	-28
136	0x01	1
137	0xea	-22
138	0x13	19
139	0x14	20
140	0xe4	-28
141	0x51	81
142	0x01	1
143	0xfd	-3
144	0x15	21
145	0xde	-34
146	0xbd	-67
147	0xdd	-35
148	0xe5	-27
149	0xee	-18
150	0xf1	-15
151	0x16	22
152	0x06	6
153	0x08	8
154	0xd2	-46
155	0x20	32
156	0x7e	126
157	0x0b	11
158	0xe7	-25
159	0x21	33
160	0x10	16
161	0x07	7
162	0xb8	-72
163	0xc3	-61
164	0x2b	43
165	0x0a	10
166	0xf7	-9
167	0xe6	-26
168	0x0b	11
169	0xff	-1
170	0x13	19
171	0xee	-18
172	0xdc	-36
173	0xb6	-74
174	0xd0	-48
175	0x22	34
176	0xf3	-13
177	0x07	7
178	0xef	-17
179	0x12	18
180	0xc8	-56
181	0x11	17
182	0xbd	-67
183	0x6e	110
184	0x1b	27
185	0xf8	-8
186	0xf0	-16
187	0x22	34
188	0x24	36
189	0x13	19
190	0xf5	-11
191	0xe9	-23
192	0xdd	-35
193	0xa0	-96
194	0x17	23
195	0xda	-38
196	0xca	-54
197	0x3b	59
198	0x09	9
199	0x14	20
200	0x05	5
201	0xe9	-23
202	0xca	-54
203	0xcf	-49
204	0xd9	-39
205	0x71	113
206	0xdf	-33
207	0x0a	10
208	0x1a	26
209	0xb1	-79
210	0xf6	-10
211	0xc3	-61
212	0xf9	-7
213	0xe1	-31
214	0xe4	-28
215	0xfa	-6
216	0xe1	-31
217	0xe8	-24
218	0x09	9
219	0x02	2
220	0x48	72
221	0xea	-22
222	0x27	39
223	0xb4	-76
224	0xfd	-3
225	0x40	64
226	0x17	23
227	0x03	3
228	0x06	6
229	0xef	-17
230	0xcb	-53
231	0x14	20
232	0xf9	-7
233	0xf5	-11
234	0x32	50
235	0x09	9
236	0x08	8
237	0x0b	11
238	0xc9	-55
239	0x1e	30
240	0x34	52
241	0xcf	-49
242	0x01	1
243	0xb2	-78
244	0x37	55
245	0x9a	-102
246	0xe0	-32
247	0x63	99
248	0xf4	-12
249	0xd9	-39
250	0x18	24
251	0xad	-83
252	0x2b	43
253	0xdb	-37
254	0x00	0
255	0x13	19

sequential/dense/MatMul i1 [64, 6400] scale=0.0036413406 zero_point=0
0	0x27	0.14201228
1	0xea	-0.08010949
2	0xf4	-0.043696087
3	0xee	-0.06554413
4	0xf0	-0.05826145
5	0x02	0.0072826813
6	0x05	0.018206703
7	0xf9	-0.025489384
8	0xf6	-0.036413405
9	0x0a	0.036413405
10	0x08	0.029130725
11	0x40	0.2330458
12	0xed	-0.06918547
13	0xf5	-0.040054746
14	0xf4	-0.043696087
15	0xf5	-0.040054746
16	0xea	-0.08010949
17	0x0f	0.05462011
18	0x09	0.032772064
19	0xf9	-0.025489384
20	0x0b	0.040054746
21	0x28	0.14565362
22	0xec	-0.07282681
23	0x0e	0.05097877
24	0xea	-0.08010949
25	0xea	-0.08010949
26	0xe2	-0.10924022
27	0x17	0.08375084
28	0x0c	0.043696087
29	0xf7	-0.032772064
30	0xe6	-0.094674855
31	0x0a	0.036413405
32	0x06	0.021848043
33	0x0f	0.05462011
34	0x30	0.17478435
35	0x0f	0.05462011
36	0xef	-0.06190279
37	0xff	-0.0036413406
38	0xf5	-0.040054746
39	0xe9	-0.08375084
40	0xeb	-0.076468155
41	0xf7	-0.032772064
42	0x17	0.08375084
43	0x09	0.032772064
44	0xfc	-0.014565363
45	0x2b	0.15657765
46	0x20	0.1165229
47	0xec	-0.07282681
48	0x28	0.14565362
49	0xfa	-0.021848043
50	0x05	0.018206703
51	0xf7	-0.032772064
52	0x23	0.12744692
53	0x1e	0.10924022
54	0xf3	-0.047337428
55	0x0a	0.036413405
56	0xf5	-0.040054746
57	0xf8	-0.029130725
58	0x06	0.021848043
59	0xfe	-0.0072826813
60	0x02	0.0072826813
61	0x01	0.0036413406
62	0x00	0.0
63	0xfc	-0.014565363
64	0x2d	0.16386034
65	0xee	-0.06554413
66	0x01	0.0036413406
67	0xe9	-0.08375084
68	0xe7	-0.09103352
69	0xfd	-0.010924022
70	0xf3	-0.047337428
71	0xff	-0.0036413406
72	0xef	-0.06190279
73	0x00	0.0
74	0xf9	-0.025489384
75	0x38	0.20391507
76	0xe4	-0.10195754
77	0x00	0.0
78	0xf1	-0.05462011
79	0xe4	-0.10195754
80	0xde	-0.12380558
81	0x02	0.0072826813
82	0x0b	0.040054746
83	0xea	-0.08010949
84	0xfa	-0.021848043
85	0x22	0.12380558
86	0xf7	-0.032772064
87	0x0c	0.043696087
88	0xeb	-0.076468155
89	0xf7	-0.032772064
90	0xdc	-0.13108826
91	0x04	0.014565363
92	0xec	-0.07282681
93	0xf1	-0.05462011
94	0xe4	-0.10195754
95	0x02	0.0072826813
96	0x0a	0.036413405
97	0x01	0.0036413406
98	0x2f	0.17114301
99	0x1e	0.10924022
100	0xe4	-0.10195754
101	0x08	0.029130725
102	0xf9	-0.025489384
103	0xe1	-0.11288156
104	0xf6	-0.036413405
105	0xfc	-0.014565363
106	0x04	0.014565363
107	0xf4	-0.043696087
108	0xf1	-0.05462011
109	0x3f	0.22940446
110	0x23	0.12744692
111	0xf5	-0.040054746
112	0x2e	0.16750167
113	0xfb	-0.018206703
114	0xf0	-0.05826145
115	0xf8	-0.029130725
116	0x1d	0.10559888
117	0x22	0.12380558
118	0xef	-0.06190279
119	0xfc	-0.014565363
120	0x09	0.032772064
121	0x07	0.025489384
122	0x07	0.025489384
123	0xfa	-0.021848043
124	0xfc	-0.014565363
125	0xf3	-0.047337428
126	0x0a	0.036413405
127	0x04	0.014565363
128	0x2e	0.16750167
129	0x00	0.0
130	0x05	0.018206703
131	0xe9	-0.08375084
132	0xef	-0.06190279
133	0x0a	0.036413405
134	0xf8	-0.029130725
135	0xf4	-0.043696087
136	0xfb	-0.018206703
137	0xed	-0.06918547
138	0xf4	-0.043696087
139	0x01	0.0036413406
140	0xe7	-0.09103352
141	0xf9	-0.025489384
142	0xed	-0.06918547
143	0xe9	-0.08375084
144	0xdf	-0.12016424
145	0x0a	0.036413405
146	0xf5	-0.040054746
147	0xf3	-0.047337428
148	0xfb	-0.018206703
149	0x17	0.08375084
150	0xfd	-0.010924022
151	0x0d	0.047337428
152	0xdb	-0.13472961
153	0xf9	-0.025489384
154	0xe4	-0.10195754
155	0xf5	-0.040054746
156	0xee	-0.06554413
157	0xf8	-0.029130725
158	0xf1	-0.05462011
159	0xfe	-0.0072826813
160	0x10	0.05826145
161	0x0f	0.05462011
162	0x28	0.14565362
163	0xfe	-0.0072826813
164	0xf2	-0.05097877
165	0xf4	-0.043696087
166	0xf9	-0.025489384
167	0xe7	-0.09103352
168	0xfe	-0.0072826813
169	0xfd	-0.010924022
170	0xf5	-0.040054746
171	0xf5	-0.040054746
172	0xf7	-0.032772064
173	0x2a	0.15293631
174	0x12	0.06554413
175	0x03	0.010924022
176	0x24	0.13108826
177	0x03	0.010924022
178	0xef	-0.06190279
179	0xf7	-0.032772064
180	0x11	0.06190279
181	0xfe	-0.0072826813
182	0xf5	-0.040054746
183	0x02	0.0072826813
184	0x08	0.029130725
185	0xf5	-0.040054746
186	0x0f	0.05462011
187	0xff	-0.0036413406
188	0xfd	-0.010924022
189	0xda	-0.13837095
190	0x0c	0.043696087
191	0xf9	-0.025489384
192	0x23	0.12744692
193	0x06	0.021848043
194	0x10	0.05826145
195	0xf2	-0.05097877
196	0xfa	-0.021848043
197	0xff	-0.0036413406
198	0xef	-0.06190279
199	0x01	0.0036413406
200	0xf8	-0.029130725
201	0xf4	-0.043696087
202	0xee	-0.06554413
203	0xfe	-0.0072826813
204	0xf9	-0.025489384
205	0x02	0.0072826813
206	0xe7	-0.09103352
207	0xf9	-0.025489384
208	0xf9	-0.025489384
209	0x0b	0.040054746
210	0xe7	-0.09103352
211	0xf7	-0.032772064
212	0x07	0.025489384
213	0xfe	-0.0072826813
214	0xee	-0.06554413
215	0xf7	-0.032772064
216	0xed	-0.06918547
217	0xed	-0.06918547
218	0x01	0.0036413406
219	0xf9	-0.025489384
220	0xe1	-0.11288156
221	0xfb	-0.018206703
222	0xff	-0.0036413406
223	0xf5	-0.040054746
224	0x09	0.032772064
225	0x07	0.025489384
226	0x21	0.12016424
227	0xf3	-0.047337428
228	0xfe	-0.0072826813
229	0xf9	-0.025489384
230	0xf8	-0.029130725
231	0xf8	-0.029130725
232	0xfa	-0.021848043
233	0xfd	-0.010924022
234	0xfd	-0.010924022
235	0xee	-0.06554413
236	0xf8	-0.029130725
237	0x01	0.0036413406
238	0x01	0.0036413406
239	0xff	-0.0036413406
240	0x23	0.12744692
241	0xfd	-0.010924022
242	0xf9	-0.025489384
243	0xe8	-0.08739217
244	0x10	0.05826145
245	0x02	0.0072826813
246	0xf1	-0.05462011
247	0xf8	-0.029130725
248	0xf1	-0.05462011
249	0xf1	-0.05462011
250	0xfa	-0.021848043
251	0xf8	-0.029130725
252	0x04	0.014565363
253	0xf1	-0.05462011
254	0x09	0.032772064
255	0x00	0.0

sequential/dense_1/MatMul i1 [24, 64] scale=0.0044653076 zero_point=0
0	0x31	0.21880007
1	0xee	-0.08037554
2	0xd6	-0.18754292
3	0xd2	-0.20540415
4	0x12	0.08037554
5	0x09	0.04018777
6	0xc9	-0.24559192
7	0x33	0.22773069
8	0xe9	-0.102702074
9	0xc5	-0.26345316
10	0x15	0.09377146
11	0x0c	0.05358369
12	0xbe	-0.2947103
13	0x0c	0.05358369
14	0xcf	-0.21880007
15	0x2d	0.20093884
16	0x09	0.04018777
17	0xc2	-0.27684906
18	0xdc	-0.16075107
19	0x21	0.14735515
20	0x02	0.008930615
21	0x3e	0.27684906
22	0x2c	0.19647354
23	0x1e	0.13395923
24	0xff	-0.0044653076
25	0xcb	-0.2366613
26	0xba	-0.31257153
27	0xc9	-0.24559192
28	0x20	0.14288984
29	0xfb	-0.022326538
30	0xff	-0.0044653076
31	0xfd	-0.013395922
32	0x2a	0.18754292
33	0xd1	-0.20986946
34	0xed	-0.08484084
35	0xde	-0.15182045
36	0xe4	-0.12502861
37	0xf2	-0.062514305
38	0x10	0.07144492
39	0x0c	0.05358369
40	0x00	0.0
41	0x0e	0.062514305
42	0x08	0.03572246
43	0xe4	-0.12502861
44	0x36	0.24112661
45	0x0f	0.06697962
46	0xdd	-0.15628576
47	0x25	0.16521639
48	0xc0	-0.28577968
49	0xb5	-0.33489805
50	0x04	0.01786123
51	0x0c	0.05358369
52	0xc6	-0.25898784
53	0xeb	-0.09377146
54	0xf1	-0.06697962
55	0x18	0.10716738
56	0xc0	-0.28577968
57	0xcb	-0.2366613
58	0x22	0.15182045
59	0xf1	-0.06697962
60	0xbf	-0.290245
61	0x11	0.075910226
62	0x1d	0.12949392
63	0xbc	-0.3036409
64	0xd1	-0.20986946
65	0xc4	-0.26791847
66	0xee	-0.08037554
67	0x03	0.013395922
68	0x06	0.026791845
69	0x1d	0.12949392
70	0xce	-0.22326538
71	0xdc	-0.16075107
72	0xf7	-0.04018777
73	0x2a	0.18754292
74	0xe9	-0.102702074
75	0x33	0.22773069
76	0x13	0.08484084
77	0x05	0.022326538
78	0xfd	-0.013395922
79	0x0b	0.049118385
80	0x30	0.21433476
81	0xfb	-0.022326538
82	0x10	0.07144492
83	0xbe	-0.2947103
84	0x3f	0.28131437
85	0x29	0.1830776
86	0xef	-0.075910226
87	0xb9	-0.31703684
88	0xb8	-0.32150215
89	0xcb	-0.2366613
90	0x05	0.022326538
91	0xa6	-0.40187767
92	0x05	0.022326538
93	0x00	0.0
94	0x29	0.1830776
95	0x1a	0.116097994
96	0xe9	-0.102702074
97	0x05	0.022326538
98	0x22	0.15182045
99	0x05	0.022326538
100	0xf0	-0.07144492
101	0xeb	-0.09377146
102	0xdf	-0.14735515
103	0x2f	0.20986946
104	0x11	0.075910226
105	0x00	0.0
106	0xf4	-0.05358369
107	0xc6	-0.25898784
108	0x1f	0.13842453
109	0xe0	-0.14288984
110	0xde	-0.15182045
111	0xec	-0.08930615
112	0xc0	-0.28577968
113	0x1f	0.13842453
114	0xca	-0.24112661
115	0x0b	0.049118385
116	0xf6	-0.044653077
117	0xf0	-0.07144492
118	0x25	0.16521639
119	0x02	0.008930615
120	0xe6	-0.116097994
121	0x07	0.031257153
122	0x21	0.14735515
123	0xfe	-0.008930615
124	0xe0	-0.14288984
125	0x32	0.22326538
126	0x1b	0.120563306
127	0xf9	-0.031257153
128	0x15	0.09377146
129	0xd2	-0.20540415
130	0x13	0.08484084
131	0xcd	-0.22773069
132	0xef	-0.075910226
133	0xe3	-0.12949392
134	0xe4	-0.12502861
135	0x08	0.03572246
136	0x2f	0.20986946
137	0xd2	-0.20540415
138	0x09	0.04018777
139	0x11	0.075910226
140	0xba	-0.31257153
141	0x1e	0.13395923
142	0xdc	-0.16075107
143	0x2f	0.20986946
144	0x10	0.07144492
145	0xd9	-0.174147
146	0x28	0.1786123
147	0x36	0.24112661
148	0xe0	-0.14288984
149	0xdc	-0.16075107
150	0xf1	-0.06697962
151	0xcd	-0.22773069
152	0xe5	-0.120563306
153	0x2b	0.19200823
154	0xf0	-0.07144492
155	0xe2	-0.13395923
156	0x16	0.09823677
157	0x34	0.23219599
158	0xfb	-0.022326538
159	0x30	0.21433476
160	0x1e	0.13395923
161	0x32	0.22326538
162	0x03	0.013395922
163	0xe7	-0.11163269
164	0x02	0.008930615
165	0xf2	-0.062514305
166	0xcf	-0.21880007
167	0x0f	0.06697962
168	0xba	-0.31257153
169	0xb3	-0.34382868
170	0xe6	-0.116097994
171	0x1c	0.12502861
172	0xc5	-0.26345316
173	0x0b	0.049118385
174	0x2d	0.20093884
175	0xfa	-0.026791845
176	0x9f	-0.43313482
177	0x03	0.013395922
178	0xcb	-0.2366613
179	0xe5	-0.120563306
180	0xed	-0.08484084
181	0x0e	0.062514305
182	0x13	0.08484084
183	0xd2	-0.20540415
184	0x35	0.2366613
185	0xfb	-0.022326538
186	0xee	-0.08037554
187	0x34	0.23219599
188	0xc7	-0.25452253
189	0xdc	-0.16075107
190	0xe6	-0.116097994
191	0xfc	-0.01786123
192	0x1b	0.120563306
193	0xd9	-0.174147
194	0xd7	-0.1830776
195	0x13	0.08484084
196	0xdf	-0.14735515
197	0x1e	0.13395923
198	0xfe	-0.008930615
199	0xd2	-0.20540415
200	0xda	-0.16968168
201	0x0e	0.062514305
202	0x2c	0.19647354
203	0x29	0.1830776
204	0xf8	-0.03572246
205	0x24	0.16075107
206	0xc1	-0.28131437
207	0xfb	-0.022326538
208	0xeb	-0.09377146
209	0xc3	-0.27238375
210	0xfd	-0.013395922
211	0xe7	-0.11163269
212	0x05	0.022326538
213	0xd7	-0.1830776
214	0xe7	-0.11163269
215	0x36	0.24112661
216	0xaa	-0.38401645
217	0xcd	-0.22773069
218	0xe1	-0.13842453
219	0xbe	-0.2947103
220	0x3f	0.28131437
221	0x30	0.21433476
222	0xd4	-0.19647354
223	0x35	0.2366613
224	0x01	0.0044653076
225	0xf4	-0.05358369
226	0xdb	-0.16521639
227	0x15	0.09377146
228	0xde	-0.15182045
229	0xba	-0.31257153
230	0x06	0.026791845
231	0x46	0.31257153
232	0xf1	-0.06697962
233	0x29	0.1830776
234	0xa4	-0.4108083
235	0xbf	-0.290245
236	0xcd	-0.22773069
237	0xee	-0.08037554
238	0x26	0.16968168
239	0x04	0.01786123
240	0xc4	-0.26791847
241	0xd9	-0.174147
242	0x3b	0.26345316
243	0xe6	-0.116097994
244	0x40	0.28577968
245	0xf0	-0.07144492
246	0xf8	-0.03572246
247	0xfd	-0.013395922
248	0x15	0.09377146
249	0xe8	-0.10716738
250	0xf5	-0.049118385
251	0xee	-0.08037554
252	0x36	0.24112661
253	0xe2	-0.13395923
254	0x1e	0.13395923
255	0x09	0.04018777
