saved_models/DeathKnight/model.tflite (tflite, 476600 bytes, 10 tensors)

sequential_1/dense_2/BiasAdd/ReadVariableOp f4 [64]
00000000: ad69 963d 2c7f 86bd 728c d2bd d29a dbbd
00000010: d44e 7abd 7807 b93d 15f9 c1bb 88ac 97bd
00000020: 05bc e7bb 3971 5fbd 5cd0 df3d 4a96 243d
00000030: 426e a4bd 4367 60bd d528 4bbd b3bd c63c
00000040: e8ea 0ebd c9ad 85bd 6cf8 a13d 5e16 b33d
00000050: 42b7 813c c08f acbb d4a0 683d 2ff5 533d
00000060: 355e c5bb b7b3 253d 352e 623d 06ac d3bb
00000070: 3d68 2cbd 5537 8b3c 06d4 09bd f474 3dbc
00000080: fb30 143d 0dc7 1bbb cd5f b3bd ff99 db3b
00000090: 6df9 093e de36 bdbb c61a 1bbd eec0 9abd
000000a0: 667d fabd 8274 e0bb 4190 413d 1d2c 08bd
000000b0: 9b44 3fbe ed2c 2abe cc39 ffbd 57dc 4e3d
000000c0: 2c7c ddbc 622d f83d ec5a 67bc 35c1 9c3d
000000d0: ce2c 31bd 257f 4f3c fa56 2ebd d00c 12be
000000e0: 66d6 453d bd05 3f3d aadd dabc cf40 5bbb
000000f0: 8112 56bc 0a08 9abd f676 5ebc 058e 94bd
0.07344375 -0.06567225 -0.10280694 -0.10722889 -0.061110333 0.09034628 -0.0059195855 -0.074059546
-0.007071974 -0.054551337 0.10928413 0.04018239 -0.080288425 -0.054785978 -0.049599487 0.024260378
-0.034891993 -0.065272875 0.07908711 0.087445006 0.015834454 -0.00526616 0.056794003 0.051747497
-0.0060231932 0.040454593 0.055219848 -0.006459716 -0.042091597 0.016994158 -0.033649467 -0.011563528
0.036179524 -0.0023769767 -0.08758507 0.0067017074 0.13474055 -0.005774363 -0.03786733 -0.0755633
-0.12230949 -0.0068498263 0.047256712 -0.033245195 -0.18678515 -0.166187 -0.12462196 0.0505031
-0.027036749 0.12118031 -0.014120799 0.07654039 -0.04325562 0.012664591 -0.042563416 -0.142627
0.04830017 0.04663633 -0.026717026 -0.0033455377 -0.013065935 -0.075210646 -0.013578167 -0.072536506

sequential_1/dense_3/BiasAdd/ReadVariableOp f4 [27]
00000000: 4e7a 40bd 441f 27be 1881 07be 76bc 8cbb
00000010: 4400 31bc 0205 fbbc c73c 213c e0f0 8a3d
00000020: 3415 143c 1aa9 353e e343 9f3d a64d 223d
00000030: 6f12 4dbd cbbb 3cbd 2c40 983d 98aa 86bb
00000040: f4c4 b13c 11ab 06be 49be 31bd d4cc cd3c
00000050: d85b 04bd aa9c 933d 638c e0bc ec1e 03be
00000060: 54ad 3f3d b929 253d 9e66 2e3c
-0.04699164 -0.1632052 -0.13232839 -0.004294927 -0.010803286 -0.030642036 0.009841151 0.067842245
0.009038258 0.17740288 0.0777662 0.039624833 -0.050066408 -0.04607753 0.07434115 -0.004109692
0.02170036 -0.13151194 -0.04339436 0.025122084 -0.03231415 0.07207616 -0.027410692 -0.12804765
0.046796158 0.040322993 0.010644583

sequential_1/conv2d_3/BiasAdd/ReadVariableOp f4 [32]
00000000: 9c8b debd 2b1b 5ebd 3aeb 27bc e4f0 4bbe
00000010: 9f51 1fbd 4153 58be 09be 89bc ae31 07bc
00000020: 4745 92be c92c 4cbe 65c6 99bd 5ca0 36bd
00000030: 44a7 86bd f6f5 4d3e a8c8 43be 79ca 47bd
00000040: abaf 1739 2c14 49bd 175f f9bd 3881 15be
00000050: 6f6c 3dbd 0d03 533b 7ee8 2bbd 4a38 45bc
00000060: 0f0e 22be 4e7d 3dbd 806e 87bd e878 d1bd
00000070: 617b e73d c4f6 26bd 1c58 3bbe 018a cfbd
-0.10866472 -0.05422513 -0.0102489535 -0.19916111 -0.0388962 -0.21125509 -0.016814249 -0.008251591
-0.2856848 -0.19938959 -0.07508544 -0.044586524 -0.06574872 0.20113358 -0.19119513 -0.048777077
0.00014465924 -0.049091503 -0.1217634 -0.14600074 -0.04624599 0.0032197863 -0.04196977 -0.012037346
-0.15825675 -0.046262078 -0.06612873 -0.10228139 0.113028295 -0.040762678 -0.1829533 -0.10133744

sequential_1/conv2d_4/BiasAdd/ReadVariableOp f4 [64]
00000000: e32c 00be d8ec 1e3d bcf4 0dbe 7804 e4bd
00000010: c662 c4bd 6c22 dfbd 838d a9bd 599a 693d
00000020: 3e07 0a3e b86b fbbd b9bb 2cbe b3ad 04be
00000030: 0c59 45bd 0c3c 693e caed a5bd 3c01 d03c
00000040: e390 5e3d fd7c 04be 0c54 75bd 1f55 1f3e
00000050: 041a 323a 1e7d d8bd ea3d 0cbe 8005 d6bc
00000060: 9bf0 d4bd 59e0 f8bd 515c adbd 47db bd3c
00000070: 2bc7 b3bd 2fe9 adbd af45 c0bd ff85 e2bd
00000080: 82b1 c6bd 011c 9ebd f845 fb3d 75c9 22bc
00000090: c66f c6bc 1378 853e 59c1 ffbd e20e 3dbb
000000a0: 54fe 40bd fced c8bd 127d dfbb de72 15bc
000000b0: a386 9abd 783c 44bb 829f e7bd 2284 24bd
000000c0: 722f cfbd b404 9fbd 8db0 9ebd 24b5 aabd
000000d0: fc87 ab39 d0b8 e9bd bbce 0dbe 4073 8dbc
000000e0: ea0a 28bd 9d3d 21be 35b9 f8bd 1b22 1cbd
000000f0: c17e c1bd 4879 063e d0fb 55be e175 5d3e
-0.12517123 0.03880009 -0.1386289 -0.11133665 -0.09589152 -0.10895237 -0.08278944 0.057031963
0.13479325 -0.12276405 -0.16868486 -0.12956886 -0.048180625 0.22776812 -0.08101995 0.025391214
0.054337393 -0.12938304 -0.059894606 0.15559815 0.0006794038 -0.10570739 -0.13695493 -0.02612567
-0.10397454 -0.12152166 -0.084648736 0.023175849 -0.08778223 -0.08491742 -0.09388291 -0.11060714
-0.09701826 -0.07720185 0.12269205 -0.009935726 -0.02422322 0.26068172 -0.1248805 -0.0028847982
-0.047117546 -0.09811017 -0.0068203295 -0.009121625 -0.07545211 -0.0029943269 -0.113097206 -0.040165074
-0.10116471 -0.07764569 -0.07748518 -0.08335331 0.00032716978 -0.11412203 -0.13848393 -0.01726687
-0.041026033 -0.1574616 -0.121447004 -0.038118463 -0.094480045 0.13132203 -0.2089684 0.21626998

sequential_1/conv2d_5/BiasAdd/ReadVariableOp f4 [64]
00000000: e6d2 90bd fbd3 14bc 625a a7bd c22a 0ebd
00000010: dff2 73bd 4b9b 17bd 50b8 7ebd 8b91 f0bd
00000020: 3c7d bfbc ad9a d5bd d6cc 59be 5c3e fbbd
00000030: 8a01 56bc 6169 a0bd bd3d 5b3d bc06 e3bd
00000040: 4744 0a3e bf47 31be 3e15 eb3d 5a41 0fbe
00000050: 803b 72bd 8e08 f5bd 5b4c 11bd 593d 42be
00000060: 40a4 05be 5bb8 413e ccc9 a6bd 97a1 edbd
00000070: 4c42 54be a47d 04be d8e4 f9bc 317a 33bd
00000080: 74fd 95bd e5b9 9dbc 550a cdbd 6371 a2bd
00000090: 26ed cc3c 10b8 9e3c 123d bfbd 59ad adbd
000000a0: 306a a2bd f33a afbd a147 b2bd be15 31be
000000b0: 4d9e 08be 0f51 803d 5ea1 c8bc ce9e e4bd
000000c0: 7f8d 543b 2000 4fbe 6eeb 10be 6ee1 26bd
000000d0: 6356 fd3d b5eb 47bc b8fe 903d 17c8 bfbd
000000e0: 0a65 ebbd 3713 ddbd 000b f0bb 1055 c4bc
000000f0: a4c4 28be a436 6fbe 8810 fbbd d7ec 6cbe
-0.07071476 -0.009083743 -0.08171536 -0.034708746 -0.05955779 -0.037013333 -0.062187493 -0.1174651
-0.023375146 -0.10429893 -0.21269545 -0.122677535 -0.01306189 -0.078325994 0.053525675 -0.11085269
0.13502608 -0.17312525 0.11478661 -0.13989773 -0.059138775 -0.11964522 -0.03547321 -0.18968715
-0.13050938 0.18917982 -0.081439584 -0.116030864 -0.20728415 -0.12938553 -0.030504629 -0.043817703
-0.07323733 -0.01925368 -0.10011736 -0.07931783 0.025015425 0.019374877 -0.0933782 -0.08480329
-0.0793041 -0.085561655 -0.087050684 -0.1729345 -0.13341637 0.06265461 -0.024491008 -0.11163102
0.003243297 -0.20214891 -0.1415231 -0.04074233 0.123699926 -0.012202193 0.07079834 -0.09364336
-0.11493881 -0.107946806 -0.00732553 -0.023966342 -0.16481262 -0.23360687 -0.122590125 -0.23137222

sequential_1/conv2d_3/Conv2D f4 [32, 3, 3, 3]
00000000: fefb 993d e4d7 1cbb 0778 bd3d f43e 68be
00000010: cf2e 31be 3254 e6bd 5c53 19be 136b d8bd
00000020: e872 22be 9afd 073e 6d05 203e f6c7 703d
00000030: 4d17 98bc 5e5e 2cbc 2a4f c3bd 3aef 42be
00000040: 3ec5 a4bd d688 50be 03c2 5d3d bf24 39bc
00000050: eabd 6a3d 2354 ecbd cbf6 9e3d 485b bb3d
00000060: 3659 e8bd f8f8 813c 15d9 37bd bd1a 85be
00000070: c67d da3d e7a4 a6bd 4226 0bbe 7ff3 19bc
00000080: 9c23 203d 28a2 43be f180 823d d55a e23d
00000090: b434 11be fdaf 2c3c 2c8f b6bd b175 dbbd
000000a0: 6572 7c3d 571a d13d 0bb4 85be f9ac 243d
000000b0: bb7e 5cbc b58d 5fbd e30c 03be 983a 7dbd
000000c0: 1a2e 69be 0956 10be f3f5 813d 51d4 27be
000000d0: e0e8 1abe 23cb 13be 2bc0 d5bc 9975 9e3d
000000e0: e237 f2bd 88f7 7c3c 4c73 66bd 1df6 74bd
000000f0: b4af cbbd 89aa 24be e355 7bbe c659 fabd
00000100: 2f6f 1cbe b4f4 e0bd 15d1 4cbe da1a 2fbe
00000110: 8cfc babd 4e74 42be 6973 72be 5897 85be
00000120: 4832 153b 72ef 55bd 4e30 403d 1a37 ef3d
00000130: 2ae0 003e 1363 d8bc eec1 153e 74c0 903e
00000140: 10a5 0c3e ae31 383d 2e9c fdbc 9248 b73b
00000150: 41d2 623d 6586 c33d 4bc8 29bd 3447 933d
00000160: d0fb 4a3c a3be e03b 761d 9ebd bac6 30be
00000170: 7ff3 b3bd 8837 16be 8314 24be 63fd 9a3d
00000180: 22f3 d1bd 25f6 0bbd b3db 8a3c 1c46 d6bd
00000190: 3893 d03c c140 f5bd 7b9f ac3d f6d3 03be
000001a0: d298 11be 229c 133d 102f aabd 9e8c 243c
000001b0: a7c2 263d d450 61be 82f0 88bd 4cb4 2d3e
000001c0: 5c64 2cbd 2d14 83be 8089 403e 8e97 20be
000001d0: 73b6 38be 77e2 c13d 397b 2abe 410c 7ebe
000001e0: 3708 4d3e 6042 76be 8ad2 5abe 8543 003e
000001f0: 8899 12be b26d 2fbe c9c3 2d3e cbc0 5fbe
00000200: 45f4 11be d8f0 013c 3256 3abe 0c26 cfbc
00000210: 4b5f eabb b523 35be 5cad cabd 7bcc 3f3e
00000220: eac4 cdbd f876 053e 17be 5b3e fb8c d1bd
00000230: 8277 103e 0524 f33d 8af9 4b3d 504c 1c3e
00000240: 7f4b 193e 6b89 223d b4ed 3cbd d5e9 383e
00000250: 6c27 ff3d 16e4 623d 573d eabc b4d9 a93d
00000260: 1336 96bd dc8b 3c3e 25f2 10be 5269 463d
00000270: aa9b 4f3e 93a1 4bbd 5779 86bd 7568 1d3e
00000280: ac7a 463b 4257 083d 6500 b4bd 8eeb 993d
00000290: 7141 13be e017 3cbe b934 473c d1f1 20be
000002a0: f222 1dbe 9321 0f3e dd10 853d 2100 88bd
000002b0: 9591 65bc 3ab7 b8bd 2040 5cbe a449 953b
000002c0: 24b7 fc3c 43cd 4a3d 911a 7f3d d9f7 43be
000002d0: 1c5f a9bd 08e4 a3bd 3d8c 28be ac3d 07bc
000002e0: 431e 5fbd 8c2a 813c 5520 50be 5186 e43d
000002f0: e47a 9fbd 121c 12be d9bb d3bd 6815 143e
00000300: 623c 30be 772f 01be 64dd 8e3d 5483 50bd
00000310: cfa1 04be 2c77 52bd 834e 253d c6da 27be
00000320: 07a8 e03c fad3 5ebd 140b fa3b db67 1bbd
00000330: bc51 4abe dd1e 27be 3cd0 b83d 73a8 37be
00000340: d47e 15be 6b7d 143d dcc2 3cbe 2c94 58be
00000350: d936 1e3e f2a2 dbbd 790b 893d 1c02 153e
00000360: e931 28be 4fc1 14bc fda2 063e 5026 eabc
00000370: 56ee de3d 7dfd 503e 1812 86bb e284 4fbd
00000380: e649 0d3e b62e 53bd e63c 22bb b64f 053e
00000390: f493 203d 1ab7 073c 89e4 473e 9072 823d
000003a0: c865 a93d 8c40 26bd d38c 8cbd 27c2 7d3d
000003b0: 8fef f23c 8491 dbbc 0598 963d e993 373e
000003c0: b49c b4bb 22d5 c3bc 2a3f dc3d 3a4b 4abe
000003d0: 2279 743d 200c 2fbd 1845 d4bc 6057 8e3d
000003e0: 37da bf3c 4f67 9bba 9bd8 27ba 2b76 9abd
000003f0: 5ded 64bd 87e9 29bc f87d ba3c b30f 03be
0.07518767 -0.0023932392 0.09251409 -0.22680265 -0.17303012 -0.11246528 -0.14973205 -0.10567298
-0.15864146 0.13280335 0.1562707 0.058784448 -0.018565798 -0.010520546 -0.09536584 -0.1903657
-0.080454335 -0.20364699 0.054140102 -0.011300265 0.057310022 -0.11539485 0.07761916 0.0914827
-0.11345141 0.015865788 -0.04488476 -0.25996962 0.10668521 -0.081369214 -0.13588813 -0.009396433
0.03909646 -0.19104826 0.0637225 0.11052481 -0.14180261 0.010540006 -0.089140266 -0.10715807
0.061632533 0.10210102 -0.26113924 0.040204022 -0.013457949 -0.0545785 -0.12797885 -0.061823457
-0.22771493 -0.1409532 0.06345739 -0.16389586 -0.15127897 -0.1443296 -0.02609261 0.07737274
-0.11827065 0.015439875 -0.0562623 -0.059805024 -0.09945622 -0.16080679 -0.24544482 -0.12224154
-0.15276788 -0.109841734 -0.20001633 -0.17100087 -0.09130201 -0.18989679 -0.23676838 -0.2609203
0.0022765566 -0.052230306 0.046921067 0.11680432 0.12585512 -0.02641443 0.1462476 0.2827183
0.13734841 0.044969253 -0.030958261 0.005593368 0.055376295 0.09547118 -0.04145078 0.07191315
0.012389138 0.006858663 -0.07720463 -0.17263308 -0.087866776 -0.14669621 -0.1602345 0.07567861
-0.10251452 -0.03417029 0.016950464 -0.10462591 0.025460824 -0.119752415 0.08428856 -0.12873825
-0.14218453 0.03603757 -0.08309758 0.010043291 0.04071298 -0.2200349 -0.06686498 0.16963309
-0.042087898 -0.2560133 0.18802452 -0.15682814 -0.18038349 0.09467023 -0.16648568 -0.24809362
0.20022665 -0.24048758 -0.21369377 0.12525757 -0.1431638 -0.17131689 0.16969217 -0.21850888
-0.14253338 0.007930957 -0.18196943 -0.025286697 -0.007152473 -0.17689402 -0.09896347 0.18730347
-0.10047324 0.13033664 0.21459232 -0.10231968 0.14108089 0.118721046 0.049798526 0.15263486
0.14970206 0.039681833 -0.04612513 0.1805795 0.12458691 0.0553933 -0.028593702 0.08293477
-0.073345326 0.18412727 -0.14154871 0.048440285 0.20274225 -0.049714636 -0.065661125 0.15371878
0.003028552 0.03328634 -0.08789138 0.075156316 -0.14380433 -0.18368483 0.012158566 -0.15717246
-0.15345362 0.13977651 0.06497357 -0.066406496 -0.01401176 -0.09019323 -0.21508837 0.004555898
0.030849047 0.04951216 0.062281195 -0.19137515 -0.08270094 -0.08002478 -0.16459747 -0.00825445
-0.05447222 0.015767358 -0.20324834 0.11158431 -0.077871114 -0.1426852 -0.103385635 0.14461291
-0.17210534 -0.12615763 0.06975821 -0.050906494 -0.1295235 -0.051383182 0.040358078 -0.16392049
0.027423872 -0.054401375 0.007630715 -0.03794084 -0.19757742 -0.16320367 0.090240926 -0.17935352
-0.14599162 0.03625242 -0.18433708 -0.21150273 0.1545061 -0.10724439 0.06691641 0.14551586
-0.16425289 -0.0090792915 0.13148113 -0.028582722 0.10885303 0.20409198 -0.0040915124 -0.050663836
0.13797721 -0.05155822 -0.0024755537 0.13018689 0.0392036 0.008283401 0.19520773 0.06369507
0.08271366 -0.0405889 -0.068627976 0.061952736 0.029655246 -0.026802786 0.07353214 0.17927517
-0.0055118445 -0.02390534 0.10754235 -0.19755259 0.059685834 -0.042736173 -0.025911853 0.06950259
0.023419483 -0.001185635 -0.0006402821 -0.0754207 -0.05589043 -0.010370619 0.022765145 -0.12798958

sequential_1/conv2d_4/Conv2D i1 [64, 3, 3, 32]
00000000: 15d4 2ffd bfdf 12c3 ede7 cee3 dd37 eaec
00000010: 0903 e0f6 b5ff ba0e 1207 bc14 2c10 03d6
00000020: fad9 4fe2 b8c2 10d8 d2de e6eb fc43 97d6
00000030: 2835 e2ff d9fa a225 0ed7 2b3f 39f9 c1e1
00000040: 07bd 3dfd daa7 ffdf a9d9 e5f3 f537 81b2
00000050: 4b01 cbf7 eeeb c217 ecc4 fa1f 45be ccdd
00000060: 26ce 67fd b725 e6bf 1ccd dcdd 0020 05b6
00000070: a1da ed13 f7e4 abdd 0c0f e30f befc 1a2a
00000080: 17b4 21f0 e21a dfc0 0ee0 bede fbfd 16d8
00000090: 0918 d700 b719 c01a e909 fcf9 e8ca 2a36
000000a0: 33fc 3fea fbdf eef6 d7f5 d70b e8f0 eedc
000000b0: 2bfa dfff f31d d006 fe14 f6ee e4df 1909
000000c0: f4e2 fbfe e201 0fa5 2cc6 f0df fd1b 3ab1
000000d0: b8d9 07f9 d695 e8ec ec11 0308 da27 1de7
000000e0: 1b0a ec1b c644 ea89 12d1 e7a5 fc35 4bd3
000000f0: fada 04f0 f9a8 e4b7 0719 fd14 b42a 1b0b
21 -44 47 -3 -65 -33 18 -61
-19 -25 -50 -29 -35 55 -22 -20
9 3 -32 -10 -75 -1 -70 14
18 7 -68 20 44 16 3 -42
-6 -39 79 -30 -72 -62 16 -40
-46 -34 -26 -21 -4 67 -105 -42
40 53 -30 -1 -39 -6 -94 37
14 -41 43 63 57 -7 -63 -31
7 -67 61 -3 -38 -89 -1 -33
-87 -39 -27 -13 -11 55 -127 -78
75 1 -53 -9 -18 -21 -62 23
-20 -60 -6 31 69 -66 -52 -35
38 -50 103 -3 -73 37 -26 -65
28 -51 -36 -35 0 32 5 -74
-95 -38 -19 19 -9 -28 -85 -35
12 15 -29 15 -66 -4 26 42
23 -76 33 -16 -30 26 -33 -64
14 -32 -66 -34 -5 -3 22 -40
9 24 -41 0 -73 25 -64 26
-23 9 -4 -7 -24 -54 42 54
51 -4 63 -22 -5 -33 -18 -10
-41 -11 -41 11 -24 -16 -18 -36
43 -6 -33 -1 -13 29 -48 6
-2 20 -10 -18 -28 -33 25 9
-12 -30 -5 -2 -30 1 15 -91
44 -58 -16 -33 -3 27 58 -79
-72 -39 7 -7 -42 -107 -24 -20
-20 17 3 8 -38 39 29 -25
27 10 -20 27 -58 68 -22 -119
18 -47 -25 -91 -4 53 75 -45
-6 -38 4 -16 -7 -88 -28 -73
7 25 -3 20 -76 42 27 11

sequential_1/conv2d_5/Conv2D i1 [64, 3, 3, 64]
00000000: d5d3 18f6 d6ee e2ec f72f f90c 1bbe f3dc
00000010: e1ea d1f6 f7ec ffeb 1d1e 0fe7 d4f7 e806
00000020: 0be6 1014 f8dc 0b08 e102 e603 0eef f21b
00000030: 29e2 0a06 08ec dfe7 1f13 f2e7 17df 2e03
00000040: cbdf 11e4 f208 d622 01fc fa26 09e4 c3ea
00000050: dddd 0616 cc07 fae9 d723 f3fd b103 ffe5
00000060: e306 f30a db0a d6e4 ffee b71f ffe0 1106
00000070: f6c3 02f0 f8f7 dee3 120b 01fd e60a 2cc8
00000080: daf2 210c faf8 d71d a1ec cdf8 f0bd c7da
00000090: f9da 110d 08de e5e4 0524 cf19 e9e4 fac9
000000a0: f406 19e8 d807 05f9 0e00 0708 f5d7 e4f6
000000b0: 04fd 26d7 eaba 05d8 f2e1 01f9 09de 12ef
000000c0: dde4 3403 fbe6 f2d1 e8f5 d1ea e2b7 d5ef
000000d0: d8dd cad7 fcca fde2 e500 0009 cf18 01df
000000e0: fb15 e4ee d7e9 0f13 02df c602 22d8 d60f
000000f0: f8db fbed f3d1 eccb fe10 e221 efd1 f9e2
-43 -45 24 -10 -42 -18 -30 -20
-9 47 -7 12 27 -66 -13 -36
-31 -22 -47 -10 -9 -20 -1 -21
29 30 15 -25 -44 -9 -24 6
11 -26 16 20 -8 -36 11 8
-31 2 -26 3 14 -17 -14 27
41 -30 10 6 8 -20 -33 -25
31 19 -14 -25 23 -33 46 3
-53 -33 17 -28 -14 8 -42 34
1 -4 -6 38 9 -28 -61 -22
-35 -35 6 22 -52 7 -6 -23
-41 35 -13 -3 -79 3 -1 -27
-29 6 -13 10 -37 10 -42 -28
-1 -18 -73 31 -1 -32 17 6
-10 -61 2 -16 -8 -9 -34 -29
18 11 1 -3 -26 10 44 -56
-38 -14 33 12 -6 -8 -41 29
-95 -20 -51 -8 -16 -67 -57 -38
-7 -38 17 13 8 -34 -27 -28
5 36 -49 25 -23 -28 -6 -55
-12 6 25 -24 -40 7 5 -7
14 0 7 8 -11 -41 -28 -10
4 -3 38 -41 -22 -70 5 -40
-14 -31 1 -7 9 -34 18 -17
-35 -28 52 3 -5 -26 -14 -47
-24 -11 -47 -22 -30 -73 -43 -17
-40 -35 -54 -41 -4 -54 -3 -30
-27 0 0 9 -49 24 1 -33
-5 21 -28 -18 -41 -23 15 19
2 -33 -58 2 34 -40 -42 15
-8 -37 -5 -19 -13 -47 -20 -53
-2 16 -30 33 -17 -47 -7 -30

sequential_1/dense_2/MatMul i1 [64, 6400] scale=0.0048274333 zero_point=0
00000000: 1a01 f605 f00d fdfa 1718 270b fc07 0501
00000010: 1805 f704 0cf2 2f0b 0510 0901 0c14 060d
00000020: 0001 02f6 0e1d 0301 f902 0f24 0516 0e05
00000030: 0e16 08f9 10fe f72f 021e 05eb 1308 240d
00000040: 110e 05fd ed0d f804 0820 1b0d fe1c f1f3
00000050: 1216 f112 04ff 1811 0608 f308 1cf9 f908
00000060: eb0d 0eed 2013 02ef 0b07 1f1b 1110 1920
00000070: 0225 07fe fbfd f71e fa1a fafd fe08 331a
00000080: f107 05ff f50f fbf6 fa1d 220c fb19 fdf1
00000090: 0efc fd13 fafb ec10 fd0a de0a 2a04 f905
000000a0: ea07 1ee3 2809 06fa 1502 0b12 270c 0f1a
000000b0: dd09 16f5 edff eb08 0419 fcdb fc20 3526
000000c0: db08 07fc f8fe 0015 de0f 1110 0328 0bee
000000d0: 05f5 0809 fcf3 ca20 f5fc d303 3604 fb13
000000e0: feef 21f2 0cf5 02f9 130a e21c 1b08 eb19
000000f0: db05 0beb ea02 13f8 ff0e fdcb 071f 0530
0.12551327 0.0048274333 -0.04827433 0.024137165 -0.07723893 0.062756635 -0.0144823 -0.0289646
0.111030966 0.1158584 0.1882699 0.053101767 -0.019309733 0.033792034 0.024137165 0.0048274333
0.1158584 0.024137165 -0.0434469 0.019309733 0.0579292 -0.06758407 0.22688936 0.053101767
0.024137165 0.07723893 0.0434469 0.0048274333 0.0579292 0.09654866 0.0289646 0.062756635
0.0 0.0048274333 0.0096548665 -0.04827433 0.06758407 0.13999556 0.0144823 0.0048274333
-0.033792034 0.0096548665 0.0724115 0.1737876 0.024137165 0.10620353 0.06758407 0.024137165
0.06758407 0.10620353 0.038619466 -0.033792034 0.07723893 -0.0096548665 -0.0434469 0.22688936
0.0096548665 0.144823 0.024137165 -0.1013761 0.09172123 0.038619466 0.1737876 0.062756635
0.082066365 0.06758407 0.024137165 -0.0144823 -0.09172123 0.062756635 -0.038619466 0.019309733
0.038619466 0.15447786 0.1303407 0.062756635 -0.0096548665 0.13516814 -0.0724115 -0.062756635
0.0868938 0.10620353 -0.0724115 0.0868938 0.019309733 -0.0048274333 0.1158584 0.082066365
0.0289646 0.038619466 -0.062756635 0.038619466 0.13516814 -0.033792034 -0.033792034 0.038619466
-0.1013761 0.062756635 0.06758407 -0.09172123 0.15447786 0.09172123 0.0096548665 -0.082066365
0.053101767 0.033792034 0.14965042 0.1303407 0.082066365 0.07723893 0.12068583 0.15447786
0.0096548665 0.17861503 0.033792034 -0.0096548665 -0.024137165 -0.0144823 -0.0434469 0.144823
-0.0289646 0.12551327 -0.0289646 -0.0144823 -0.0096548665 0.038619466 0.2461991 0.12551327
-0.0724115 0.033792034 0.024137165 -0.0048274333 -0.053101767 0.0724115 -0.024137165 -0.04827433
-0.0289646 0.13999556 0.16413273 0.0579292 -0.024137165 0.12068583 -0.0144823 -0.0724115
0.06758407 -0.019309733 -0.0144823 0.09172123 -0.0289646 -0.024137165 -0.09654866 0.07723893
-0.0144823 0.04827433 -0.16413273 0.04827433 0.2027522 0.019309733 -0.033792034 0.024137165
-0.10620353 0.033792034 0.144823 -0.13999556 0.19309732 0.0434469 0.0289646 -0.0289646
0.1013761 0.0096548665 0.053101767 0.0868938 0.1882699 0.0579292 0.0724115 0.12551327
-0.16896017 0.0434469 0.10620353 -0.053101767 -0.09172123 -0.0048274333 -0.1013761 0.038619466
0.019309733 0.12068583 -0.019309733 -0.17861503 -0.019309733 0.15447786 0.25585395 0.18344246
-0.17861503 0.038619466 0.033792034 -0.019309733 -0.038619466 -0.0096548665 0.0 0.1013761
-0.16413273 0.0724115 0.082066365 0.07723893 0.0144823 0.19309732 0.053101767 -0.0868938
0.024137165 -0.053101767 0.038619466 0.0434469 -0.019309733 -0.062756635 -0.2606814 0.15447786
-0.053101767 -0.019309733 -0.21723449 0.0144823 0.2606814 0.019309733 -0.024137165 0.09172123
-0.0096548665 -0.082066365 0.1593053 -0.06758407 0.0579292 -0.053101767 0.0096548665 -0.033792034
0.09172123 0.04827433 -0.144823 0.13516814 0.1303407 0.038619466 -0.1013761 0.12068583
-0.17861503 0.024137165 0.053101767 -0.1013761 -0.10620353 0.0096548665 0.09172123 -0.038619466
-0.0048274333 0.06758407 -0.0144823 -0.25585395 0.033792034 0.14965042 0.024137165 0.2317168

sequential_1/dense_3/MatMul i1 [27, 64] scale=0.0043104813 zero_point=0
00000000: dce9 38ce 16c4 fcfe c7cf d0ce f0d4 09cc
00000010: afc8 f2f2 16c7 0adc 3a3f df08 e8b3 2ee7
00000020: 00fe 3d0e d9fd d537 aad9 aa0d 3916 d615
00000030: 34c4 f8cf f7dc ea36 d7eb d8de 2bdf df0e
00000040: 0bde e221 def9 21f0 2ee3 bc21 e833 edfb
00000050: a0cb ff2e cdf6 b53f d9f7 f4cd 19fc d0f3
00000060: e8d3 e1eb e201 2a34 f9e4 fcdb da22 3fb9
00000070: 3af2 cc1f 99c4 b624 bbe0 ecc7 11c2 300c
00000080: e04d ff08 15d6 38f2 309c 15d3 1825 dbe7
00000090: 18e5 be22 1906 02ea 2ccc e5cb ba14 e91a
000000a0: 17ea 1db1 fff6 0e34 e826 bbf7 2dbe d83d
000000b0: bcd1 cb1c e1a4 e20d e5c8 d0f3 2be8 f7f4
000000c0: ffc1 e3c7 bbfd f416 e424 31d6 f7db 22ff
000000d0: b7e8 e108 f70b e5c4 da35 d604 f3ab 1aca
000000e0: dbf8 0412 27d4 d4db 24d6 10c8 17f0 2530
000000f0: fada 3034 f935 16c6 e2cf 1234 18bd 11df
-0.15517733 -0.09914107 0.24138695 -0.21552406 0.09483059 -0.25862888 -0.017241925 -0.0086209625
-0.24569744 -0.21121359 -0.2069031 -0.21552406 -0.0689677 -0.18966118 0.03879433 -0.22414503
-0.349149 -0.24138695 -0.060346738 -0.060346738 0.09483059 -0.24569744 0.043104813 -0.15517733
0.25000793 0.2715603 -0.14224589 0.03448385 -0.10345155 -0.33190706 0.19828214 -0.10776203
0.0 -0.0086209625 0.26293936 0.060346738 -0.16810876 -0.012931444 -0.18535069 0.23707646
-0.37070137 -0.16810876 -0.37070137 0.056036256 0.24569744 0.09483059 -0.18104021 0.090520106
0.22414503 -0.25862888 -0.03448385 -0.21121359 -0.03879433 -0.15517733 -0.09483059 0.23276599
-0.17672974 -0.090520106 -0.17241925 -0.14655636 0.18535069 -0.14224589 -0.14224589 0.060346738
0.047415294 -0.14655636 -0.12931444 0.14224589 -0.14655636 -0.030173369 0.14224589 -0.0689677
0.19828214 -0.12500396 -0.29311273 0.14224589 -0.10345155 0.21983454 -0.081899144 -0.021552406
-0.4138062 -0.22845551 -0.0043104813 0.19828214 -0.21983454 -0.043104813 -0.3232861 0.2715603
-0.16810876 -0.03879433 -0.051725775 -0.21983454 0.10776203 -0.017241925 -0.2069031 -0.056036256
-0.10345155 -0.19397166 -0.13362491 -0.090520106 -0.12931444 0.0043104813 0.18104021 0.22414503
-0.030173369 -0.120693475 -0.017241925 -0.15948781 -0.16379829 0.14655636 0.2715603 -0.30604416
0.25000793 -0.060346738 -0.22414503 0.13362491 -0.44397956 -0.25862888 -0.31897563 0.15517733
-0.2974232 -0.1379354 -0.086209625 -0.24569744 0.07327818 -0.26724982 0.2069031 0.051725775
-0.1379354 0.33190706 -0.0043104813 0.03448385 0.090520106 -0.18104021 0.24138695 -0.060346738
0.2069031 -0.43104813 0.090520106 -0.19397166 0.10345155 0.15948781 -0.15948781 -0.10776203
0.10345155 -0.116382994 -0.28449178 0.14655636 0.10776203 0.025862888 0.0086209625 -0.09483059
0.18966118 -0.22414503 -0.116382994 -0.22845551 -0.30173367 0.086209625 -0.09914107 0.11207251
0.09914107 -0.09483059 0.12500396 -0.340528 -0.0043104813 -0.043104813 0.060346738 0.22414503
-0.10345155 0.16379829 -0.2974232 -0.03879433 0.19397166 -0.28449178 -0.17241925 0.26293936
-0.29311273 -0.20259261 -0.22845551 0.120693475 -0.13362491 -0.39656428 -0.12931444 0.056036256
-0.116382994 -0.24138695 -0.2069031 -0.056036256 0.18535069 -0.10345155 -0.03879433 -0.051725775
-0.0043104813 -0.2715603 -0.12500396 -0.24569744 -0.2974232 -0.012931444 -0.051725775 0.09483059
-0.120693475 0.15517733 0.21121359 -0.18104021 -0.03879433 -0.15948781 0.14655636 -0.0043104813
-0.31466514 -0.10345155 -0.13362491 0.03448385 -0.03879433 0.047415294 -0.116382994 -0.25862888
-0.16379829 0.22845551 -0.18104021 0.017241925 -0.056036256 -0.3663909 0.11207251 -0.23276599
-0.15948781 -0.03448385 0.017241925 0.07758866 0.16810876 -0.18966118 -0.18966118 -0.15948781
0.15517733 -0.18104021 0.0689677 -0.24138695 0.09914107 -0.0689677 0.15948781 0.2069031
-0.025862888 -0.16379829 0.2069031 0.22414503 -0.030173369 0.22845551 0.09483059 -0.25000793
-0.12931444 -0.21121359 0.07758866 0.22414503 0.10345155 -0.28880224 0.07327818 -0.14224589
