saved_model_icons/Monk/model.tflite (tflite, 476776 bytes, 10 tensors)

sequential/dense_1/BiasAdd/ReadVariableOp f4 [31]
-0.20536253 0.091673456 0.09932006 0.0006326848 -0.099925004 -0.13557012 -0.41134927 -0.32397598
-0.27221802 0.011868693 -0.10768158 -0.1295002 0.06953418 -0.25993276 0.15555608 -0.13562335
-0.17012395 0.06446052 -0.26731253 0.032139536 -0.021555547 -0.21541466 0.057873968 -0.041474283
-0.17843075 -0.3110899 -0.1877413 -0.16190141 -0.10628402 -0.012481861 0.0035329675
00000000: 8e4a 52be 4bbf bb3d 5168 cb3d c2da 253a
00000010: 7ba5 ccbd e5d2 0abe 5f9c d2be 2ee0 a5be
00000020: 2960 8bbe e874 423c 2988 dcbd b39b 04be
00000030: f067 8e3d e815 85be 184a 1f3e d9e0 0abe
00000040: f934 2ebe e103 843d 30dd 88be bfa4 033d
00000050: 4295 b0bc a995 5cbe 410d 6d3d f0e0 29bd
00000060: 8db6 36be 2d47 9fbe 413f 40be 7cc9 25be
00000070: 70ab d9bd b880 4cbc 5c89 673b

sequential/dense/BiasAdd/ReadVariableOp f4 [64]
-0.08912524 -0.033349928 0.07395786 -0.0034128018 -0.09254374 -0.022632876 -0.035186283 -0.14554246
-0.11015242 -0.06507602 0.015513259 -0.0031191474 -0.009816878 0.10992965 -0.01871062 -0.023167046
0.046558715 -0.13485807 -0.1566986 -0.02682785 -0.00787741 0.010915119 0.14317451 -0.1656259
-0.09860159 0.030693702 0.037521876 0.10013855 -0.033752613 -0.13736676 -0.15544878 -0.013799084
-0.17751576 0.13496497 -0.040689465 0.00815175 -0.006003584 -0.17591897 -0.034099475 0.079834096
-0.034596615 -0.034607362 -0.034587026 -0.07189553 -0.020378593 0.089318134 -0.037219852 0.012190525
0.11524548 -0.041220903 -0.090100765 -0.012718492 -0.019042155 0.047180675 -0.008571663 -0.19803399
-0.04113314 -0.1048292 -0.08798734 0.065084435 -0.0057953806 -0.11840302 -0.006229774 0.07528113
00000000: 4b87 b6bd ef99 08bd 3877 973d 50a9 5fbb
00000010: 9387 bdbd 9568 b9bc 7e1f 10bd 1509 15be
00000020: 9897 e1bd 9446 85bd 532b 7e3c 9c6a 4cbb
00000030: f8d6 20bc cc22 e13d 0447 99bc d1c8 bdbc
00000040: 5ab4 3e3d 3c18 0abe 9975 20be 14c6 dbbc
00000050: 4110 01bc 54d5 323c 579c 123e d699 29be
00000060: a1ef c9bd 5c71 fb3c 8ab0 193d 7115 cd3d
00000070: 2e40 0abd dfa9 0cbe f72d 1fbe 8e15 62bc
00000080: b1c6 35be 4234 0a3e ffa9 26bd eb8e 053c
00000090: b6b9 c4bb 1a24 34be e4ab 0bbd 0f80 a33d
000000a0: 2eb5 0dbd 73c0 0dbd 20ab 0dbd f73d 93bd
000000b0: 02f1 a6bc 6dec b63d d873 18bd c5ba 473c
000000c0: d205 ec3d 40d7 28bd c086 b8bd 3961 50bc
000000d0: 4bfe 9bbc 8640 413d 2970 0cbc 6cc9 4abe
000000e0: 397b 28bd b1b0 d6bd b532 b4bd fd4a 853d
000000f0: 2de7 bdbb 487d f2bd 2223 ccbb fe2c 9a3d

sequential/conv2d/BiasAdd/ReadVariableOp f4 [32]
-0.05901601 -0.025861708 -0.0672749 -0.09363162 -0.051210824 -0.09783519 -0.015699822 -0.14752795
-0.07827773 -0.045492347 -0.15783863 -0.17974484 -0.04873805 -0.0671477 -0.1482569 -0.12136549
-0.08280671 -0.1924003 -0.05305189 -0.10824678 -0.04260324 -0.021008996 -0.05760975 -0.13142112
-0.1182691 -0.044321623 -0.046795327 -0.05702884 -0.05137364 -0.035735175 -0.07855373 -0.07131533
00000000: c6ba 71bd efdb d3bc 6cc7 89bd efc1 bfbd
00000010: 71c2 51bd d15d c8bd ea9c 80bc 9111 17be
00000020: 1350 a0bd 2f56 3abd 73a0 21be 080f 38be
00000030: 8da1 47bd bc84 89bd a8d0 17be 788e f8bd
00000040: 9096 a9bd 9604 45be f04c 59bd 7db0 ddbd
00000050: bc80 2ebd 0f1b acbc 34f8 6bbd 4293 06be
00000060: 1237 f2bd 978a 35bd 75ac 3fbd 1397 69bd
00000070: 2a6d 52bd 0c5f 12bd c7e0 a0bd c60d 92bd

sequential/conv2d_1/BiasAdd/ReadVariableOp f4 [64]
-0.066443235 -0.12040677 -0.08308898 -0.17484179 -0.007925303 -0.100390114 -0.17077051 -0.067015685
-0.090447456 -0.034004822 0.01901047 -0.041169763 -0.05383169 -0.14550507 -0.09913522 -0.04596437
-0.13550992 -0.120713644 -0.06745834 0.011472713 -0.16281536 -0.085439004 -0.08534098 -0.14294776
0.0011870002 -0.052659903 -0.12526546 -0.11381224 -0.13557748 -0.06445239 0.0709182 -0.12378681
-0.052883495 -0.10068078 -0.10705485 -0.15661758 -0.0033355744 -0.14443596 -0.051091745 -0.17176685
0.09063988 -0.15500064 -0.13005339 -0.101908244 -0.115216434 0.18493332 -0.06233525 -0.002236499
-0.11686743 -0.04023062 -0.12292117 -0.1692612 -0.11933263 0.01852774 -0.046556134 0.0017021301
-0.13274696 0.020876732 -0.08258953 0.2996598 -0.05298167 -0.037327807 -0.0035185067 -0.1280619
00000000: 6413 88bd d397 f6bd 8e2a aabd ba09 33be
00000010: 21d9 01bc 5599 cdbd 77de 2ebe 853f 89bd
00000020: 843c b9bd a448 0bbd d8bb 9b3c a0a1 28bd
00000030: 9e7e 5cbd 48ff 14be 6807 cbbd 2345 3cbd
00000040: 1dc3 0abe b738 f7bd 9927 8abd 0cf8 3b3c
00000050: 12b9 26be a5fa aebd 40c7 aebd e660 12be
00000060: 1e95 9b3a e9b1 57bd 9745 00be 6416 e9bd
00000070: d3d4 0abe 9dff 83bd 903d 913d f083 fdbd
00000080: 5d9c 58bd ba31 cebd 933f dbbd 5c60 20be
00000090: a799 5abb 05e7 13be 9445 51bd a6e3 2fbe
000000a0: 67a1 b93d 7db8 1ebe b72c 05be 45b5 d0bd
000000b0: 98f6 ebbd 295f 3d3e 3f53 7fbd 3a92 12bb
000000c0: 3158 efbd ddc8 24bd 18be fbbd cf52 2dbe
000000d0: aa64 f4bd 7dc7 973c a5b1 3ebd 021a df3a
000000e0: d2ee 07be ae05 ab3c b324 a9bd 026d 993e
000000f0: 4f03 59bd 0be5 18bd bf96 66bb a922 03be

sequential/conv2d_2/BiasAdd/ReadVariableOp f4 [64]
-0.03915528 -0.022686021 -0.096918926 -0.016541803 -0.074610546 -0.081965916 -0.08419929 -0.08578259
0.17561716 0.14836921 -0.19248138 -0.11740684 -0.04020464 -0.050247625 -0.098401524 -0.05127663
-0.032871183 -0.04262098 -0.08780124 0.062892705 -0.19836514 0.18979321 -0.037385777 -0.08909999
-0.07130279 -0.05687926 -0.13218148 -0.08552373 -0.01017571 0.027023394 -0.015940841 -0.077697664
-0.16791302 -0.024602436 0.05804984 0.035681725 -0.075320736 -0.21424635 -0.09174542 -0.05368993
0.0076470366 -0.08837817 -0.12338733 -0.08475897 -0.06494005 -0.074682355 -0.0794822 -0.09607199
-0.16562214 -0.019110354 -0.023256492 -0.048845094 -0.122459956 -0.035672147 -0.07502495 -0.14232467
0.005152815 -0.12812045 -0.056400664 -0.16583051 -0.046908367 -0.09511846 -0.21476385 0.008867681
00000000: 4961 20bd 09d8 b9bc 6e7d c6bd ad82 87bc
00000010: 6acd 98bd bfdd a7bd ad70 acbd c8ae afbd
00000020: fcd4 333e 19ee 173e d719 45be ff72 f0bd
00000030: 9fad 24bd 74d0 4dbd bd86 c9bd 7207 52bd
00000040: efa3 06bd 5693 2ebd 23d1 b3bd e4cd 803d
00000050: 3b20 4bbe 2759 423e d421 19bd 0e7a b6bd
00000060: 3207 92bd 3afa 68bd 955a 07be 1127 afbd
00000070: 05b8 26bc 2a60 dd3c 5e96 82bc f41f 9fbd
00000080: 64f1 2bbe 0c8b c9bc abc5 6d3d 0027 123d
00000090: c241 9abd 6563 5bbe 06e5 bbbd f9e9 5bbd
000000a0: fe93 fa3b 9dff b4bd 7fb2 fcbd 1c96 adbd
000000b0: 4aff 84bd 10f3 98bd 90c7 a2bd 64c1 c4bd
000000c0: da98 29be 518d 9cbc 6684 bebc cb11 48bd
000000d0: 49cc fabd f51c 12bd aea6 99bd 8fbd 11be
000000e0: f2d8 a83b 0232 03be 6204 67bd 79cf 29be
000000f0: fd22 40bd 78cd c2bd 0eeb 5bbe c049 113c

sequential/conv2d/Conv2D f4 [32, 3, 3, 3]
0.24013144 0.23054744 0.18513076 0.17858043 0.21014547 0.19436128 -0.07384452 -0.12175565
-0.12422513 0.104802 0.16803108 0.16841958 -0.12312012 -0.18725146 -0.098815806 -0.13215058
-0.21050209 -0.30702126 -0.014662674 -0.020848602 0.06801168 -0.201289 -0.18438765 -0.040877122
-0.010669441 -0.07899951 -0.20242098 -0.19140293 0.006208636 0.021201378 0.170491 0.2410477
0.09562433 -0.147464 0.12920414 0.01264494 0.056672905 0.13870005 -0.17294702 -0.19476506
0.16311046 -0.22460613 -0.15160772 0.1460604 -0.20004323 -0.16929251 -0.13704115 -0.19719923
-0.32923526 -0.08982455 -0.078706995 -0.27193937 0.04068598 -0.050183002 0.03917037 -0.03840067
-0.11406877 -0.120320395 -0.05252363 -0.1441139 -0.13605785 0.010898281 -0.08387098 -0.0032760894
0.03321648 -0.17473832 -0.04544115 0.11319142 0.01065404 -0.10994931 -0.03782909 -0.1304573
0.05095318 -0.056908417 -0.13414659 -0.030328004 -0.05342038 0.022079144 -0.09609924 -0.1434602
-0.08619567 -0.27354726 -0.19361472 -0.37435067 -0.20535696 -0.054426987 -0.07721375 0.09311321
0.18334883 0.050162192 0.0027043833 0.008179181 -0.2624132 0.06848193 0.17926657 -0.0859544
0.022405146 0.19809826 0.10290994 -0.103903204 -0.06987724 -0.13780649 -0.12624657 0.048610166
0.040387493 -0.13756828 0.062139176 -0.1513541 -0.30407935 -0.13415892 0.1505549 -0.19814517
-0.18543868 0.07686868 -0.18450192 -0.07621517 0.043585945 -0.19962601 0.06501877 0.03013587
-0.06384075 0.051489122 0.101274975 -0.20960632 -0.122723766 0.05889905 -0.06391109 -0.013193585
0.06684538 -0.07893061 0.104182735 0.10218486 0.071307674 0.11923786 0.2052521 -0.18216074
-0.10690059 -0.16399804 -0.1637414 0.028690092 -0.15263636 -0.108517185 -0.09544163 -0.17415716
-0.1378897 -0.21024811 -0.16780065 -0.02809454 -0.05925168 -0.22279878 0.011201418 -0.07222506
-0.0005900259 -0.035940666 -0.052949976 0.041497435 0.06158161 0.074314706 -0.14307486 -0.034312163
0.07318543 -0.044918712 0.06528291 0.0029887669 -0.036558334 0.13373345 -0.028321609 -0.22591738
0.13957396 0.058139805 -0.19496822 0.113734215 0.0027263593 -0.18871205 0.12347423 -0.014114131
-0.21620807 0.14126353 0.07086944 -0.0991166 0.018080972 0.15300985 -0.1599653 0.13977553
0.14134373 -0.1048847 -0.011263102 -0.051460996 0.03246195 -0.007483925 0.04265807 -0.20176056
0.066229425 -0.03898611 0.048042636 -0.09430763 -0.119891696 -0.19537161 -0.0016416925 0.02452393
-0.048924588 -0.0945591 0.10265822 0.05841408 -0.11967326 0.0070344987 -0.116860956 0.016876807
0.001267354 0.023461062 -0.06502898 0.04486781 -0.01024232 -0.15006688 -0.042411566 -0.1313901
0.054424953 0.05904001 0.097608194 0.075488895 0.1116484 0.1930417 0.09529047 -0.15191908
0.13256845 0.03274547 -0.14259952 0.17799154 -0.19962591 -0.18258616 -0.0997285 -0.060336772
-0.13149306 -0.17977113 -0.12165497 -0.15519631 -0.13571405 -0.14321595 -0.17624651 -0.067804515
-0.009121582 -0.23955293 -0.11741646 -0.1705294 -0.2547403 0.0020536953 -0.16283299 -0.17066
-0.1716171 -0.11721608 -0.1321824 -0.018875783 0.09340329 -0.106092386 -0.04995233 -0.015214315
00000000: 04e5 753e a114 6c3e eb92 3d3e cadd 363e
00000010: 6030 573e a506 473e cc3b 97bd 075b f9bd
00000020: bf69 febd 6ea2 d63d 5710 2c3e 2f76 2c3e
00000030: 6726 fcbd d9be 3fbe f15f cabd 7b52 07be
00000040: dc8d 57be e431 9dbe b63b 70bc b0ca aabc
00000050: b549 8b3d b41e 4ebe 1ed0 3cbe c56e 27bd
00000060: e1ce 2ebc 7fca a1bd 7247 4fbe 21ff 43be
00000070: d071 cb3b 83ae ad3c 3195 2e3e 35d5 763e
00000080: b0d6 c33d ce00 17be 174e 043e b92c 4f3c
00000090: d921 683d 6307 0e3e 0619 31be 7e70 47be
000000a0: 6e06 273e 26ff 65be 0e3f 1bbe dc90 153e
000000b0: 22d8 4cbe 045b 2dbe 8454 0cbe 98ee 49be
000000c0: 8691 a8be eff5 b7bd 2231 a1bd a33b 8bbe
000000d0: 58a6 263d b18c 4dbd 1c71 203d 054a 1dbd
000000e0: e39c e9bd 8a6a f6bd 0523 57bd 9892 13be
000000f0: c052 0bbe b48e 323c 8cc4 abbd a9b3 56bb
00000100: 010e 083d 9aee 32be 8020 3abd e7d0 e73d
00000110: 488e 2e3c 1b2d e1bd adf2 1abd 9996 05be
00000120: 48b4 503d cd18 69bd b95d 09be 6f72 f8bc
00000130: 54cf 5abd 52df b43c aecf c4bd 3be7 12be
00000140: 5b87 b0bd 630e 8cbe f042 46be e4aa bfbe
00000150: 1849 52be d5ee 5ebd 3e22 9ebd 23b2 be3d
00000160: ccbf 3b3e df76 4d3d 063c 313b f901 063c
00000170: 065b 86be 4140 8c3d a891 373e dc08 b0bd
00000180: ff8a b73c 45da 4a3e 72c2 d23d 34cb d4bd
00000190: cc1b 8fbd 251d 0dbe c846 01be 741b 473d
000001a0: 5b6d 253d b3de 0cbe a685 7e3d 92fc 1abe
000001b0: 4ab0 9bbe f560 09be 102b 1a3e 91e6 4abe
000001c0: a3e3 3dbe 546d 9d3d 12ee 3cbe b316 9cbd
000001d0: 2d87 323d c36a 4cbe 9028 853d 80df f63c
000001e0: f0be 82bd 42e6 523d 4169 cf3d 0aa3 56be
000001f0: 9956 fbbd 2140 713d d1e3 82bd e829 58bc
00000200: 3be6 883d 5fa6 a1bd c25d d53d 4c46 d13d
00000210: c209 923d fb32 f43d 9b2d 523e 5888 3abe
00000220: b2ee dabd 1aef 27be d3ab 27be 7c07 eb3c
00000230: b54c 1cbe 423e debd e776 c3bd 4156 32be
00000240: f532 0dbe 484b 57be efd3 2bbe 8526 e6bc
00000250: e4b1 72bd 5d25 64be 2786 373c bbea 93bd
00000260: f8ab 1aba 8536 13bd 13e2 58bd 37f9 293d
00000270: 003d 7c3d 4f32 983d 3782 12be e98a 0cbd
00000280: 3ee2 953d affc 37bd 0cb3 853d 30df 433b
00000290: 31be 15bd 6cf1 083e b802 e8bc e356 67be
000002a0: 7aec 0e3e 0124 6e3d c0a5 47be 7ced e83d
000002b0: b8ac 323b bb3d 41be 0fe0 fc3d f53e 67bc
000002c0: a665 5dbe 63a7 103e ff23 913d a5fd cabd
000002d0: 8c1e 943c 9dae 1c3e f2cd 23be 5121 0f3e
000002e0: 69bc 103e cacd d6bd e088 38bc c4c8 52bd
000002f0: d2f6 043d b73b f5bb 3aba 2e3d 529a 4ebe
00000300: 4ba3 873d e6af 1fbd 5bc8 443d 5c24 c1bd
00000310: c789 f5bd 7f0f 48be 0f2e d7ba 69e6 c83c
00000320: 2665 48bd 34a8 c1bd 793e d23d 9a43 6f3d
00000330: 4117 f5bd a781 e63b cc54 efbd 3b41 8a3c
00000340: 581d a63a 6a31 c03c ea2d 85bd 4fc7 373d
00000350: 67cf 27bc 22ab 19be c0b7 2dbd 208b 06be
00000360: b3ec 5e3d f0d3 713d cee6 c73d ec99 9a3d
00000370: eba7 e43d b9ac 453e a627 c33d ad90 1bbe
00000380: 06c0 073e 1d20 063d 9c05 12be 6a43 363e
00000390: bc6a 4cbe def7 3abe 753e ccbd b123 77bd
000003a0: 1ea6 06be ec15 38be 3e26 f9bd c8eb 1ebe
000003b0: a0f8 0abe 34a7 12be f779 34be 18dd 8abd
000003c0: b072 15bc 5d4d 75be 0a78 f0bd 429f 2ebe
000003d0: 526d 82be 4a97 063b b1bd 26be 7fc1 2ebe
000003e0: 65bc 2fbe fc0e f0bd d35a 07be 63a1 9abc
000003f0: 394a bf3d f746 d9bd d09a 4cbd 7645 79bc

sequential/conv2d_1/Conv2D i1 [64, 3, 3, 32]
-46 -45 -3 -3 2 4 -74 6
-30 41 -9 24 -77 -12 13 -8
9 -31 -27 62 -28 -17 57 -44
14 -52 25 -9 -7 47 -13 7
-81 -40 13 -26 -21 1 -76 25
-76 16 -21 -11 -43 -22 -23 -40
22 -11 -40 28 -107 -27 24 -54
-31 -88 -14 -38 19 50 -69 4
-45 -59 -26 -46 -4 53 -67 -5
-44 24 -1 -13 -21 -11 -28 -48
-28 -2 -31 43 -78 2 -11 -81
14 -57 -1 32 14 57 -26 -39
-127 20 21 -57 -2 24 -80 23
-21 11 22 13 -82 -23 -3 10
-22 4 -16 -19 -123 -13 0 -78
37 -46 28 4 -8 16 -33 19
-120 -20 0 -105 16 8 -48 -7
-11 -3 16 -24 -62 19 19 4
27 -28 -19 23 -74 -13 -3 -48
19 -29 -29 33 -31 41 -3 -14
-116 -9 26 -54 23 68 -20 -12
-39 42 -19 -16 -72 -12 -19 -15
-3 -19 -55 20 -29 -35 -15 -95
11 -32 31 -22 -17 63 -48 -54
-117 9 -19 -62 19 -75 -39 -8
-7 -35 37 13 -24 -14 12 10
-5 -17 -9 -38 -90 -3 -37 -42
29 -83 27 -5 -105 58 14 19
-90 15 -1 -108 3 -56 -67 0
-29 -24 40 22 -53 -44 12 -20
-9 -15 -29 -14 -62 -24 -19 -57
3 -82 -15 -29 -97 40 -50 -31
00000000: d2d3 fdfd 0204 b606 e229 f718 b3f4 0df8
00000010: 09e1 e53e e4ef 39d4 0ecc 19f7 f92f f307
00000020: afd8 0de6 eb01 b419 b410 ebf5 d5ea e9d8
00000030: 16f5 d81c 95e5 18ca e1a8 f2da 1332 bb04
00000040: d3c5 e6d2 fc35 bdfb d418 fff3 ebf5 e4d0
00000050: e4fe e12b b202 f5af 0ec7 ff20 0e39 e6d9
00000060: 8114 15c7 fe18 b017 eb0b 160d aee9 fd0a
00000070: ea04 f0ed 85f3 00b2 25d2 1c04 f810 df13
00000080: 88ec 0097 1008 d0f9 f5fd 10e8 c213 1304
00000090: 1be4 ed17 b6f3 fdd0 13e3 e321 e129 fdf2
000000a0: 8cf7 1aca 1744 ecf4 d92a edf0 b8f4 edf1
000000b0: fded c914 e3dd f1a1 0be0 1fea ef3f d0ca
000000c0: 8b09 edc2 13b5 d9f8 f9dd 250d e8f2 0c0a
000000d0: fbef f7da a6fd dbd6 1dad 1bfb 973a 0e13
000000e0: a60f ff94 03c8 bd00 e3e8 2816 cbd4 0cec
000000f0: f7f1 e3f2 c2e8 edc7 03ae f1e3 9f28 cee1

sequential/conv2d_2/Conv2D i1 [64, 3, 3, 64]
-35 -10 20 -28 -17 1 -32 17
12 -64 -32 -15 -8 16 -39 14
22 -27 16 14 -29 -26 -39 9
-28 -14 4 -31 13 17 -5 -32
-8 -4 22 4 -28 -7 -4 -16
-64 20 6 -8 -13 -2 -11 -31
-37 -7 -16 -18 -16 -65 11 11
13 -38 6 -3 -23 -28 1 -23
-69 -17 4 -47 -12 9 -40 11
3 -80 -21 16 -15 -4 -16 53
12 -28 -11 15 -63 5 -28 6
18 -32 6 -13 -14 -10 -10 -10
3 -15 32 11 -10 -1 -11 -6
-49 12 -17 -21 -3 -18 -6 -40
-27 23 0 -28 -40 -81 24 -24
16 -19 -13 14 -27 -24 25 -31
-69 -41 10 -30 -7 12 -15 -9
-12 -127 -53 18 -8 18 -31 41
0 -20 -11 45 -34 9 -60 15
17 -24 18 -27 -34 10 -46 4
8 0 16 2 -5 -14 -15 -30
-102 27 -13 19 26 -11 16 -34
-45 -10 16 4 -29 -109 20 0
17 -37 -20 34 -40 -56 -5 -61
-34 1 22 -12 -3 15 -45 -22
1 -94 -63 0 -16 -3 -11 11
21 -22 -15 0 -19 18 -48 7
8 -16 9 -30 -8 22 -43 -4
-30 23 19 11 31 -35 13 -5
-43 10 16 16 -9 15 4 -47
-21 -11 13 3 -4 -56 46 -11
14 5 -7 -23 -23 -18 -5 -32
00000000: ddf6 14e4 ef01 e011 0cc0 e0f1 f810 d90e
00000010: 16e5 100e e3e6 d909 e4f2 04e1 0d11 fbe0
00000020: f8fc 1604 e4f9 fcf0 c014 06f8 f3fe f5e1
00000030: dbf9 f0ee f0bf 0b0b 0dda 06fd e9e4 01e9
00000040: bbef 04d1 f409 d80b 03b0 eb10 f1fc f035
00000050: 0ce4 f50f c105 e406 12e0 06f3 f2f6 f6f6
00000060: 03f1 200b f6ff f5fa cf0c efeb fdee fad8
00000070: e517 00e4 d8af 18e8 10ed f30e e5e8 19e1
00000080: bbd7 0ae2 f90c f1f7 f481 cb12 f812 e129
00000090: 00ec f52d de09 c40f 11e8 12e5 de0a d204
000000a0: 0800 1002 fbf2 f1e2 9a1b f313 1af5 10de
000000b0: d3f6 1004 e393 1400 11db ec22 d8c8 fbc3
000000c0: de01 16f4 fd0f d3ea 01a2 c100 f0fd f50b
000000d0: 15ea f100 ed12 d007 08f0 09e2 f816 d5fc
000000e0: e217 130b 1fdd 0dfb d50a 1010 f70f 04d1
000000f0: ebf5 0d03 fcc8 2ef5 0e05 f9e9 e9ee fbe0

sequential/dense/MatMul i1 [64, 6400] scale=0.004356326 zero_point=0
-0.07405754 -0.017425304 -0.03485061 -0.026137955 0.0827702 -0.05227591 -0.08712652 -0.03485061
-0.004356326 0.004356326 0.030494282 -0.15247141 -0.02178163 -0.004356326 -0.030494282 -0.09583917
-0.17860937 -0.05227591 0.026137955 -0.09148285 0.017425304 -0.004356326 0.013068978 -0.05663224
-0.10455182 -0.004356326 -0.0827702 0.047919586 0.026137955 0.030494282 0.02178163 0.0827702
-0.008712652 -0.09148285 0.05663224 -0.200391 0.13068978 0.0 -0.05663224 -0.02178163
-0.026137955 -0.008712652 -0.004356326 -0.060988564 0.108908154 -0.10455182 -0.02178163 -0.19167835
0.013068978 -0.013068978 -0.15247141 -0.12197713 -0.02178163 -0.02178163 -0.030494282 0.14375876
-0.108908154 -0.03485061 -0.12197713 0.047919586 0.047919586 0.013068978 0.047919586 0.017425304
-0.0827702 0.02178163 0.026137955 -0.013068978 0.004356326 -0.030494282 -0.047919586 -0.026137955
0.017425304 0.030494282 0.026137955 -0.060988564 -0.03485061 -0.013068978 -0.013068978 0.07405754
-0.02178163 0.026137955 0.013068978 -0.03485061 -0.008712652 -0.06534489 -0.013068978 -0.013068978
-0.1001955 0.008712652 0.07841387 0.05663224 -0.017425304 0.12197713 0.0 0.09583917
0.03485061 -0.15682773 0.08712652 -0.21345998 0.1001955 -0.004356326 -0.03485061 -0.02178163
-0.013068978 0.03485061 -0.030494282 0.047919586 0.108908154 -0.05663224 -0.06970122 -0.05663224
0.04356326 -0.02178163 -0.14811508 -0.03485061 -0.11326448 0.0 -0.026137955 0.02178163
-0.06534489 0.05227591 -0.008712652 0.09583917 0.09583917 0.10455182 0.008712652 0.026137955
-0.039206933 0.026137955 0.05663224 0.004356326 -0.09148285 0.13504611 0.026137955 0.02178163
0.05227591 0.07405754 -0.060988564 -0.060988564 0.017425304 -0.008712652 -0.030494282 0.0
-0.03485061 0.017425304 0.0 -0.09583917 0.03485061 0.02178163 -0.030494282 -0.004356326
-0.06534489 -0.004356326 0.026137955 -0.004356326 0.004356326 0.06970122 -0.004356326 0.0827702
-0.026137955 -0.13068978 -0.008712652 -0.13068978 0.07841387 0.03485061 -0.10455182 0.013068978
-0.026137955 0.030494282 -0.05227591 0.08712652 0.05663224 -0.07405754 -0.07405754 0.017425304
0.017425304 -0.013068978 -0.2352416 0.030494282 -0.05663224 -0.026137955 0.013068978 -0.08712652
-0.039206933 0.039206933 0.05663224 0.13940243 0.1176208 -0.03485061 -0.05227591 0.08712652
-0.039206933 -0.004356326 0.12633346 0.1001955 -0.08712652 0.047919586 -0.008712652 -0.017425304
0.017425304 0.030494282 -0.09583917 -0.060988564 -0.008712652 -0.030494282 -0.030494282 0.030494282
0.013068978 0.05663224 0.026137955 -0.060988564 -0.026137955 0.0827702 -0.013068978 0.017425304
0.05663224 -0.030494282 0.047919586 -0.02178163 0.026137955 0.09583917 -0.013068978 0.013068978
-0.07841387 -0.05227591 0.0 -0.09148285 0.05663224 0.05227591 -0.13504611 -0.02178163
-0.026137955 0.0827702 -0.05227591 0.026137955 0.1001955 -0.1176208 0.004356326 -0.03485061
0.06534489 -0.013068978 -0.07841387 0.030494282 -0.04356326 -0.004356326 -0.008712652 -0.08712652
0.03485061 -0.017425304 -0.004356326 0.030494282 0.047919586 0.03485061 -0.03485061 0.060988564
00000000: effc f8fa 13f4 ecf8 ff01 07dd fbff f9ea
00000010: d7f4 06eb 04ff 03f3 e8ff ed0b 0607 0513
00000020: feeb 0dd2 1e00 f3fb fafe fff2 19e8 fbd4
00000030: 03fd dde4 fbfb f921 e7f8 e40b 0b03 0b04
00000040: ed05 06fd 01f9 f5fa 0407 06f2 f8fd fd11
00000050: fb06 03f8 fef1 fdfd e902 120d fc1c 0016
00000060: 08dc 14cf 17ff f8fb fd08 f90b 19f3 f0f3
00000070: 0afb def8 e600 fa05 f10c fe16 1618 0206
00000080: f706 0d01 eb1f 0605 0c11 f2f2 04fe f900
00000090: f804 00ea 0805 f9ff f1ff 06ff 0110 ff13
000000a0: fae2 fee2 1208 e803 fa07 f414 0def ef04
000000b0: 04fd ca07 f3fa 03ec f709 0d20 1bf8 f414
000000c0: f7ff 1d17 ec0b fefc 0407 eaf2 fef9 f907
000000d0: 030d 06f2 fa13 fd04 0df9 0bfb 0616 fd03
000000e0: eef4 00eb 0d0c e1fb fa13 f406 17e5 01f8
000000f0: 0ffd ee07 f6ff feec 08fc ff07 0b08 f80e

sequential/dense_1/MatMul i1 [31, 64] scale=0.010341973 zero_point=0
-0.43436286 0.082735784 0.35162708 0.23786537 -0.041367892 -0.14478762 -0.2688913 -0.13444565
-0.23786537 -0.44470483 0.18615551 -0.28957525 -0.041367892 0.19649749 -0.14478762 -0.32060117
0.082735784 -0.19649749 0.24820736 -0.32060117 0.041367892 0.3412851 0.1551296 -0.23786537
-0.03102592 -0.2688913 -0.40333694 -0.03102592 -0.3412851 -0.28957525 -0.36196905 0.19649749
0.010341973 0.051709864 0.12410368 -0.55846655 -0.10341973 -1.2100109 -0.1137617 0.082735784
-0.25854933 -0.1551296 -0.07239381 -0.35162708 -0.14478762 -0.3412851 -0.03102592 -0.25854933
-0.041367892 -0.041367892 -0.19649749 -0.06205184 -0.21718143 0.082735784 -0.07239381 -0.041367892
-0.25854933 -0.010341973 -0.2688913 0.1137617 0.0 -0.10341973 0.07239381 -0.18615551
0.010341973 0.051709864 -0.2688913 -0.23786537 -0.06205184 0.020683946 -0.18615551 0.06205184
-0.051709864 0.1137617 -0.17581354 -0.051709864 0.10341973 -0.12410368 -0.06205184 -0.1551296
0.17581354 0.020683946 -0.10341973 0.020683946 0.13444565 -0.10341973 0.20683946 0.010341973
0.082735784 -0.041367892 0.12410368 0.2688913 -0.1137617 -0.23786537 -0.051709864 -0.020683946
-0.09307776 0.21718143 0.010341973 0.16547157 0.20683946 -0.1137617 -0.13444565 -0.18615551
-0.18615551 -0.2275234 -0.020683946 -0.07239381 0.1137617 0.0 0.18615551 -0.382653
-0.06205184 0.09307776 -0.06205184 -0.2275234 -0.14478762 -0.28957525 -0.1551296 -0.21718143
0.1551296 -0.17581354 -0.12410368 -0.041367892 -0.09307776 -0.13444565 0.19649749 0.0
-0.07239381 0.07239381 -0.21718143 -0.18615551 -0.10341973 0.051709864 -0.17581354 0.16547157
-0.2275234 0.10341973 -0.18615551 -0.21718143 0.10341973 -0.16547157 -0.21718143 0.041367892
0.17581354 0.03102592 -0.051709864 0.041367892 0.20683946 -0.10341973 0.21718143 0.041367892
0.0 0.0 0.12410368 0.27923328 -0.1551296 -0.17581354 -0.020683946 -0.16547157
0.051709864 0.2275234 -0.1137617 0.16547157 -0.17581354 -0.051709864 -0.14478762 -0.23786537
-0.1551296 -0.25854933 0.041367892 0.13444565 0.082735784 -0.06205184 -0.20683946 -0.36196905
-0.010341973 0.06205184 -0.020683946 -0.20683946 0.06205184 -0.16547157 0.1551296 -0.1551296
-0.21718143 -0.10341973 -0.1551296 -0.07239381 -0.13444565 0.1551296 0.18615551 0.010341973
-0.2275234 0.1551296 -0.14478762 -0.17581354 -0.082735784 0.20683946 -0.3412851 -0.082735784
-0.082735784 -0.43436286 0.28957525 -0.06205184 -0.28957525 0.010341973 -0.16547157 -0.06205184
-0.3102592 -0.06205184 0.23786537 0.12410368 -0.03102592 -0.24820736 0.16547157 -0.24820736
-0.041367892 -0.25854933 -0.5274406 0.041367892 -0.1137617 0.28957525 -0.46538877 -0.21718143
-0.35162708 0.10341973 -0.19649749 -0.041367892 0.12410368 -0.27923328 -0.010341973 0.13444565
0.16547157 0.17581354 -0.32060117 0.1137617 -0.082735784 -0.20683946 -0.18615551 0.33094314
-0.4240209 0.29991722 -0.50675666 -0.29991722 0.07239381 -0.06205184 0.03102592 -0.051709864
-0.20683946 0.020683946 -0.03102592 -0.6101764 -0.18615551 -0.19649749 0.082735784 0.3412851
00000000: d608 2217 fcf2 e6f3 e9d5 12e4 fc13 f2e1
00000010: 08ed 18e1 0421 0fe9 fde6 d9fd dfe4 dd13
00000020: 0105 0cca f68b f508 e7f1 f9de f2df fde7
00000030: fcfc edfa eb08 f9fc e7ff e60b 00f6 07ee
00000040: 0105 e6e9 fa02 ee06 fb0b effb 0af4 faf1
00000050: 1102 f602 0df6 1401 08fc 0c1a f5e9 fbfe
00000060: f715 0110 14f5 f3ee eeea fef9 0b00 12db
00000070: fa09 faea f2e4 f1eb 0fef f4fc f7f3 1300
00000080: f907 ebee f605 ef10 ea0a eeeb 0af0 eb04
00000090: 1103 fb04 14f6 1504 0000 0c1b f1ef fef0
000000a0: 0516 f510 effb f2e9 f1e7 040d 08fa ecdd
000000b0: ff06 feec 06f0 0ff1 ebf6 f1f9 f30f 1201
000000c0: ea0f f2ef f814 dff8 f8d6 1cfa e401 f0fa
000000d0: e2fa 170c fde8 10e8 fce7 cd04 f51c d3eb
000000e0: de0a edfc 0ce5 ff0d 1011 e10b f8ec ee20
000000f0: d71d cfe3 07fa 03fb ec02 fdc5 eeed 0821
