saved_models/Paladin/model.tflite (tflite, 476712 bytes, 10 tensors)

sequential/dense_1/BiasAdd/ReadVariableOp f4 [30]
0.022206053 -0.039825756 -0.009812821 0.12156388 0.010133501 -0.008351317 -0.051697895 -0.09246606
-0.051957484 0.00963026 0.16391736 0.049656034 -0.09802916 -0.042875905 -0.024956433 -0.07851048
-0.07226158 0.039276686 -0.021337118 -0.043516856 -0.02611416 -0.006796951 -0.025023064 0.036393393
0.1271237 0.035104446 0.008782516 0.088909924 -0.17582044 -0.03259385
00000000: 78e9 b53c 5520 23bd f4c5 20bc 7cf6 f83d
00000010: fc06 263c f6d3 08bc 2cc1 53bd d85e bdbd
00000020: 5fd1 54bd 3dc8 1d3c f4d9 273e 2064 4b3d
00000030: 83c3 c8bd a59e 2fbd 6f71 ccbc 1aca a0bd
00000040: e1fd 93bd 97e0 203d 2ecb aebc bb3e 32bd
00000050: 5ded d5bc f5b8 debb 2bfd ccbc 3d11 153d
00000060: b72c 023e aec9 0f3d 8be4 0f3c 6816 b63d
00000070: 460a 34be 2181 05bd

sequential/dense/BiasAdd/ReadVariableOp f4 [64]
-0.0050979694 -0.12593421 -0.1468841 0.079016484 -0.044430505 -0.0059794574 0.084215246 -0.10619426
-0.00600292 -0.014036399 -0.17842962 -0.14930303 -0.10468321 -0.0060044457 0.033514354 0.001679294
0.06376546 -0.006043691 0.13885523 -0.0060050795 0.035274286 -0.08880713 0.038780537 -0.043903723
0.08728758 -0.08520654 -0.03711313 0.060989957 0.05049488 -0.028584655 -0.010737042 -0.033015415
-0.0069155097 -0.005235969 0.009337196 -0.06942761 -0.0077244556 -0.05387991 -0.0056804633 -0.03035722
-0.007883557 -0.00822924 -0.018975843 -0.009556457 -0.045349613 -0.0060043377 -0.13457784 -0.05891685
-0.0069156066 0.1295094 -0.0060332483 -0.030051004 0.071753904 -0.0065795993 -0.0060046697 -0.024415247
0.036649957 0.012346013 0.035061933 -0.006194067 0.15734152 -0.006009165 -0.006005085 0.03260697
00000000: de0c a7bb e6f4 00be c968 16be 65d3 a13d
00000010: c3fc 35bd 53ef c3bb 0b79 ac3d 607c d9bd
00000020: 25b4 c4bb edf8 65bc 41b6 36be e5e2 18be
00000030: 2764 d6bd f1c0 c4bb 5946 093d c21b dc3a
00000040: 7797 823d 280a c6bb 1130 0e3e 42c6 c4bb
00000050: c57b 103d 83e0 b5bd 57d8 1e3d 64d4 33bd
00000060: d5c3 b23d c480 aebd f003 18bd 9bd0 793d
00000070: b8d3 4e3d 5e2a eabc 6bea 2fbc 2c3b 07bd
00000080: 809b e2bb 7e92 abbb 0afb 183c 1030 8ebd
00000090: 6e1d fdbb 2eb1 5cbd 2e23 babb b4af f8bc
000000a0: 092a 01bc efd3 06bc 3a73 9bbc b092 1cbc
000000b0: 84c0 39bd 09c0 c4bb c6ce 09be cb52 71bd
000000c0: 509c e2bb 1d9e 043e 8eb2 c5bb 862d f6bc
000000d0: b6f3 923d ae99 d7bb d2c2 c4bb 7c02 c8bc
000000e0: 441e 163d ef46 4a3c 1a9d 0f3d 9af7 cabb
000000f0: 231e 213e 88e8 c4bb 4ec6 c4bb e38e 053d

sequential/conv2d/BiasAdd/ReadVariableOp f4 [32]
-0.030028034 -0.06126348 -0.24216211 -0.03495784 0.03471604 -0.17047915 -0.057981882 -0.02381656
0.09486257 -0.052186668 -0.013426432 0.048910435 -0.13795437 -0.030368904 -0.02517713 -0.09438385
0.009295564 -0.08518458 -0.17078854 0.24039902 -0.18236908 -0.014549362 0.055766813 -0.031451162
0.07486211 -0.07261134 -0.2191013 -0.21047425 -0.011644824 -0.13819821 -0.039015427 -0.014232335
00000000: 5afd f5bc 6aef 7abd 58f9 77be f42f 0fbd
00000010: 6832 0e3d 1692 2ebe 697e 6dbd f21a c3bc
00000020: 4f47 c23d b0c1 55bd 8afa 5bbc 4f56 483d
00000030: e943 0dbe 35c8 f8bc 4540 cebc 524c c1bd
00000040: 6c4c 183c 4175 aebd 31e3 2ebe 292b 763e
00000050: f6be 3abe 7260 6ebc be6b 643d efd2 00bd
00000060: 4e51 993d 41b5 94bd 175c 60be 9086 57be
00000070: efc9 3ebc d583 0dbe a4ce 1fbd bd2e 69bc

sequential/conv2d_1/BiasAdd/ReadVariableOp f4 [64]
-0.18088399 -0.08912793 -0.021319762 -0.15025291 -0.0044891443 -0.09139721 -0.1890525 -0.12033994
0.06625786 0.06797519 0.03373095 0.0023232456 0.018137796 -0.09099822 -0.0711883 -0.08743575
-0.03067384 -0.15154402 0.22179335 -0.03632208 -0.056271434 -0.009151397 -0.10292485 -0.15916213
0.00014617978 -0.092546314 -0.12752444 0.07451604 0.09446455 -0.099837355 -0.07429324 -0.116233416
0.00036900828 -0.031686075 0.22921969 -0.13394406 0.31602475 -0.16687207 -0.14499202 -0.04951585
-0.07182417 0.16611795 -0.1503478 -0.03670509 0.0100743985 -0.018356856 -0.049234327 -0.074852414
-0.060064934 -0.16834246 -0.08667932 -0.08939516 -0.080012485 -0.11748646 -0.017183132 -0.06714157
-0.07508216 -0.0515722 -0.051789958 0.06900659 -0.15261948 0.04241581 -0.036397353 -0.13698591
00000000: a739 39be b488 b6bd c8a6 aebc e6db 19be
00000010: ac19 93bb 762e bbbd fb96 41be c974 f6bd
00000020: 33b2 873d 9436 8b3d 7729 0a3d 9841 183b
00000030: b795 943c 465d babd 2ccb 91bd 8411 b3bd
00000040: b447 fbbc 5b2e 1bbe cc1d 633e 76c6 14bd
00000050: e07c 66bd beef 15bc 44ca d2bd 66fb 22be
00000060: d647 1939 ec88 bdbd c495 02be de9b 983d
00000070: a176 c13d 8777 ccbd 0e27 98bd c90b eebd
00000080: 7477 c139 42c9 01bd 91b8 6a3e a228 09be
00000090: ffcd a13e 83e0 2abe ca78 14be 22d1 4abd
000000a0: 8d18 93bd d31a 2a3e c6f4 19be 1458 16bd
000000b0: 170f 253c 1e61 96bc efa9 49bd 394c 99bd
000000c0: a606 76bd f761 2cbe ed84 b1bd cf14 b7bd
000000d0: 96dd a3bd be9c f0bd a4c3 8cbc 8581 89bd
000000e0: adc4 99bd 5f3d 53bd b521 54bd 5453 8d3d
000000f0: 4848 1cbe 33bc 2d3d 6415 15bd 0946 0cbe

sequential/conv2d_2/BiasAdd/ReadVariableOp f4 [64]
-0.13303035 -0.049594425 -0.032511566 -0.2203546 -0.041246694 0.09545225 -0.13921635 -0.15192424
0.08708067 -0.037700854 -0.0018999677 -0.01210779 -0.034372706 -0.20003492 -0.05360259 -0.02995573
-0.18736266 -0.03707182 -0.11038339 -0.12740469 -0.036762457 -0.2115137 -0.035422985 -0.058593836
-0.029472714 -0.0023807602 -0.021168122 -0.0026857043 -0.0473206 -0.02904606 -0.03016787 -0.01704926
-0.049356315 -0.095805064 -0.07247426 0.012122032 0.03264717 -0.08239183 -0.011490024 -0.0681534
-0.14070618 -0.031175854 -0.09221074 -0.1321033 -0.15955193 -0.10372186 -0.092860706 -0.036831412
-0.19334094 -0.079376094 -0.15429702 -0.04452786 -0.03058355 -0.081089675 -0.023000844 -0.13879035
-0.016211728 -0.0063005127 -0.021845173 -0.11731521 -0.23613594 -0.048736565 -0.01144008 0.12166939
00000000: 1c39 08be 8623 4bbd d92a 05bd a3a4 61be
00000010: 4bf2 28bd 787c c33d bb8e 0ebe 0792 1bbe
00000020: 5a57 b23d 366c 1abd 5608 f9ba c15f 46bc
00000030: 65ca 0cbd f4d5 4cbe 648e 5bbd b865 f5bc
00000040: ffdb 3fbe 9fd8 17bd b010 e2bd 6076 02be
00000050: 3b94 16bd 0c97 58be b117 11bd 1700 70bd
00000060: c370 f1bc 8706 1cbb c568 adbc a402 30bb
00000070: 3fd3 41bd 01f2 edbc 9c22 f7bc e4aa 8bbc
00000080: d929 4abd 7235 c4bd 636d 94bd 7d9b 463c
00000090: 0ab9 053d 0cbd a8bd a740 3cbc 0394 8bbd
000000a0: 4815 10be 8164 ffbc fcd8 bcbd 1646 07be
000000b0: 9561 23be 206c d4bd c12d bebd 89dc 16bd
000000c0: 2bfb 45be ef8f a2bd 0a00 1ebe d862 36bd
000000d0: 5a8a fabc 5812 a6bd 446c bcbc 0f1f 0ebe
000000e0: 75ce 84bc 8874 cebb a6f4 b2bc f542 f0bd
000000f0: 9fcd 71be fe9f 47bd 2c6f 3bbc cd2d f93d

sequential/conv2d/Conv2D f4 [32, 3, 3, 3]
-0.07094183 -0.06296634 -0.104200184 -0.055242777 0.024554858 0.058122776 -0.17013213 -0.14241473
-0.1613099 -0.0237728 -0.11143743 -0.12501524 -0.093852706 0.028708654 -0.037917074 -0.104379624
-0.09752546 -0.16287005 -0.07870657 0.15433492 -0.09260354 0.011856774 0.14796366 0.14659347
0.10632007 0.054719813 0.051917758 0.02155302 -0.1421469 0.0035612835 -0.21378325 -0.07265455
0.16315657 -0.050215382 0.06921788 0.0776312 -0.01418876 -0.040645037 0.10757307 -0.21447803
0.059692398 -0.030803341 -0.08706123 0.08208785 0.19984402 -0.2169607 -0.066113286 0.16796802
-0.029553387 0.052912068 0.03402975 -0.119800545 0.055428047 0.100130394 -0.119093694 -0.05930978
-0.022626927 0.016601747 0.07777903 0.07467342 -0.060306396 0.016188094 0.22196972 -0.051586576
0.082147196 0.06904603 -0.12758231 0.12733783 0.23792367 -0.0048407475 0.17321828 0.22681813
-0.037962195 -0.03643726 0.10267127 -0.033348326 0.13152581 -0.027734103 0.08232613 0.06172368
0.20275234 0.10929091 -0.2573724 0.11356789 0.003312263 -0.15804675 0.04342408 -0.004656978
-0.17156875 -0.084023006 0.0062316526 -0.1790296 0.11958454 -0.13573137 -0.2936009 0.11225337
0.025928807 -0.14057168 0.083585456 -0.10158391 -0.09346926 0.19060992 0.16197725 -0.057967164
0.10075223 0.15389308 -0.1228755 0.20616165 -0.20675752 -0.1441729 -0.28491566 -0.14024487
-0.18126974 -0.022229444 -0.15326124 0.099448465 0.07504067 0.023406459 0.091473125 0.14226405
-0.002203414 -0.05800467 -0.08922574 -0.11400118 0.0077443253 -0.2420496 0.16539197 0.17997849
0.018446758 0.19963706 0.16073427 -0.07552068 -0.09582152 0.06299096 0.07000169 -0.16570736
-0.100449644 -0.12191524 -0.033242393 -0.24417466 -0.14595343 0.048045527 -0.20732078 -0.11305934
-0.0004021021 0.01607347 0.009891581 -0.090906985 -0.07115408 0.065472394 -0.009124917 -0.060306042
-0.1945172 -0.041246124 -0.10614419 0.0959017 -0.006070062 -0.115381986 0.11597529 -0.1300535
-0.0641125 0.10050024 0.04490395 -0.17218281 -0.025232514 -0.007197835 -0.058964655 0.044183176
-0.0791598 -0.1719365 -0.05610103 -0.076045685 0.0039403425 0.091947705 0.06787015 -0.057297215
-0.031657916 0.08046126 0.010955086 -0.042042688 -0.02187009 -0.09380642 -0.06528841 0.010801467
0.027163636 -0.06564537 -0.0063732574 -0.14076196 -0.037495006 0.004856959 -0.14777897 -0.004618837
0.12647016 -0.16074401 -0.04197192 -0.09250862 -0.13503946 -0.11840592 0.1222471 -0.067686886
-0.22401129 -0.11484515 -0.094376266 -0.19974229 0.10113584 0.017423157 -0.22393261 0.095644526
-0.18514591 -0.21925986 -0.03558315 -0.17269722 -0.093319505 0.045163143 -0.015382433 0.045149356
-0.08320442 -0.182247 -0.07336003 -0.15145867 -0.06329477 0.038257476 -0.36271778 -0.18971644
-0.020849703 -0.19424978 -0.1254851 0.054461088 -0.26498714 -0.13455807 -0.006443419 -0.18256617
-0.2726242 -0.16394503 -0.26378107 -0.22911648 -0.1458721 -0.13890062 -0.056742758 -0.06227313
-0.057107642 -0.25409132 -0.2403363 -0.16354139 -0.1005555 0.15138832 -0.0059923083 0.01585323
0.13203223 -0.13385911 -0.16946875 -0.069396004 -0.18348624 0.015453337 0.038475625 -0.07308355
00000000: f349 91bd 7ff4 80bd e866 d5bd 4046 62bd
00000010: 4527 c93c 2612 6e3d 1e37 2ebe 2bd5 11be
00000020: 6c2e 25be 2dbf c2bc 4f39 e4bd ff03 00be
00000030: d935 c0bd 692e eb3c ef4e 1bbd fcc4 d5bd
00000040: 6ebb c7bd 68c7 26be e930 a1bd f909 1e3e
00000050: eda6 bdbd ea42 423c c983 173e 991c 163e
00000060: 56be d93d e221 603d b7a7 543d f68f b03c
00000070: f58e 11be 6c64 693b ffe9 5abe e9cb 94bd
00000080: 8412 273e a5ae 4dbd 1bc2 8d3d 1bfd 9e3d
00000090: f977 68bc 697b 26bd 454f dc3d 21a0 5bbe
000000a0: 0480 743d 4a57 fcbc 284d b2bd ad1d a83d
000000b0: e9a3 4c3e f22a 5ebe 6766 87bd cfff 2b3e
000000c0: f219 f2bc 53ba 583d c762 0b3d fd59 f5bd
000000d0: 8508 633d 2a11 cd3d 65e7 f3bd d0ee 72bd
000000e0: 1b5c b9bc 6300 883c 9d4a 9f3d 61ee 983d
000000f0: d703 77bd e59c 843c 084c 633e 724c 53bd
00000100: ca3c a83d 0168 8d3d f0a4 02be d964 023e
00000110: 43a2 733e 229f 9ebb 2260 313e 0343 683e
00000120: 3f7e 1bbd 3d3f 15bd 5145 d23d 4198 08bd
00000130: b4ae 063e a132 e3bc 9a9a a83d f8d1 7c3d
00000140: 4f9e 4f3e ead3 df3d 51c6 83be 4896 e83d
00000150: 8d12 593b 02d7 21be 73dd 313d 9099 98bb
00000160: b8af 2fbe 4114 acbd e432 cc3b 8953 37be
00000170: bde8 f43d 2afd 0abe db52 96be 18e5 e53d
00000180: a668 d43c 06f2 0fbe da2e ab3d 3a0b d0bd
00000190: d06c bfbd 3f2f 433e 5ddd 253e fa6e 6dbd
000001a0: 2f57 ce3d 2696 1d3e 26a6 fbbd 0a1c 533e
000001b0: 3eb8 53be 10a2 13be 77e0 91be 5a9c 0fbe
000001c0: c69e 39be 861a b6bc 84f0 1cbe a3ab cb3d
000001d0: ecae 993d e7be bf3c 4356 bb3d abad 113e
000001e0: 2767 10bb 4e96 6dbd fcbb b6bd 7379 e9bd
000001f0: 1cc4 fd3b dadb 77be 835c 293e 484c 383e
00000200: a81d 973c a86d 4c3e 8697 243e 96aa 9abd
00000210: 133e c4bd 6801 813d 0c5d 8f3d 31af 29be
00000220: 8bb8 cdbd b3ae f9bd 2d29 08bd ec08 7abe
00000230: d174 15be 63cb 443d e64b 54be a88b e7bd
00000240: 3bd1 d2b9 82ac 833c 4c10 223c 712d babd
00000250: 3bb9 91bd 6416 863d ad80 15bc 7803 77bd
00000260: 842f 47be b2f1 28bd 2062 d9bd 1c68 c43d
00000270: 5fe7 c6bb 644d ecbd 7484 ed3d bf2c 05be
00000280: 6a4d 83bd 12d3 cd3d 34ed 373d b150 30be
00000290: 6bb4 cebc d1db ebbb ec84 71bd 6bf9 343d
000002a0: 891e a2bd 1f10 30be 32ca 65bd d7bd 9bbd
000002b0: fd1d 813b 144f bc3d 81ff 8a3d 7cb0 6abd
000002c0: bbab 01bd e0c8 a43d f67c 333c f434 2cbd
000002d0: e728 b3bc 951d c0bd eeb5 85bd a3f8 303c
000002e0: 4686 de3c 1471 86bd c2d6 d0bb e723 10be
000002f0: 5d94 19bd 2027 9f3b 5f53 17be 9d59 97bb
00000300: 6581 013e 149a 24be bfea 2bbd 2975 bdbd
00000310: c947 0abe ce7e f2bd b05c fa3d 6c9f 8abd
00000320: 3763 65be ef33 ebbd 5848 c1bd 3e89 4cbe
00000330: 4f20 cf3d 02bb 8e3c 974e 65be 47e1 c33d
00000340: e496 3dbe a885 60be a3bf 11bd 8ad7 30be
00000350: 4c1e bfbd fdfc 383d 9a06 7cbc 88ee 383d
00000360: 1467 aabd f59e 3abe c93d 96bd fb17 1bbe
00000370: b0a0 81bd dfb3 1c3d 25b6 b9be 0745 42be
00000380: ffcc aabc 6ae9 46be 2b7f 00be 9712 5f3d
00000390: 65ac 87be 97c9 09be 5123 d3bb a0f2 3abe
000003a0: 6695 8bbe 35e1 27be 500e 87be 839d 6abe
000003b0: 7f5f 15be f73b 0ebe 186b 68bd 1c12 7fbd
000003c0: b4e9 69bd 4218 82be b81a 76be 6577 27be
000003d0: 0bf0 cdbd 8a05 1b3e 205b c4bb a2de 813c
000003e0: 7533 073e 5d12 09be 3789 2dbe 7e1f 8ebd
000003f0: d1e3 3bbe fe2f 7d3c 9e98 1d3d d4ac 95bd

sequential/conv2d_1/Conv2D i1 [64, 3, 3, 32]
13 -4 -18 -22 -28 22 6 -61
78 4 -40 -112 28 67 13 -17
42 51 35 54 7 5 -54 -26
-33 11 -44 22 -33 -54 -83 46
-33 -3 -23 -12 13 24 -13 -74
16 5 -69 -51 40 82 72 29
24 69 7 -34 -17 -38 -44 -26
-53 -13 2 3 -16 -52 -109 71
38 64 5 -39 -25 27 -27 -70
60 -30 -64 -83 51 14 67 24
-64 49 50 10 -33 -10 -71 -18
9 38 -40 -17 -35 -61 -74 71
-19 47 -43 -34 -53 23 -9 -55
47 -40 -61 -98 -14 91 58 40
16 73 19 53 -12 -7 -8 -73
5 3 -36 31 9 -21 -80 28
-22 51 -1 -11 -67 22 23 -84
40 9 -45 -55 54 23 2 36
34 73 -6 24 28 -44 -17 -63
15 43 0 -38 -67 -97 -89 18
-62 -1 14 -43 22 23 -32 -55
5 4 -76 -69 47 -20 7 -51
-56 35 22 16 28 -11 -47 -3
-11 46 27 -23 -50 -46 -83 14
-46 -4 -13 -36 -51 -1 5 -36
83 -26 -62 -33 38 21 9 6
77 72 44 -3 -21 -12 1 -62
-26 14 -19 29 -46 -67 -102 26
-4 46 -39 -18 -58 33 -17 14
13 34 -31 -127 5 58 14 5
0 34 42 -13 31 14 12 -60
-34 -13 34 2 -55 -52 -98 38
00000000: 0dfc eeea e416 06c3 4e04 d890 1c43 0def
00000010: 2a33 2336 0705 cae6 df0b d416 dfca ad2e
00000020: dffd e9f4 0d18 f3b6 1005 bbcd 2852 481d
00000030: 1845 07de efda d4e6 cbf3 0203 f0cc 9347
00000040: 2640 05d9 e71b e5ba 3ce2 c0ad 330e 4318
00000050: c031 320a dff6 b9ee 0926 d8ef ddc3 b647
00000060: ed2f d5de cb17 f7c9 2fd8 c39e f25b 3a28
00000070: 1049 1335 f4f9 f8b7 0503 dc1f 09eb b01c
00000080: ea33 fff5 bd16 17ac 2809 d3c9 3617 0224
00000090: 2249 fa18 1cd4 efc1 0f2b 00da bd9f a712
000000a0: c2ff 0ed5 1617 e0c9 0504 b4bb 2fec 07cd
000000b0: c823 1610 1cf5 d1fd f52e 1be9 ced2 ad0e
000000c0: d2fc f3dc cdff 05dc 53e6 c2df 2615 0906
000000d0: 4d48 2cfd ebf4 01c2 e60e ed1d d2bd 9a1a
000000e0: fc2e d9ee c621 ef0e 0d22 e181 053a 0e05
000000f0: 0022 2af3 1f0e 0cc4 def3 2202 c9cc 9e26

sequential/conv2d_2/Conv2D i1 [64, 3, 3, 64]
-15 7 -42 -13 8 -7 4 2
-21 -24 -41 1 -11 -14 -22 6
-22 -19 -4 0 32 4 -9 16
12 -5 -13 19 -18 -1 -6 3
-13 -2 -11 -9 -20 -33 -8 -13
9 1 -16 13 21 6 36 0
10 -32 22 14 -8 21 -12 -31
10 -5 11 -17 -3 -17 18 -7
-6 3 -101 21 -1 12 4 5
-23 -32 -6 -30 -17 -52 -14 15
-33 -9 -24 -13 7 11 6 7
-19 10 9 14 -31 13 13 22
-19 -3 -6 3 -42 -4 7 -6
15 -27 4 7 -12 -11 -21 0
-42 -22 -3 -3 5 12 -7 -9
-25 -9 -7 -2 6 -16 23 0
14 -29 -92 7 -27 -25 13 4
12 -52 -12 -46 -3 -35 0 27
-47 -7 17 -61 -14 13 -26 15
-44 8 22 -5 -13 26 1 -23
-34 -9 23 11 14 18 26 -5
19 36 27 -1 -57 -24 -26 -14
-64 15 -14 -4 -2 -13 -6 -14
4 3 -19 -27 19 -31 0 -18
-3 -3 2 5 -1 -17 16 3
-25 -27 -42 -40 -21 -16 -13 -2
-18 -12 -22 1 29 -1 -33 -2
-28 11 16 13 -25 4 1 22
6 -7 -17 3 -69 2 -17 -18
7 -11 3 18 -25 -12 23 -6
-30 -10 9 18 5 16 19 -18
5 -18 -6 -14 12 3 27 10
00000000: f107 d6f3 08f9 0402 ebe8 d701 f5f2 ea06
00000010: eaed fc00 2004 f710 0cfb f313 eeff fa03
00000020: f3fe f5f7 ecdf f8f3 0901 f00d 1506 2400
00000030: 0ae0 160e f815 f4e1 0afb 0bef fdef 12f9
00000040: fa03 9b15 ff0c 0405 e9e0 fae2 efcc f20f
00000050: dff7 e8f3 070b 0607 ed0a 090e e10d 0d16
00000060: edfd fa03 d6fc 07fa 0fe5 0407 f4f5 eb00
00000070: d6ea fdfd 050c f9f7 e7f7 f9fe 06f0 1700
00000080: 0ee3 a407 e5e7 0d04 0ccc f4d2 fddd 001b
00000090: d1f9 11c3 f20d e60f d408 16fb f31a 01e9
000000a0: def7 170b 0e12 1afb 1324 1bff c7e8 e6f2
000000b0: c00f f2fc fef3 faf2 0403 ede5 13e1 00ee
000000c0: fdfd 0205 ffef 1003 e7e5 d6d8 ebf0 f3fe
000000d0: eef4 ea01 1dff dffe e40b 100d e704 0116
000000e0: 06f9 ef03 bb02 efee 07f5 0312 e7f4 17fa
000000f0: e2f6 0912 0510 13ee 05ee faf2 0c03 1b0a

sequential/dense/MatMul i1 [64, 6400] scale=0.0047845785 zero_point=0
0.15310651 0.03349205 -0.03349205 -0.0047845785 -0.11961446 0.076553255 -0.27272096 -0.11004531
0.11961446 -0.21530603 0.047845785 -0.15310651 -0.009569157 0.052630365 -0.07176868 -0.09090699
0.0047845785 0.062199518 -0.0669841 0.20573688 -0.014353735 -0.043061204 0.124399036 -0.11482988
0.0 0.22487518 0.03349205 0.10526073 0.24879807 -0.09569157 0.10526073 0.30621302
0.043061204 -0.22965977 0.014353735 0.14832193 0.0 0.043061204 -0.043061204 0.11482988
-0.076553255 0.16267566 0.124399036 0.19616772 -0.052630365 0.02870747 0.09090699 0.0
-0.038276628 -0.1770294 0.009569157 0.052630365 -0.14832193 -0.11961446 0.10526073 0.014353735
0.0047845785 0.17224482 0.05741494 -0.062199518 -0.019138314 -0.03349205 -0.03349205 -0.09569157
0.11004531 0.12918362 0.009569157 0.062199518 -0.052630365 -0.014353735 -0.20573688 -0.05741494
0.10526073 -0.10526073 0.02870747 -0.13875277 -0.038276628 0.12918362 -0.023922892 -0.062199518
0.019138314 0.1339682 0.062199518 0.2679364 -0.009569157 -0.023922892 0.038276628 0.0047845785
0.08133783 0.1770294 0.11004531 0.02870747 0.27272096 -0.052630365 -0.009569157 0.28229013
0.02870747 -0.19138314 -0.0047845785 0.124399036 -0.0047845785 -0.1339682 -0.047845785 0.043061204
-0.08133783 -0.014353735 0.11961446 0.16267566 0.038276628 0.100476146 0.1339682 -0.023922892
-0.014353735 -0.1339682 -0.03349205 0.014353735 -0.07176868 -0.14832193 0.076553255 0.076553255
-0.009569157 0.1578911 0.043061204 0.0 -0.0047845785 -0.023922892 -0.019138314 -0.14353736
0.10526073 0.124399036 -0.019138314 0.09090699 -0.05741494 0.0 -0.09569157 0.014353735
0.11961446 -0.10526073 0.08133783 -0.076553255 0.014353735 0.11004531 -0.0047845785 0.038276628
-0.014353735 0.14353736 0.052630365 0.23922892 -0.038276628 -0.0047845785 -0.02870747 0.0
0.07176868 0.16267566 0.052630365 0.1339682 0.16746025 -0.023922892 -0.09090699 0.20095229
-0.10526073 -0.11482988 0.047845785 0.16267566 -0.019138314 -0.052630365 -0.11482988 0.043061204
-0.05741494 -0.062199518 0.11961446 0.1578911 0.023922892 0.18659855 0.11004531 0.009569157
0.047845785 -0.11004531 0.100476146 -0.047845785 -0.13875277 -0.076553255 0.10526073 0.0669841
0.02870747 0.076553255 0.0669841 -0.014353735 0.03349205 -0.08133783 0.124399036 -0.02870747
0.03349205 0.009569157 0.0047845785 0.038276628 0.0 -0.100476146 -0.038276628 0.0669841
0.014353735 -0.09090699 0.11482988 -0.02870747 -0.02870747 0.100476146 0.014353735 0.038276628
-0.047845785 0.1770294 0.02870747 0.15310651 -0.02870747 -0.0047845785 -0.023922892 -0.047845785
0.0669841 0.124399036 0.009569157 0.13875277 0.10526073 -0.038276628 -0.11004531 0.11482988
-0.062199518 0.043061204 0.062199518 0.09569157 -0.12918362 0.124399036 -0.1770294 -0.076553255
-0.05741494 -0.07176868 0.062199518 0.12918362 0.0 0.16746025 0.1578911 0.019138314
0.1339682 -0.0047845785 0.0047845785 -0.009569157 -0.11961446 -0.0047845785 0.0669841 0.08133783
-0.043061204 0.047845785 0.08133783 0.038276628 0.062199518 -0.062199518 0.076553255 -0.18659855
00000000: 2007 f9ff e710 c7e9 19d3 0ae0 fe0b f1ed
00000010: 010d f22b fdf7 1ae8 002f 0716 34ec 1640
00000020: 09d0 031f 0009 f718 f022 1a29 f506 1300
00000030: f8db 020b e1e7 1603 0124 0cf3 fcf9 f9ec
00000040: 171b 020d f5fd d5f4 16ea 06e3 f81b fbf3
00000050: 041c 0d38 fefb 0801 1125 1706 39f5 fe3b
00000060: 06d8 ff1a ffe4 f609 effd 1922 0815 1cfb
00000070: fde4 f903 f1e1 1010 fe21 0900 fffb fce2
00000080: 161a fc13 f400 ec03 19ea 11f0 0317 ff08
00000090: fd1e 0b32 f8ff fa00 0f22 0b1c 23fb ed2a
000000a0: eae8 0a22 fcf5 e809 f4f3 1921 0527 1702
000000b0: 0ae9 15f6 e3f0 160e 0610 0efd 07ef 1afa
000000c0: 0702 0108 00eb f80e 03ed 18fa fa15 0308
000000d0: f625 0620 faff fbf6 0e1a 021d 16f8 e918
000000e0: f309 0d14 e51a dbf0 f4f1 0d1b 0023 2104
000000f0: 1cff 01fe e7ff 0e11 f70a 1108 0df3 10d9

sequential/dense_1/MatMul i1 [30, 64] scale=0.0041626273 zero_point=0
-0.31219706 -0.037463646 0.0915778 0.13320407 -0.22061925 0.17483035 0.17899297 -0.05827678
-0.19980611 0.020813137 -0.07908992 0.024975764 -0.0041626273 -0.212294 -0.46621424 0.08741517
0.32884756 0.19148086 -0.041626275 -0.19564348 -0.16234246 -0.14569196 0.0041626273 0.1831556
-0.0457889 -0.12904145 0.06660204 -0.099903055 -0.27889603 -0.08325255 0.06243941 -0.15817983
-0.2580829 -0.19980611 -0.24143238 0.22478187 0.14152932 -0.17899297 0.14569196 0.099903055
-0.10406568 -0.054114155 -0.041626275 -0.22061925 -0.0915778 0.020813137 -0.01665051 0.037463646
-0.0457889 -0.40377486 -0.08741517 0.17899297 0.17483035 0.049951527 -0.21645662 0.0915778
0.15401721 0.30387178 -0.054114155 0.10406568 -0.23310712 -0.23726976 -0.15401721 0.28305864
-0.14569196 -0.05827678 -0.23726976 0.1373667 -0.20813136 -0.2289445 -0.30387178 -0.02913839
0.037463646 0.112390935 0.19564348 -0.35798594 0.31635967 0.17066772 0.041626275 -0.2580829
0.07076466 0.0915778 0.16234246 -0.19980611 -0.17899297 0.06243941 -0.3496607 -0.34133545
0.1373667 -0.06660204 0.1373667 0.0457889 -0.19980611 0.2289445 0.01665051 -0.19564348
0.11655356 0.12071619 -0.008325255 -0.2622455 0.23726976 -0.37879908 0.1831556 -0.20396873
0.0915778 0.28722128 -0.024975764 0.09574043 0.42042536 -0.06660204 -0.34549806 0.28305864
-0.08325255 0.14152932 -0.02913839 -0.22478187 -0.1831556 0.15401721 -0.22061925 -0.31635967
-0.14569196 0.01665051 0.0915778 0.24143238 0.10822831 0.1665051 -0.05827678 0.18731822
0.18731822 -0.22061925 -0.1665051 0.14152932 -0.24975763 -0.23726976 -0.08741517 -0.29554653
-0.08741517 0.03330102 -0.03330102 -0.1373667 -0.112390935 0.099903055 -0.28722128 -0.112390935
-0.36214858 -0.19564348 0.212294 -0.19980611 0.2580829 0.07492729 -0.07076466 0.21645662
-0.20813136 -0.15401721 -0.18731822 0.11655356 0.099903055 -0.02913839 0.07076466 -0.049951527
0.23310712 -0.25392026 0.17066772 -0.21645662 0.23726976 0.041626275 -0.08741517 -0.19980611
0.020813137 0.08325255 0.17483035 -0.008325255 0.06660204 -0.11655356 0.20813136 0.17066772
-0.15401721 0.15817983 -0.24143238 0.008325255 -0.112390935 0.020813137 -0.049951527 0.20396873
-0.12904145 -0.3371728 -0.24559501 -0.020813137 -0.29554653 -0.24559501 -0.24559501 -0.2622455
0.3371728 -0.39128697 0.037463646 -0.27057078 -0.2622455 0.08325255 -0.1665051 -0.18731822
0.08325255 -0.22061925 -0.09574043 -0.08325255 -0.13320407 0.0457889 -0.25392026 0.12071619
-0.25392026 -0.041626275 -0.049951527 0.06243941 0.24975763 -0.041626275 0.28722128 -0.12071619
0.16234246 0.01665051 0.10406568 0.012487882 0.07076466 0.22061925 -0.24975763 0.14985459
0.0457889 0.037463646 -0.16234246 0.14152932 0.19564348 -0.08325255 0.12071619 -0.14985459
0.06243941 0.10822831 -0.29970917 0.02913839 -0.24143238 -0.23310712 -0.1665051 -0.0915778
-0.10822831 0.22061925 0.024975764 -0.15401721 -0.18731822 0.112390935 0.1665051 -0.20813136
0.14985459 -0.20813136 -0.01665051 -0.24559501 0.12487882 -0.16234246 -0.1831556 -0.17483035
00000000: b5f7 1620 cb2a 2bf2 d005 ed06 ffcd 9015
00000010: 4f2e f6d1 d9dd 012c f5e1 10e8 bdec 0fda
00000020: c2d0 c636 22d5 2318 e7f3 f6cb ea05 fc09
00000030: f59f eb2b 2a0c cc16 2549 f319 c8c7 db44
00000040: ddf2 c721 cec9 b7f9 091b 2faa 4c29 0ac2
00000050: 1116 27d0 d50f acae 21f0 210b d037 04d1
00000060: 1c1d fec1 39a5 2ccf 1645 fa17 65f0 ad44
00000070: ec22 f9ca d425 cbb4 dd04 163a 1a28 f22d
00000080: 2dcb d822 c4c7 ebb9 eb08 f8df e518 bbe5
00000090: a9d1 33d0 3e12 ef34 cedb d31c 18f9 11f4
000000a0: 38c3 29cc 390a ebd0 0514 2afe 10e4 3229
000000b0: db26 c602 e505 f431 e1af c5fb b9c5 c5c1
000000c0: 51a2 09bf c114 d8d3 14cb e9ec e00b c31d
000000d0: c3f6 f40f 3cf6 45e3 2704 1903 1135 c424
000000e0: 0b09 d922 2fec 1ddc 0f1a b807 c6c8 d8ea
000000f0: e635 06db d31b 28ce 24ce fcc5 1ed9 d4d6
